assignment_2/mnist/model/mnist_cnn.pt (torch, 179918 bytes, 16 tensors)

conv1.weight f4 [10, 1, 5, 5]
000000 da 89 89 3d 91 77 81 3e d3 76 37 3e 89 9d 37 bb
       0.06715746 0.25286534 0.17916422 -0.0028017482
000010 ad 7c 60 3d e7 8e 1f 3e d5 58 f5 3d 6e 04 f2 3e
       0.0548064 0.15581857 0.11979834 0.47269005
000020 3a ae 05 3e 25 c0 a7 3e 42 a4 08 3e fd 1c 92 3e
       0.13054743 0.32763782 0.1334391 0.2853774
000030 72 e2 b2 3d c2 af a4 3e e9 a7 a5 3e 1f ef 58 be
       0.08734597 0.32165343 0.32354668 -0.21184967
000040 b5 1e 15 3e e0 94 af 3d 83 2f 66 3e 35 a9 90 bd
       0.14562495 0.085733175 0.22479062 -0.07063524
000050 56 7a 38 be ef 5e 97 bc 82 9a 3e be 7d 76 8b be
       -0.18015417 -0.018477885 -0.18613628 -0.27238837
000060 ac b0 1b be 5c 27 65 be f0 c0 3f be 57 9d 4b 3c
       -0.15204114 -0.22378296 -0.18725944 0.012427649
000070 7a 6c 35 3c 72 a2 c3 3d 94 ea 28 3c a7 65 5c be
       0.011073226 0.09552468 0.010309834 -0.21523152
000080 03 34 26 be bf 48 7b be 6f af bd bc 59 f0 e7 bd
       -0.16230778 -0.24539469 -0.023154942 -0.113251396
000090 48 16 ff 3d 76 0f 07 3d a9 06 30 be 59 83 03 be
       0.12455422 0.03297373 -0.1719004 -0.12843074
0000a0 bc eb 83 3e b0 f1 40 bd 8c 20 20 3e 53 e1 08 3e
       0.2576579 -0.04710549 0.15637416 0.13367204
0000b0 96 ea eb 3d 32 54 5a 3e 18 38 60 3e 78 4d 02 bd
       0.11519353 0.2132118 0.21896398 -0.03181216
0000c0 83 06 53 3e f8 40 83 bd ee 39 99 3b fb 3d 56 be
       0.20607953 -0.06408876 0.004676095 -0.20922081
0000d0 62 bb b5 bd d6 c7 f3 3d c6 13 2b 3e 19 a2 34 be
       -0.08873631 0.1190335 0.16706762 -0.1763996
0000e0 19 7b 11 be e7 2e 11 be 9b 3c 07 be 76 4e c9 3e
       -0.14207114 -0.14178048 -0.13206713 0.39317673
0000f0 0c 96 33 be 79 d4 82 be 29 13 49 be 2b da 80 3e
       -0.17537707 -0.2555273 -0.19636215 0.2516645
000100 b9 63 db 3e 24 86 73 be a0 86 88 be 04 f7 3a be
       0.4284952 -0.2378164 -0.2666521 -0.18258291
000110 82 2b 5d 3d 43 97 d4 3e e3 5b 64 bc 23 ca 08 3e
       0.05399657 0.41521654 -0.013937923 0.13358359
000120 84 f5 b5 bc ce 9c 1b 3e db d9 b1 3e d2 ac e6 3c
       -0.022211798 0.15196535 0.34736523 0.028158579
000130 2b 16 53 3d 2d fa 12 3e 11 b4 b6 3e a7 c4 37 3e
       0.051534813 0.14353247 0.35684255 0.1794611
000140 d7 8e 5d bd a4 5a 0c 3e c4 fd 9c 3d a6 fa 23 3e
       -0.0540913 0.13706452 0.076655895 0.16013584
000150 71 d3 69 3d ba 2d e0 bd 04 7c 70 be da 54 93 be
       0.057086412 -0.10946222 -0.23484808 -0.28775674
000160 f8 da 0d bd f3 30 1c 3d fc d6 48 be 92 35 af be
       -0.034632653 0.03813262 -0.1961326 -0.34220558
000170 08 e0 8c be a8 a8 90 be 38 4e 0f be 91 39 42 3e
       -0.27514672 -0.28253675 -0.13994682 0.18967272
000180 7a b6 17 3e 9f 59 6b 3d 3c 4a f9 3c ed 3a 06 bb
       0.14815703 0.057458516 0.030430906 -0.00204819
000190 e5 c3 db 3c 57 b7 61 be 37 b9 17 bd 9c 89 2a bd
       0.026826808 -0.22042595 -0.03704187 -0.04163514
0001a0 f1 88 88 3d ac 4f 1c 3d e2 02 6b 3c 65 98 68 be
       0.066667445 0.03816192 0.014343949 -0.22714384
0001b0 f8 94 42 be eb a0 5c 3d 07 78 5e be b3 2d d6 bd
       -0.1900214 0.0538644 -0.21725474 -0.10457935
0001c0 27 64 2f be b1 a6 d1 3d cb 5a 6e be ee 1e 7d 3d
       -0.17128049 0.10236872 -0.23276822 0.061797075
0001d0 40 2e 3a be 34 ad b1 bd 0d 2e 0f be c3 77 4f bd
       -0.18181705 -0.08675614 -0.1398241 -0.050651323
0001e0 81 3f 19 3e 16 0b cd 3d 37 31 ce bd 61 73 0d be
       0.14965631 0.1001188 -0.10067981 -0.13813545
0001f0 20 10 55 be 52 fb 68 3d 3c a7 d4 3c c1 8d 89 3e
       -0.20806932 0.056880303 0.02595865 0.26865962
000200 e7 a4 2f bd 6a 29 11 3e ca 55 18 be 07 b1 5f 3e
       -0.042881873 0.14175954 -0.14876476 0.21844874
000210 31 52 9b 3e f7 cb a6 3e 01 a7 7a 3c cf 9f bd 3d
       0.30336145 0.32577488 0.015298606 0.09258997
000220 02 04 37 3e a3 95 5c bc a7 97 5e bd b5 95 1b 3d
       0.17872623 -0.013463411 -0.054343846 0.03798457
000230 49 2f a3 bd 98 6c 64 be d2 0e da bd 14 45 0a bc
       -0.07968003 -0.2230705 -0.10647358 -0.008439321
000240 b0 1f af bd 48 23 c4 3d 49 d3 44 be 03 d1 2b be
       -0.08550966 0.09577042 -0.19221224 -0.1677895
000250 63 2e 06 bd ed 30 0c be 4e a6 25 be 6c 0c 30 3e
       -0.03275908 -0.13690539 -0.16176721 0.17192239
000260 8d de 64 bd 3e e5 fc bd e5 21 1a be 54 1f 1a 3e
       -0.055876303 -0.12348412 -0.15051992 0.15051013
000270 67 d9 d4 3d c0 e2 21 be 8c df 73 be bd 55 b4 be
       0.10393029 -0.15809155 -0.23815745 -0.35221663
000280 3c 2b a1 bd 3f c4 86 bc 8d 3d 00 3e 5c 75 11 bd
       -0.078695744 -0.016451 0.1252348 -0.035512313
000290 24 2a 24 bd d2 ff 6d 3e 36 b3 d7 3d f4 b4 51 3e
       -0.04007925 0.23242119 0.10532229 0.20479184
0002a0 c0 05 6f 3e 98 5a 22 be 2a 4f 71 3e f1 4b d6 3d
       0.23342037 -0.15854871 0.23565355 0.104637034
0002b0 51 6c fb bd d4 e6 39 3d 94 7c 7e 3e b1 95 19 be
       -0.12276519 0.04538615 0.2485221 -0.14998509
0002c0 ff 94 da 3d 85 ea 22 3d 25 b0 48 3e 33 bf 3e bd
       0.1067295 0.039774437 0.19598444 -0.04656906
0002d0 30 1a 45 3e 8b 92 34 3e aa aa 62 bd 7f 06 aa 3d
       0.19248271 0.17634027 -0.05533854 0.0830202
0002e0 81 25 9e 3e 2d ce 95 3e ee 46 03 3d d7 9a 71 3d
       0.30887988 0.29258862 0.032050066 0.058985557
0002f0 88 3d d9 bd 13 f6 2c be 4c 4e 18 3c 95 dc 25 bd
       -0.10607439 -0.16890745 0.009296011 -0.040493567
000300 bd 01 7c bd 06 90 a3 bd 18 20 2d bc f2 38 88 be
       -0.061525095 -0.07986455 -0.010566734 -0.26605946
000310 dc f5 6c be 56 5c 11 be 11 f5 8a 3d e1 e3 fc bc
       -0.23140663 -0.1419538 0.06785024 -0.03087038
000320 0d 7c 60 bd 83 43 7e bd 8d a6 d6 bd 46 99 7b 3e
       -0.054805804 -0.062076103 -0.10480986 0.24570188
000330 1b 67 17 3e 3e 99 26 be 2f 27 4e be ef e5 86 3d
       0.14785425 -0.16269395 -0.20132135 0.06586825
000340 12 fd 70 3e 54 2a 87 3e 66 e1 94 be 70 c6 97 3d
       0.23534039 0.2639948 -0.29078215 0.07410896
000350 ad e4 b2 3e b7 01 46 3e 30 60 be bd 2a 24 7e be
       0.3494009 0.19336592 -0.0929569 -0.24818483
000360 40 64 29 3e 0e 81 9b 3e ed 7a ce 3d fe 25 f0 3d
       0.16542149 0.30371898 0.1008204 0.117259964
000370 0e ad f4 bc e8 21 94 3e e8 b5 51 3e a1 ab 4d 3d
       -0.029867675 0.28932118 0.20479548 0.050212506
000380 72 1b dc 3d d3 27 bb 3d 7e 2d ba 3c 4e dd 14 3e
       0.10747422 0.09138455 0.02272677 0.14537546
000390 4e bb 01 3b 10 f8 4c be f1 b5 61 3e bd 38 55 3e
       0.001979548 -0.20016503 0.22042061 0.20822425
0003a0 93 52 66 3e 6b e4 18 bd aa 4f dd 3c fb a0 4f bd
       0.22492437 -0.03732721 0.027015526 -0.050690632
0003b0 9e d9 2e 3e f9 32 74 3e 7d b6 46 3e 0a 3e 85 3d
       0.17075202 0.2384757 0.19405551 0.06505974
0003c0 51 5d f2 bd a4 f7 75 3e ff a7 fa 3d b1 65 14 3e
       -0.11834205 0.24020249 0.12239074 0.14491917
0003d0 dc df 95 3e 0f e3 b3 3c 20 56 69 bc 69 6c 85 3d
       0.29272354 0.021958856 -0.014241725 0.06514818
0003e0 12 84 95 3e bb 3c 48 3e
       0.29202324 0.19554417

conv1.bias f4 [10]
000000 3c 83 b5 3e 1b e2 8a bc 7c e4 10 3e 59 7b 65 bd
       0.35451686 -0.016953519 0.1414966 -0.056025837
000010 b8 49 7c 3e 0e 32 9d 3c b8 39 5a 3e de e8 7a bc
       0.24637496 0.019188907 0.2131108 -0.015314309
000020 ee b9 60 bc 35 b4 93 3e
       -0.013716204 0.28848425

conv2.weight f4 [20, 10, 5, 5]
000000 d0 f0 0b 3d 2c 67 86 3c 4f c1 8b bc d1 39 13 bd
       0.034165204 0.016406618 -0.01705995 -0.03594381
000010 70 cf 95 3d 77 1a 40 3c da 3d 45 3d 2a 6b e5 bd
       0.07314956 0.01172506 0.04815469 -0.112020805
000020 c9 9f ba bc dd 5f 16 bd 8f ac 27 3d 5e 01 fa 3b
       -0.02278127 -0.036712516 0.04093605 0.0076295575
000030 fd 2f 0c bd 4d 43 87 bd 8b 1f aa bd 03 95 44 3d
       -0.034225453 -0.066046335 -0.083067976 0.04799367
000040 77 bb 62 3d 9a e0 96 ba c6 a3 10 bd b0 32 d7 bd
       0.05535456 -0.0011511028 -0.035312437 -0.10507715
000050 c0 00 7f bc 1a c2 e7 3c 06 ee ee 3c e3 e8 41 bd
       -0.015564144 0.028290797 0.029166233 -0.04734124
000060 10 f4 38 bd 61 ae c0 3c 68 80 fe bb f5 fd 4d bc
       -0.04515463 0.02352065 -0.007766772 -0.012572755
000070 aa c4 be bc 66 1f 08 bc 98 12 65 3c 01 29 16 bd
       -0.023287136 -0.008308267 0.013981484 -0.036660198
000080 2d d2 75 3d ca 8e fc 3c 52 47 c2 b9 ae d2 69 bd
       0.060014892 0.030829806 -0.000370557 -0.057085685
000090 bd c5 53 3d 2f 3f 46 3c eb cd d6 3c 4e 13 83 3b
       0.05170225 0.012100025 0.026221236 0.004000104
0000a0 b0 bb 06 3d 50 45 56 3d 47 44 ca bc db 92 80 bc
       0.032893836 0.052312195 -0.02469076 -0.015695026
0000b0 62 da 82 bd 35 5a c6 bc 56 02 4e 3d 7f 70 18 bd
       -0.063893095 -0.024212936 0.050295196 -0.03721666
0000c0 e5 02 16 bd 17 51 b1 bc 98 25 1d bd 59 bd ec bd
       -0.036623854 -0.021645112 -0.03836593 -0.11559553
0000d0 c0 1d 9f bd d2 1d 2e bd 87 8b 2f bd c0 e0 44 bd
       -0.07769346 -0.042508908 -0.042857673 -0.0480659
0000e0 23 12 18 3b e5 99 8b bd 5a 6f 15 bc 42 a7 5e bd
       0.002320417 -0.068164624 -0.009120787 -0.05435873
0000f0 6b 34 56 3d 31 65 f2 3b ce e5 63 bd 83 84 ef bc
       0.052296083 0.007397317 -0.05563908 -0.029237991
000100 af 6c 50 bd b6 40 26 3d 8b 3d c6 3d ca 61 7f 3d
       -0.0508849 0.040589057 0.09679707 0.06234912
000110 09 b6 70 bd 69 6b 25 bd d4 d8 1a 3d 6b 47 a5 3d
       -0.058767352 -0.040385637 0.03780444 0.080702625
000120 00 35 cb 3d 8b df 8c 3a ef dd 21 bd ed 57 08 3c
       0.09922218 0.0010747773 -0.039518293 0.008321744
000130 28 34 4b 3d 12 0a b0 3d b2 d4 a5 3d 0f 0d 34 3c
       0.049610287 0.08595671 0.08097209 0.010989442
000140 a2 d6 d0 bc d5 95 4d bd 44 a6 8a 3d 43 75 67 3d
       -0.02549297 -0.05019172 0.06769994 0.056508314
000150 c9 9c 2e bd dc a6 91 3d 2c 13 60 3d 29 12 3f bd
       -0.04262999 0.07111904 0.054705784 -0.04664818
000160 f9 c7 82 bd e1 5a fb 3c 0c 2a 26 3c 84 8f 8a bc
       -0.06385798 0.030682983 0.010141861 -0.016914137
000170 9e 11 7e bd 9e ea a7 bc be eb 61 bd 8a 3c d7 39
       -0.06202852 -0.020497616 -0.055156462 0.000410531
000180 fd 54 4c bd 88 4d 14 bd 67 56 c1 3c fa f9 ed 3c
       -0.04988574 -0.036206752 0.02360077 0.029049862
000190 18 9f 1a bd b5 b3 46 bb 11 88 d3 3c ef 5a 76 3c
       -0.03774938 -0.0030319516 0.025821717 0.015036329
0001a0 da d1 02 bd f9 a6 cb bc 75 55 99 3d c9 20 52 3d
       -0.03193841 -0.024859892 0.07487003 0.051300798
0001b0 32 c6 2a 3c 46 2a 37 bd df 43 88 bd 41 14 4d bd
       0.01042323 -0.04471805 -0.066535704 -0.050068144
0001c0 f6 ac 43 bd 51 41 f7 3c 9e 9a c9 3c d3 fd 1b bd
       -0.04777237 0.030182512 0.02460986 -0.038083863
0001d0 16 a1 94 3c 04 bb 09 3d 37 0c 38 3d d9 fb 14 3d
       0.018143218 0.033625618 0.044933524 0.036372993
0001e0 6b 1e 10 bd e3 3d 8e bb dc 91 18 3c 04 37 9c bc
       -0.03518526 -0.0043408736 0.009312119 -0.019069202
0001f0 9a cc 70 3c f5 95 83 bd 26 7b 2c bd 9d 94 f3 3c
       0.014697218 -0.064250864 -0.04210963 0.02973395
000200 7e 6a d7 bc d9 92 15 3d 42 0b 0a 3d c9 ca 11 3c
       -0.026295897 0.036516998 0.033702143 0.008898445
000210 e7 86 46 bd a7 c8 57 bc dd 83 6f 3b 8c 53 85 3d
       -0.048468497 -0.013170398 0.0036547102 0.06510076
000220 0d 19 8c 3d 3a 8d 24 bd 6c 61 9f bd 88 97 ef 3c
       0.068407156 -0.040173747 -0.077822536 0.02924706
000230 73 98 dd bc 18 69 37 3d 07 70 19 3d 51 15 37 bc
       -0.027050233 0.04477796 0.037460353 -0.011174516
000240 63 26 da bb eb 41 1e 3d 53 83 c7 bc 37 7c 79 3c
       -0.006657408 0.038637083 -0.024354612 0.015227369
000250 ae 85 b6 3c b8 5a 2d bd fe 83 fe 3c 42 e1 04 bd
       0.02228054 -0.042322844 0.031068798 -0.032441385
000260 b3 14 8e bc 4c dd 8d 3c 3d 5d 1d 3d aa 7d fc bc
       -0.017343855 0.017317437 0.038418997 -0.03082164
000270 c1 76 f4 3c 70 71 31 bd 57 d6 91 3c c6 a9 b1 bc
       0.029841783 -0.043321073 0.0178024 -0.0216874
000280 bd a8 2b bd 50 8d d7 3d 25 55 a3 bb a7 2b c2 3c
       -0.04190897 0.10525 -0.0049845153 0.023702456
000290 c0 43 5a bd 99 45 48 bd f0 87 80 bc 7e 7c 3a bd
       -0.053287268 -0.0488945 -0.01568982 -0.04552888
0002a0 eb 1f 27 3c ec 75 96 3c d1 fd 12 3c a3 8e 1d 3c
       0.010200481 0.018366776 0.008971647 0.009616527
0002b0 f7 37 ac bc 82 08 c4 bc 87 ed e3 bc f0 7d 25 bd
       -0.02102278 -0.023929838 -0.027823223 -0.040403306
0002c0 f4 23 96 bd 84 68 61 bd ee 42 95 ba be de bf bc
       -0.07331076 -0.055031314 -0.0011387744 -0.023421641
0002d0 d5 b4 58 bd fc 5f aa bc eb fa 4d bd 5a 62 86 bd
       -0.05290683 -0.020797722 -0.050288122 -0.06561728
0002e0 2d a1 22 bd a2 df 0e bd 0b 42 16 bd 94 c7 ae bc
       -0.03970449 -0.03488124 -0.036684077 -0.0213354
0002f0 87 3b 86 3c 75 b4 ea 3c d9 81 06 bd ee 13 52 3d
       0.016385807 0.028650502 -0.032838676 0.051288538
000300 5f c2 01 bd d4 b0 9a bb dc e3 a9 bd 1d 38 9b 3d
       -0.031679507 -0.0047207866 -0.08295414 0.07579062
000310 56 47 f4 bc 94 5d 16 3c c1 88 0b bc d3 43 03 3d
       -0.029819172 0.009177584 -0.008516491 0.032047104
000320 20 b7 9c bc b2 e1 44 bd 5e 8d ac bd 69 c4 f3 3c
       -0.01913029 -0.048066802 -0.08425401 0.029756742
000330 69 75 53 bd 85 36 70 bc 83 a0 19 bd a9 46 8c bd
       -0.051625643 -0.014661436 -0.03750659 -0.06849415
000340 17 9b 9a bd 3a a4 2b b9 3f 4b e9 3c c4 0b 4d bc
       -0.07549112 -0.0001636901 0.028478263 -0.012515012
000350 da 2d 86 bd b8 24 91 bd 39 3a 2a bd ba da a8 3d
       -0.06551714 -0.07087082 -0.04155943 0.08244844
000360 a0 d9 21 3d b4 6c 3b 3d cf cc 7b bd f5 a6 8b bd
       0.039514184 0.045757964 -0.061474618 -0.06818954
000370 c8 b4 a8 b9 ba d8 d6 3c b9 d8 42 3c 2e 25 78 bc
       -0.0003217815 0.02622639 0.011892491 -0.015145583
000380 bc 07 50 3d 52 d0 86 3d d3 47 3c bd d7 42 c7 bc
       0.050788626 0.06582703 -0.045966934 -0.024323864
000390 68 cd 7a bc ba 7e b8 bc a1 05 92 3d 9f 52 95 38
       -0.015307762 -0.022521365 0.0712998 7.120263e-05
0003a0 77 51 1b 3c 10 31 d9 bd 9a f4 03 bd 15 ef 97 3d
       0.009479872 -0.10605061 -0.032215692 0.07418648
0003b0 4d 45 2d 3d ac f9 3c 3d 4a ec ea bc f8 f1 53 bd
       0.04230242 0.046136543 -0.028677125 -0.05174443
0003c0 94 b8 7f bd b9 87 55 3d f8 61 59 3c a5 43 33 bd
       -0.062431887 0.05213139 0.0132679865 -0.043765683
0003d0 51 dd 16 3d 7e a8 85 3d f6 8f 68 3d a9 e8 6b bc
       0.036832158 0.06526278 0.056777917 -0.014398732
0003e0 39 9c cc bc a1 ed 2e 3d 44 00 e8 ba 5a 6b 34 3d
       -0.024976837 0.04270709 -0.0017700274 0.04404769
0003f0 b0 ec ab 3d 89 35 72 3c d2 94 c3 3d fc ac 74 3d
       0.08394754 0.014783272 0.095498696 0.059735283

conv2.bias f4 [20]
000000 ea 4a 1c 3d 10 fb b4 3c 03 b9 88 bd 4b 82 cc 3c
       0.03815738 0.022092372 -0.06675913 0.024964472
000010 6b a7 06 bd 4a 42 c0 bc 7f 0c 78 bd 88 44 07 bc
       -0.032874506 -0.02346911 -0.060558792 -0.008256085
000020 35 00 4c bd 12 39 1f bd 40 a0 a9 3d 3f bb 34 bd
       -0.049804885 -0.038872786 0.082825184 -0.044123884
000030 2d fe 0e bc e4 cc 17 3d 50 88 d0 bc 14 db 6a bd
       -0.008727592 0.037060633 -0.025455624 -0.057337835
000040 a1 e5 20 bd 19 b0 86 bc 86 83 46 bc 2e 07 f3 3c
       -0.03928149 -0.016441392 -0.012116319 0.02966651

fc1.weight f4 [50, 320]
000000 cf fd 00 3c de 44 4a 3b 5e ae 4c bd 0a 89 5b 3b
       0.007873013 0.0030863802 -0.049970977 0.003349843
000010 f3 18 b3 3c 7e f5 c4 3c f1 ab 26 3d d9 e7 6e 3c
       0.021862483 0.024042841 0.04069132 0.014581644
000020 26 e9 6e bb fc 4f 73 3c a7 2e 3d bc ff 8f d3 bc
       -0.0036454885 0.014850613 -0.011546767 -0.025825499
000030 96 b6 ff bc f3 e4 47 bd f9 9a 54 3d 97 9b 16 3d
       -0.031214993 -0.048802327 0.051905606 0.036769476
000040 b7 62 20 bc 5b 5e 0f bd 39 f4 84 bc 2a 48 10 bd
       -0.00978916 -0.035002094 -0.016229736 -0.03522507
000050 9a a5 f9 3c 68 e5 b8 3c b8 ab d5 bc 6a d1 a7 bc
       0.030474473 0.022570327 -0.026082858 -0.020485599
000060 6f 7c 3b 3c 52 22 3b 3d 32 6c 67 bc 13 49 aa 3d
       0.0114432415 0.045687027 -0.014124917 0.08314719
000070 87 10 bc 3c c6 3a 6f 3c 6d e8 b1 3c 6c bf b3 3c
       0.0229571 0.014601415 0.021717275 0.021941863
000080 03 7e 21 3d 27 4b 3d 3c 0a 85 15 3c b5 e3 5c 3b
       0.039426815 0.011553562 0.009125957 0.003370506
000090 8d d3 29 3d a7 01 5f bd 21 e4 29 3d 61 2c 4f bd
       0.041461516 -0.054444935 0.041477326 -0.050579432
0000a0 e2 9b 7e 3c 60 dc 2b 3d e8 2f 13 3c f0 15 07 3d
       0.015540095 0.041958213 0.00898359 0.032979906
0000b0 e9 f9 e4 bb 17 fb 18 3d a7 02 d9 bc 66 ce eb 3b
       -0.0069877994 0.037348833 -0.026490523 0.0071962355
0000c0 a0 ae 2b 3d b9 64 e9 3b 76 0f b6 3c 43 32 29 3a
       0.041914582 0.007122603 0.02222417 0.0006454328
0000d0 d7 18 d2 3c d9 06 87 3d c2 e1 86 bc c2 ee 68 3d
       0.02564661 0.06593103 -0.016465072 0.056868322
0000e0 32 fe fc 3c 0f 70 fe bb 2d 6b 71 bd 52 f0 a3 ba
       0.030882929 -0.0077648233 -0.0589401 -0.0012507534
0000f0 ef c5 76 bc 0e c3 36 bd d4 6c 87 bd 04 37 13 3c
       -0.0150618395 -0.044619612 -0.06612554 0.008985285
000100 9f f4 5f 3c f0 61 59 bd 08 81 45 bd f8 5b 66 bd
       0.013669162 -0.053071916 -0.048218757 -0.056240052
000110 7e 6c fc bc 99 99 ae 3c ca e8 61 3c 88 93 67 bd
       -0.030813452 0.021313475 0.013788411 -0.05653718
000120 20 65 ad 3a 09 cb a6 bd 4e 78 17 3d e1 d0 a0 ba
       0.001322899 -0.08144195 0.036979966 -0.0012269282
000130 5d ad a7 3c 98 93 e3 3c be 79 df 3c 7b 3e 4e bc
       0.020468408 0.02778034 0.02727973 -0.012588139
000140 76 36 59 bc 53 d7 22 bd 38 5f 5b 3c 17 a7 a6 bd
       -0.013257613 -0.03975613 0.013389401 -0.081373386
000150 44 3a 08 bc ce 67 96 3c 03 f5 0e bc af 00 1c 3b
       -0.008314673 0.018360045 -0.0087254075 0.0023804118
000160 03 34 97 bc ad 4c 33 3d 9f 57 49 bd fc 19 b8 bc
       -0.018457418 0.043774296 -0.049155828 -0.022473328
000170 28 9c bb 3c 20 3f a4 bc e0 91 9e 3d 67 57 37 3d
       0.02290161 -0.020049632 0.07742667 0.044761088
000180 70 24 89 3d fd 5b 98 bd c1 5a d9 3a 39 8e 53 bc
       0.06696403 -0.0743942 0.0016582833 -0.0129123265
000190 83 cf 0e 3d 7b db 0b 3c 77 a3 c3 3c 02 66 f6 3c
       0.034865867 0.008536215 0.023881657 0.030077938
0001a0 17 8f 23 bd 16 d4 be 3c 8c 38 04 bd 8f fa 1f bd
       -0.039931383 0.02329449 -0.03228049 -0.03905731
0001b0 ef 63 13 3d 29 a2 69 3d e7 cb e1 bc 99 b9 bd bb
       0.035983976 0.057039414 -0.027563049 -0.005789947
0001c0 91 a9 74 bb 82 45 f8 bd 76 c0 bd bc 20 2c 78 bd
       -0.0037332515 -0.121226326 -0.023163062 -0.060588956
0001d0 c1 79 3a bd 81 bc 47 3c 0e 98 00 3c 37 b9 49 3d
       -0.04552627 0.012190939 0.007848753 0.0492489
0001e0 6b af 96 3d 77 36 73 3d b6 21 13 3b f3 29 32 3d
       0.07357677 0.059378114 0.0022450513 0.043497037
0001f0 6a c9 61 bb cd dc 8c bd e9 42 df 3b 6e 61 17 bd
       -0.0034452328 -0.06878052 0.0068133962 -0.03695815
000200 a6 ad 40 bd 68 ac bd 3c 1f 83 fe bc 6c 80 9b 39
       -0.047040604 0.023153499 -0.031068383 0.00029659586
000210 76 54 0e 3c 61 57 77 3b 16 c0 2d bd 63 a1 3f 3d
       0.008687129 0.003774129 -0.042419516 0.04678477
000220 21 eb 25 3d 78 34 2d 3b b7 9a 0c bc ca d4 fb 3c
       0.04050744 0.002642898 -0.008581809 0.030741114
000230 90 20 64 bc d9 ab 35 3d 46 32 4c bd 84 16 18 bd
       -0.013923779 0.04435334 -0.049852632 -0.037130848
000240 01 ae 59 3d 51 ff 7a bc ed 23 42 bd 6f b8 32 3d
       0.05314446 -0.015319661 -0.047397543 0.04363292
000250 80 4e 62 bd 76 08 aa 3b 6a 9a d8 3c c8 61 34 3c
       -0.055250645 0.005188997 0.026440818 0.011009641
000260 1c 07 11 bd b7 2c b4 3c c3 b0 04 3d c0 f1 14 bd
       -0.03540717 0.021993978 0.032395136 -0.036363363
000270 1a 0e da 3c ba 43 01 3c 08 40 14 3c 83 fa 10 3d
       0.026618052 0.007889682 0.009048469 0.035395157
000280 68 d2 c8 bb 78 71 82 3c e2 1a 0c 3d 60 9e 16 3d
       -0.006128598 0.015923247 0.034205325 0.036772132
000290 8c 9a 29 bc 4e da 40 3d 0c ba 76 bc 31 aa b0 3c
       -0.010351788 0.04708319 -0.0150590055 0.021565529
0002a0 dd e6 62 3d db 25 82 3c 1e 84 82 bc 43 4b ae 3b
       0.05539595 0.015887192 -0.015932139 0.0053190305
0002b0 0f ed 92 3c 3e 4e 40 bc 85 6a 58 bd 77 d2 b4 bc
       0.017935304 -0.011737404 -0.05283596 -0.022073014
0002c0 bd 1d b3 ba 13 3d 70 bd 36 1c 6e 3c 96 8f 83 3d
       -0.0013665479 -0.058651995 0.014533093 0.06423871
0002d0 6c 62 4d 3d 43 48 69 3d 08 04 5e 3d 94 40 3d bd
       0.05014269 0.05695368 0.054203063 -0.046204165
0002e0 5e 71 16 3d a8 cd 84 3d df 83 8f bd e2 3d 86 3c
       0.03672921 0.06484538 -0.07007574 0.01638693
0002f0 c5 ff 27 3d f4 88 9f bd a5 fa a0 bd e8 6e 55 bd
       0.041015405 -0.077897936 -0.07860307 -0.05210772
000300 19 e6 d8 3c 88 6a 48 3d f3 7d 04 3d 0e 01 d4 3c
       0.026476907 0.04892972 0.032346677 0.02587941
000310 1b 8b 15 3d fe 55 2f 3d dd 69 1d 3d 81 48 a0 bc
       0.036509614 0.042806618 0.038431037 -0.019565823
000320 68 9f 41 3d 2d 3c 46 bd 62 71 89 bd 3f 1e da bb
       0.047271162 -0.04839723 -0.06711079 -0.0066564376
000330 9b 33 db bd e8 49 6a bd fc bc 56 bc 6a 50 e1 bc
       -0.10703202 -0.05719939 -0.013106581 -0.027504165
000340 98 5f 4e bd 1d 5a c6 bc 2e 84 88 bd c5 bf ff bc
       -0.050384134 -0.024212891 -0.06665836 -0.031219373
000350 0f b1 80 3d 41 7b a0 3d aa 8c 5c bd 49 0f 9f bc
       0.06283771 0.07836009 -0.053845085 -0.019416468
000360 8c 04 09 bc 17 55 40 bc 25 86 21 3d ed 07 f4 bc
       -0.0083629005 -0.011739037 0.03943457 -0.029788936
000370 9b 28 a2 3b f5 81 8f 3d 26 ab 47 bb 30 ce 05 bd
       0.004948688 0.07007209 -0.0030467003 -0.03266734
000380 ca bf 04 bd 50 ca aa 3c d9 7d 56 3c b2 7f db 3c
       -0.032409467 0.020848423 0.013091528 0.026794288
000390 31 86 3f 3d 01 e9 10 bd 22 34 4c bc 9d 64 57 bc
       0.046758834 -0.03537846 -0.012463601 -0.013146547
0003a0 f5 60 60 3d e6 82 07 bc 1d e1 c6 3b f5 5b f2 3c
       0.054779965 -0.008270955 0.006069316 0.029584864
0003b0 2f da 75 bc aa 4b 8e bc e9 67 5a bd eb 74 88 bd
       -0.015005632 -0.017370064 -0.053321753 -0.06662925
0003c0 94 2d 20 bd 8a 88 2b 3c c1 15 46 bc ef 48 cf 3c
       -0.039105967 0.010469565 -0.0120901475 0.025303332
0003d0 8e 02 cd bc a2 84 52 3d c3 41 05 3d 5d 53 bd bc
       -0.025025632 0.05139602 0.03253342 -0.02311104
0003e0 54 00 92 bb 91 31 a4 bb 86 70 18 3d 4a 9e 2d b9
       -0.0044556055 -0.0050107916 0.037216686 -0.00016557533
0003f0 ed 22 0b 3d 70 71 22 3d c6 21 62 bc 03 33 22 3c
       0.033968855 0.039658964 -0.0138019975 0.009899857

fc1.bias f4 [50]
000000 46 39 79 3b 80 eb a3 bc fe 0e 4e bc 75 03 78 3c
       0.0038028522 -0.020009756 -0.012576817 0.015137543
000010 a1 4c 72 3d 57 8e b0 3a 0e 44 b3 bc b9 d7 48 3d
       0.05915511 0.0013470155 -0.021883037 0.049033854
000020 90 98 5d 3d 56 29 21 3d 8e b1 9d 3d 22 b9 ee 3c
       0.054100573 0.03934606 0.076998815 0.029141013
000030 71 36 8e 3d 8a 4a 0a 3d bd da 05 3d 02 0d 10 3d
       0.069439776 0.033762492 0.03267931 0.035168655
000040 10 da f2 bc 3a 57 1d 3c 4a 53 72 3d 5b 53 05 3d
       -0.029644996 0.009603316 0.059161462 0.032550197
000050 eb 3b 4b 3c f5 8b 2e bb 00 87 44 3b 48 53 18 bd
       0.012404422 -0.0026633714 0.0029987693 -0.0371888
000060 ef 53 9d 3b 41 45 d8 bc d4 44 d2 3c a2 48 50 bc
       0.0048012654 -0.02640021 0.025667585 -0.0127126295
000070 df 74 2a 3d 4f f4 5b 3d 98 ce 88 bc e2 70 5b 3d
       0.041615363 0.053699788 -0.016700074 0.05357445
000080 19 11 0d 3d ff 64 2f bd 94 c0 e3 bb cb 8e 69 3d
       0.034440134 -0.042820927 -0.0069504473 0.057020944
000090 fd 46 20 bd 18 d8 ac bc 01 e8 b2 3b 18 11 1a 3d
       -0.0391302 -0.021099135 0.005459786 0.037613958
0000a0 d9 38 3a bd c2 56 2a bb 75 13 17 bc d4 28 04 bd
       -0.04546437 -0.0025991653 -0.0092209475 -0.0322655
0000b0 d1 05 da bb 19 b3 4a bd fe df 3e 3d 27 3d 5e 3d
       -0.0066535254 -0.049487207 0.046600334 0.05425754
0000c0 45 df 09 3d 1c 4b 2f 3d
       0.033660192 0.04279624

fc2.weight f4 [10, 50]
000000 05 3a 81 bc b5 a9 76 be 73 3f 40 3d 76 71 da bd
       -0.015774736 -0.24088176 0.04693551 -0.10666172
000010 28 c0 d6 bd eb 35 75 bd bb 84 4e be 30 8a d1 bd
       -0.1048587 -0.059865873 -0.2016782 -0.10231435
000020 24 8f d6 bd dc 8e 13 be f0 73 4b be 2a dd 31 be
       -0.10476521 -0.14409965 -0.19868445 -0.17369524
000030 4d ef 39 be c1 70 71 3d 6b ca 59 3e 82 10 42 bd
       -0.18157692 0.05894542 0.21268623 -0.047379024
000040 1e 58 ae bc 5b fc 9a bd 3f 36 07 3e 43 f6 02 3e
       -0.021282252 -0.07567664 0.13204287 0.12789254
000050 16 2f 3b bd 64 d4 29 bc 52 2f 60 be f4 31 dd bd
       -0.0456992 -0.010365579 -0.21893051 -0.108005434
000060 b8 5d 36 be 47 a0 89 3d 98 fc 86 bd 46 22 e7 bd
       -0.17809188 0.067200236 -0.06591147 -0.11285834
000070 c7 f7 c6 3d 91 09 c1 3d 77 5c a6 bd 3d 63 cc bd
       0.097152285 0.09425653 -0.08123105 -0.09979866
000080 23 d8 76 bd 91 14 42 3e d1 0e d2 3d 09 9b 42 3e
       -0.060264718 0.18953158 0.10256732 0.19004454
000090 5a 45 23 3e 13 68 36 3e 28 c7 0b 3e cf cd e3 3d
       0.15944424 0.17813139 0.13650191 0.11123239
0000a0 d1 2f 0b be b3 e0 21 be 29 ee d9 bd a9 17 21 3e
       -0.1359246 -0.15808372 -0.106411286 0.15731682
0000b0 18 a9 26 be 8e d6 53 3e 46 8d 01 be 7e 83 81 3e
       -0.16275442 0.20687315 -0.12651548 0.25295633
0000c0 d5 cb 39 bd 49 66 72 be e2 6a 55 bd 8d 47 a2 3d
       -0.045360405 -0.23671831 -0.052103885 0.079238035
0000d0 1b d4 d5 bd bd 04 89 bd eb 22 80 3e a0 28 bc bd
       -0.104408465 -0.06690357 0.2502664 -0.09187436
0000e0 ad a8 47 be 8f c7 ad bc ac 63 4f 3e b3 76 6d 3e
       -0.19497938 -0.021213321 0.20252866 0.23189811
0000f0 51 b9 59 3e dd 25 8f 3c e1 82 d0 3d 12 66 a9 3e
       0.21262099 0.01747411 0.10181213 0.33085686
000100 5d 53 12 3e 32 b5 0c bd 06 db b5 bd 52 fd 0f be
       0.14289613 -0.03435249 -0.08879666 -0.14061478
000110 21 5b f0 3d 25 d2 5f be a4 b7 54 3e b2 90 e3 3c
       0.117361315 -0.21857508 0.20773178 0.027778957
000120 28 8d 54 3e 42 96 90 bd 4a f4 31 3e ca 1d 38 be
       0.20756972 -0.070599094 0.17378345 -0.17980114
000130 a6 ab 3e be 7c 8f 33 be 8f d4 0c be 90 89 69 be
       -0.18620166 -0.17535204 -0.1375296 -0.22806382
000140 1e 64 48 3e 95 54 cc 3d 9c 4b 29 3e b9 89 8c bc
       0.19569442 0.0997707 0.16532749 -0.017155515
000150 6b 87 fb 3c ba 19 29 be 0f 39 2e be db 35 47 bd
       0.03070422 -0.1651372 -0.17013954 -0.048635345
000160 41 14 5a bd ba a8 46 be df ac 24 be 87 16 3f 3e
       -0.053241972 -0.19400302 -0.1608157 0.18660937
000170 1c ca f0 3d fc cf 1c be c2 39 19 be 9c 87 1f 3d
       0.11757299 -0.15313715 -0.14963439 0.038947687
000180 53 ad bf bd 9f 89 ce bc 8a 47 c7 bd 8c 6f 08 bd
       -0.09359231 -0.025212107 -0.09730442 -0.033309504
000190 93 45 8c bd 70 99 ac 3d 8c 10 54 3e 5b 62 d8 bb
       -0.06849208 0.084277034 0.20709437 -0.0066035218
0001a0 b5 f9 ae bc a8 e6 31 3e 71 ae f4 bd 01 2b 1f be
       -0.021359304 0.17373145 -0.119473346 -0.15543748
0001b0 2f 23 30 3e c9 5b db 3c e5 d7 47 3e 52 68 31 3e
       0.17200921 0.026777165 0.19515951 0.17324951
0001c0 01 06 05 be 5b 5b 83 bd 51 48 18 3e c2 3a f9 bd
       -0.12990572 -0.06413909 0.14871337 -0.1216941
0001d0 71 ff 16 3e a5 41 74 3e 37 4e ad 3d 72 71 7f bd
       0.1474588 0.23853166 0.08462184 -0.06236405
0001e0 63 d8 77 bd c6 25 ec 3a cd b6 9b 3d 0d 42 25 3e
       -0.060509097 0.0018016628 0.07603226 0.16138478
0001f0 2f cc 51 3e de a9 71 ba ac 6b ee 3d 9d 57 d0 3d
       0.20488046 -0.00092187326 0.116416305 0.10172961
000200 8b 48 32 3e 12 a3 4a be 7c 92 d4 bd 3a d4 72 3d
       0.17410485 -0.19788769 -0.10379502 0.059284426
000210 b8 d6 7d bd 42 28 12 3e 4d 7d 51 3d de 2d 12 3e
       -0.06197235 0.1427317 0.051144887 0.1427531
000220 7e 68 31 3e 77 9f 17 be 5f 6e 05 3e db 5b 8a bc
       0.17325017 -0.14806925 0.13030384 -0.016889503
000230 48 64 1b be 45 09 1c bd 60 05 c6 bd 0b cb da bc
       -0.15174973 -0.038094778 -0.09668994 -0.026708147
000240 e0 50 2a be 2c 68 16 be 0c 3f ea bd 13 6e bb bd
       -0.16632414 -0.14688176 -0.114378065 -0.09151854
000250 68 cd c0 bd 96 e4 41 be 9f a0 db bd e6 70 d7 3d
       -0.09414178 -0.18934855 -0.107239954 0.105195805
000260 97 dc 20 3c 92 1a 06 3d 43 38 ca bd 2c e0 97 bc
       0.009818218 0.032740183 -0.09874012 -0.01853951
000270 ad b0 8b bd a1 7e 06 be eb 31 ae 3d 95 04 83 3e
       -0.068208076 -0.13134243 0.08505615 0.25589433
000280 ea 74 af bd 65 42 28 3e e6 6e 6d bd 94 71 e6 bb
       -0.085672215 0.16431578 -0.05796709 -0.0070325825
000290 74 67 00 be 9c 42 59 3c 42 9e 0c be 77 03 0a 3d
       -0.12539464 0.01326051 -0.13732246 0.03369471
0002a0 25 2a 13 3e c8 1a 14 3e 7e 2f d7 bd a6 ca 03 3e
       0.14371546 0.14463341 -0.10507105 0.12870273
0002b0 35 55 7c 3d 3f 52 73 3e f9 9b 0d 3e b5 5b d2 3d
       0.061604697 0.23761843 0.1382903 0.10271398
0002c0 4c bc 24 be 41 17 11 3e d2 2b 1d 3e 09 6c 56 bd
       -0.16087455 0.14169027 0.15348747 -0.052349124
0002d0 18 47 5d bd 9f f8 7b bd f8 fd 6c bd bd 38 0b be
       -0.05402288 -0.0615164 -0.05785939 -0.13595863
0002e0 0b 28 4f 3e 61 e1 a0 bd 57 e8 41 3d 82 c4 08 be
       0.20230119 -0.078554876 0.047340717 -0.13356212
0002f0 78 f0 1f 3e 4c b9 15 be 1a b1 83 3d b1 f2 78 be
       0.15619075 -0.14621466 0.06430264 -0.2431133
000300 33 13 55 be ea 6a 1a 3d 18 1f f3 3c ee b1 0d be
       -0.20808105 0.037699617 0.029677913 -0.13837406
000310 b4 e5 4a 3e 92 cc 01 3c 72 f3 15 be e7 7d f8 3d
       0.19814187 0.0079223085 -0.14643648 0.12133389
000320 c5 12 e2 3d e6 4b af bc 75 77 a8 bd 90 36 cd bc
       0.11038736 -0.021398496 -0.082259096 -0.025050431
000330 b1 43 c4 bd a5 ee 12 be e2 1c a3 3d 94 01 78 3e
       -0.095832236 -0.14348848 0.07964493 0.24219352
000340 64 8a 04 3d 51 59 cb bd 7c 8c 3a be e8 38 df bd
       0.032358542 -0.09929145 -0.18217653 -0.10899526
000350 f3 eb 1a bd 5e 3a 9c bd 96 0f 78 3d a9 51 fd bd
       -0.037822675 -0.0762832 0.06056174 -0.12369091
000360 52 c6 8b 3e 36 ab 84 3e 23 b1 e0 bd 88 5a 73 be
       0.27299744 0.25911874 -0.10971286 -0.23765004
000370 69 01 91 3d 88 12 6c bb d7 84 1c 3e d8 dd 56 3e
       0.07080347 -0.0036021788 0.1528505 0.20983064
000380 5e 0d c5 bd 8c 0e 1a 3e 60 69 09 3e c7 c0 61 3e
       -0.0962169 0.15044612 0.13419104 0.22046195
000390 d5 f3 87 be 7d e8 91 bd 2e 53 52 3d 1a 15 0f 3e
       -0.26553217 -0.07124422 0.051348858 0.13972893
0003a0 ee 87 ac bd 9f f9 0e be 87 f7 10 be 2e 3f a7 3d
       -0.08424364 -0.1396241 -0.14156924 0.081663474
0003b0 29 a5 3f be 5e 41 23 3e 5a 89 ca bd be 38 23 be
       -0.18715347 0.15942904 -0.09889479 -0.15939614
0003c0 af 92 c4 3d 4e 80 21 3e bf e6 1a bd 6a d3 43 be
       0.0959829 0.157716 -0.037817713 -0.19123617
0003d0 db c2 05 3e 8c af b6 bd 37 75 16 bd db 92 ef 3c
       0.13062613 -0.08920202 -0.03673288 0.02924483
0003e0 c5 df 52 3e 7e 7c 44 3d 14 fc f4 3d 3f fd 85 be
       0.20593174 0.047970288 0.119621426 -0.26169774
0003f0 3a 8a 35 be 0f 95 2b 3e 3d 39 eb 3d 7e f4 9c bc
       -0.1772851 0.1675608 0.11485527 -0.019159552

fc2.bias f4 [10]
000000 93 4c cc 3d 60 ef d6 3d ad 56 de bd ec 14 ec bc
       0.09975543 0.10494876 -0.10856376 -0.02881857
000010 02 0e 3b be 09 24 93 bc 65 a9 a5 bd 34 da 17 be
       -0.18267062 -0.017961519 -0.0808895 -0.14829332
000020 a5 8e cf 3c 84 aa bc bc
       0.025336573 -0.023030527

momentum_buffer f4 [10, 1, 5, 5]
000000 ff 6f 2f bd 62 08 d5 bc 20 22 95 b9 41 f9 2d 3d
       -0.042831417 -0.026004974 -0.0002844492 0.042474035
000010 04 39 7f 3d cb 51 e5 bc a2 16 9a bc 10 56 6f bc
       0.062310234 -0.027993103 -0.01880962 -0.014607921
000020 9e a5 b7 3c d2 9b 24 3d bb d3 86 bb 04 f1 28 3a
       0.02241784 0.040187664 -0.0041145957 0.00064446055
000030 3e 2f d6 bc 32 e7 52 3b 22 3a d9 ba 12 af 7f 3c
       -0.026145574 0.003218126 -0.0016573111 0.015605705
000040 95 e2 68 3c 0b f8 a1 bb e1 c5 97 3b af 31 87 3b
       0.014214178 -0.004942899 0.0046317433 0.004125796
000050 e0 54 89 3c 7f 57 a1 3c bc 6b 19 3c 56 be a9 3c
       0.016764104 0.019695042 0.009364065 0.020720642
000060 6e 6c f9 3c 86 7c 7a 3c 6e 7b 45 3b 10 b5 a3 3a
       0.030447211 0.015288478 0.0030133384 0.0012489874
000070 78 6d 17 3b 90 99 14 ba b2 da 9a 3c a8 b3 c8 ba
       0.002310602 -0.00056686345 0.01890311 -0.0015312331
000080 28 c7 65 b9 d4 d8 86 ba 4c 80 c2 3b f2 8a 67 3c
       -0.00021913333 -0.0010288008 0.0059357043 0.014132248
000090 d6 69 5a bc 9e 87 40 bc 5c 46 ea ba b0 8d ae 39
       -0.013330897 -0.011751084 -0.0017873752 0.00033293432
0000a0 93 1e 58 bc 35 3b aa bc 10 cf 32 bc 2f 46 2e bc
       -0.013190883 -0.020780185 -0.010913625 -0.01063685
0000b0 46 2e aa bc a2 a2 18 bd 03 34 f2 bc f0 0b 9d bc
       -0.020774018 -0.037264474 -0.029565817 -0.019170731
0000c0 ea 6c af bc 7f 7a 65 bc 05 71 2b 3c a0 0f 53 3c
       -0.021414239 -0.014006256 0.010463958 0.012882143
0000d0 7a 8f db 3a df 2b c9 bc c0 02 c8 3a 14 9d 82 bb
       0.0016751133 -0.024557052 0.0015259609 -0.0039860103
0000e0 f0 54 5f bc 9d 20 b7 bc 6f ee 0b bd b2 35 96 3b
       -0.0136310905 -0.022354418 -0.034162935 0.0045840377
0000f0 2c 1c 27 bc e8 a5 72 bc 62 08 a5 bc f6 d6 2b bd
       -0.010199588 -0.014810063 -0.020145599 -0.04195305
000100 a6 4b e0 bb 2d 37 ae bb 05 a2 55 bc 22 ac 5e bc
       -0.0068449555 -0.005316636 -0.013039117 -0.013590844
000110 03 30 f9 bc ae 4a ab bc ef 61 82 3c b7 6d 22 3c
       -0.030418402 -0.020909633 0.015915839 0.009913853
000120 00 00 4d b4 a4 32 8b bb b5 d9 b8 bc 2e a4 b3 bc
       -1.9092113e-07 -0.00424798 -0.022564748 -0.021928873
000130 0e d8 24 bc 7b 7c 8f bc 78 16 a3 bb 40 53 30 bb
       -0.010061277 -0.017515412 -0.0049770437 -0.002690509
000140 0a ee 0e 3b 26 6a 17 3c 1e 48 6e 3a d0 ca 62 3c
       0.0021809363 0.009241616 0.0009089726 0.0138423
000150 2b 57 3f 3c dc 72 9f 3c b6 85 bb 3c 3c c5 b0 3c
       0.011678497 0.019463949 0.022890907 0.021578424
000160 c6 40 e6 3c bc 31 f1 3c dc 22 d1 3c 6e b1 c5 3c
       0.028107058 0.02944266 0.025529318 0.024132457
000170 15 5b ae 3c b8 6f ea 3c 5c e2 f0 3c 6c 02 77 3c
       0.021283666 0.028617725 0.029404812 0.015076261
000180 d0 a9 57 3b 30 64 44 3b 90 55 2c 3c 4e ad 78 3c
       0.0032907613 0.0029966943 0.010518447 0.015178038
000190 cd e7 80 bc e2 0d 54 bc fe 0c 24 bc 6e 05 71 bc
       -0.015735531 -0.012942763 -0.010012863 -0.014710767
0001a0 06 54 ac bc 42 50 8b bb 92 99 fa ba e6 28 4a ba
       -0.02103616 -0.004251511 -0.0019119254 -0.0007711783
0001b0 3e c1 23 ba 79 f3 bf bb e4 77 8a bb 88 0c 4f bb
       -0.0006246752 -0.0058578816 -0.004225718 -0.0031593163
0001c0 c5 27 92 bb 45 8d 92 bb fc 49 1e bc 0b f7 dd 3b
       -0.0044603073 -0.004472407 -0.009661194 0.0067738346
0001d0 fa 29 4a bb 7a fb 7f bb fe 77 fc ba dd 6b c4 bb
       -0.0030847774 -0.0039059804 -0.0019261835 -0.0059943036
0001e0 4b 1b 14 3c 20 b0 69 39 b1 cf 26 bc ff d7 3d bc
       0.00903971 0.00022286223 -0.010181353 -0.011587142
0001f0 41 9d 48 bc f1 1d 79 bc b8 2a 88 bc 16 2f 37 bc
       -0.0122445235 -0.0152048925 -0.016621932 -0.01118066
000200 fa 8b 12 bb 80 40 81 b8 e1 f6 3a bc 44 cf b1 bc
       -0.0022361265 -6.1632134e-05 -0.0114114 -0.021705277
000210 29 f2 ba bc 28 5b ac bc da 39 6d bc 89 bd 58 bc
       -0.02282055 -0.02103956 -0.014479125 -0.013228782
000220 8b 75 9a bc 4c 9a ac bc 26 fa 9c bc 66 25 84 bc
       -0.018854877 -0.021069668 -0.019162249 -0.016131114
000230 d1 a2 c7 bb 68 72 b9 3b 80 16 3b 39 b7 8d d2 bb
       -0.0060924073 0.0056593902 0.00017842092 -0.006425585
000240 b1 c0 a5 bb b8 20 1c 3c 7c 13 6d 3c 52 f2 03 3b
       -0.005058371 0.009529285 0.0144699775 0.0020133448
000250 9d 87 a2 bb 53 33 03 bb a2 01 92 3c a8 c9 9e 3c
       -0.004960014 -0.0020019605 0.017823044 0.019383267
000260 1a 31 be 3c be 73 ce 3c 31 a0 b4 3c 12 24 ab 3c
       0.023216773 0.025201675 0.022049041 0.020891223
000270 09 1d 10 3d f2 92 1c 3d 66 33 04 3d 4d 43 9c 3c
       0.03518394 0.038226075 0.03227558 0.01907506
000280 8a 47 47 3c 4c 74 e2 3c 73 6c 18 3d ed 78 ff 3c
       0.012163052 0.027643345 0.0372128 0.031185592
000290 0b 1e c6 3c 80 80 cd 3a 4e 0f 5b 3c e4 00 d8 3c
       0.024184247 0.0015678555 0.013370348 0.026367612
0002a0 e6 f2 ad 3c 71 62 b2 3c e8 6c b5 3b 90 54 09 3c
       0.021233987 0.021775456 0.0055366643 0.008381978
0002b0 98 67 14 3c 84 c6 23 3a fc 38 07 3c 4c 7b 1d 39
       0.009057902 0.00062475377 0.008253332 0.00015018618
0002c0 9a f3 c7 3b f0 d5 74 b9 42 08 9f 3b e2 a0 ec bb
       0.0061020376 -0.00023349351 0.0048532793 -0.007221327
0002d0 60 53 48 bc 8f 8d 65 bc d9 b0 db bb 20 65 3b 38
       -0.012226909 -0.014010801 -0.0067044315 4.4678454e-05
0002e0 33 38 9c bc bb 86 d8 bc 96 7d 85 bc b6 96 ac ba
       -0.019069767 -0.026431432 -0.016295236 -0.0013167474
0002f0 1c b9 64 3c 95 55 8a bb e4 e1 6b bc d0 2a 84 39
       0.013960149 -0.004221628 -0.014397118 0.000252089
000300 02 42 98 3c 9a c3 7d 3c de 31 da 3b 22 9d 34 bb
       0.018586162 0.01548853 0.0066587767 -0.0027559479
000310 33 6a 80 3c 33 60 d1 3c 18 b7 9e 3c 3c 27 39 3c
       0.01567564 0.025558567 0.019374415 0.011300858
000320 25 d6 f3 bc 78 1c 24 bd 2e d1 14 bd 19 91 f6 bb
       -0.029765198 -0.040066212 -0.0363323 -0.007524621
000330 6c b3 b8 39 10 78 43 bc 26 28 f0 bc ba 0b b3 bc
       0.00035228895 -0.011930481 -0.02931602 -0.021856178
000340 0f 5e f5 bb 4e 25 25 3c d8 9c 9a 3a 6b d7 ed bb
       -0.0074880193 0.010079695 0.0011796011 -0.007258346
000350 47 4e 9f bc 4f 7a c4 bc a6 37 f0 bb 3d 62 7e 3b
       -0.019446505 -0.023984103 -0.0073308526 0.0038815879
000360 ee 5b 18 bb 17 2a 8c bb f9 f3 06 bd ca 9f 2f bc
       -0.0023248154 -0.0042774784 -0.032947514 -0.010719249
000370 ad 8d 36 bc a0 ed 7b bc 7d b4 9d bc 5c 85 2c bd
       -0.011142177 -0.015376478 -0.019251103 -0.04211937
000380 02 a0 a8 bc 76 0d 3f 3c 6a b9 90 3c f7 7e 13 3d
       -0.02058411 0.011660924 0.017666537 0.036009755
000390 f8 72 29 3d ce 66 3b 3d e1 1a aa 3c b3 62 96 3c
       0.04136941 0.04575234 0.02076477 0.01835761
0003a0 38 1c 51 3d 9f c2 60 3d 8c a0 74 3d 02 30 9a 3c
       0.051052302 0.054873105 0.059723422 0.01882172
0003b0 10 b6 1d ba 38 85 ce 3c 38 b5 3b 3d 4c 97 55 3d
       -0.0006016204 0.025210008 0.04582712 0.05214624
0003c0 c8 1f be 3c 70 f2 6f 3b d6 5e 2a 3c 48 f3 b6 3c
       0.023208514 0.003661301 0.010398587 0.022332802
0003d0 b1 44 b8 3c 63 7d 90 3c 25 b2 42 3b 46 ff af bb
       0.022493692 0.017637914 0.0029708233 -0.005371007
0003e0 94 a4 c2 ba 10 11 a0 bb
       -0.0014850073 -0.0048848465

momentum_buffer f4 [10]
000000 f0 f2 5d bc 0e 46 8e bc b3 0e ae 3c ae c6 d6 bc
       -0.01354669 -0.017367389 0.021247244 -0.026217785
000010 04 fe 31 3c 33 a6 7b bb b0 16 4a bc 7c 32 3a bc
       0.010863785 -0.0038398623 -0.012334511 -0.0113645755
000020 f4 de 24 bb f1 64 86 3c
       -0.0025157304 0.016405554

momentum_buffer f4 [20, 10, 5, 5]
000000 64 6e 82 bc 9e d0 91 bb 48 8f 06 3c 20 5a c3 3b
       -0.015921779 -0.004449918 0.008212872 0.0059616715
000010 2c 21 7f ba 02 cf 07 3d 9d cf c7 3c 34 eb 8a 3c
       -0.0009732421 0.033156402 0.02439099 0.016957857
000020 35 f2 ca 3b a6 34 9c 3b ee e8 eb 3c dc 6c fb 3c
       0.006193424 0.0047670184 0.028797593 0.030691557
000030 70 27 d2 3c ee ac 34 3b 40 2d be b8 a5 3a ea 3b
       0.02565357 0.0027568894 -9.0683345e-05 0.0071481043
000040 48 83 67 3c 94 71 73 3c 42 27 dd ba dc 7e c3 ba
       0.014130421 0.014858622 -0.0016872662 -0.0014915126
000050 10 71 e0 3c fc 14 94 3c 94 9f 1a 3c 6e 96 4e bb
       0.027397662 0.018076412 0.00943746 -0.0031522769
000060 b6 ed 44 3b 06 67 ad 3c 81 28 94 3c cc 7e 43 3c
       0.0030048913 0.02116729 0.01808572 0.011932086
000070 27 83 28 3b 95 c2 59 ba c3 03 66 3c c2 b3 8f 3c
       0.0025712939 -0.0008306888 0.014038983 0.01754177
000080 6e e1 ff 3b f7 90 89 3b 10 9f c8 ba e8 ac b1 3b
       0.0078088557 0.0041981894 -0.0015306193 0.0054222234
000090 8d 41 4d 3b 8c 69 28 3b 31 72 20 3b a0 0c fe ba
       0.003131959 0.0025697676 0.0024482126 -0.0019382425
0000a0 35 da 50 3c 98 6c 59 3c 16 8c f1 3a b1 b6 ea ba
       0.012747337 0.01327052 0.001842859 -0.001790723
0000b0 58 64 8a 3a e4 c7 50 3c 82 9b d3 3b 48 b9 4a 3a
       0.0010558469 0.01274297 0.006457747 0.00077332975
0000c0 80 7f b2 3b 74 98 1d 3b b0 9a b9 3a 72 e3 54 3c
       0.005447328 0.0024047168 0.001416048 0.01299368
0000d0 08 d2 bf 3b 1a 14 68 bb 60 52 f3 ba 1e 51 2d 3c
       0.005853895 -0.0035412372 -0.0018563978 0.010578422
0000e0 4f 7b ea 3b 1c b7 b8 bb 71 d6 8d ba 1c 85 8b b9
       0.007155813 -0.0056370627 -0.0010821355 -0.0002661132
0000f0 f5 88 9f 3c cd 27 81 3c c7 f0 21 bc 86 a0 1c bb
       0.019474486 0.015766049 -0.009884066 -0.002389939
000100 ac 57 1c ba 0a 79 8a 3c d9 8a fa 3b ce e2 33 bc
       -0.0005963992 0.016903419 0.0076459465 -0.010979367
000110 ba ba 3b 3b 76 e5 1b bb ac 68 49 3b 52 8f a2 bb
       0.0028645233 -0.0023787892 0.0030732555 -0.004960933
000120 ba 2f 46 bc 2c 21 93 3b 0a 5e d4 bb b6 12 22 bb
       -0.01209634 0.0044900384 -0.006480937 -0.002473039
000130 5e df 42 3b 12 be 4f 3b 57 fc 24 bb d8 36 a0 bb
       0.0029735188 0.0031698984 -0.002517482 -0.0048893504
000140 fe 24 4e 3b 5a 4b 86 3b d4 14 30 3a d8 40 91 3b
       0.0031455155 0.004098338 0.0006716971 0.004432779
000150 5e 57 ad 3a 76 16 78 3c 46 1b 51 3c 58 97 18 3a
       0.001322489 0.015142074 0.01276285 0.0005820892
000160 5a 8a 19 39 02 de 10 3a 9c f5 a9 3b fd ff 0d 3c
       0.00014642757 0.0005526246 0.0051867496 0.008666989
000170 cf f6 b7 3b 6a 54 49 3b 22 e0 e7 b8 df 1f 76 3b
       0.0056141387 0.003072048 -0.00011056686 0.0037555618
000180 f0 e1 ba ba 37 9e 18 3b 80 c5 99 3a cd 77 a9 ba
       -0.0014258008 0.0023287663 0.0011731833 -0.001292938
000190 25 a7 73 3b c5 50 81 3b 36 d7 98 3b 64 c7 96 3a
       0.0037178483 0.003946396 0.004664327 0.0011503515
0001a0 a8 e6 8d 3a ac fd 64 bb 4b 6a b0 bb 28 e0 3f 3a
       0.0010826187 -0.003494124 -0.005383765 0.00073194737
0001b0 00 9a 65 3b 42 8b c1 3a de f7 ea ba 66 2a 1f bb
       0.0035034418 0.0014766234 -0.0017926653 -0.0024286746
0001c0 7b f6 a6 ba e5 72 28 3b 0f 17 0c 3b 64 e1 46 bb
       -0.0012738252 0.0025703248 0.0021376049 -0.0030346746
0001d0 e3 f3 cf ba 36 da 34 ba 3b 3c 83 3b 8a 52 98 3a
       -0.0015865531 -0.0006898971 0.0040049828 0.0011621278
0001e0 31 9d 53 bb 38 16 82 3a e3 a0 2c bb af 9c b4 3b
       -0.0032289738 0.0009924835 -0.0026341013 0.005511842
0001f0 46 f5 fc 3a d7 55 04 bc fc 80 15 bb e8 17 c0 3a
       0.0019299171 -0.008077106 -0.0022812476 0.0014655562
000200 14 60 a8 3a f0 49 e9 ba 71 d2 0a 3c 08 46 36 3c
       0.0012846016 -0.0017798524 0.008473025 0.011125095
000210 3a 45 f9 3b dd cb 66 3b 53 b2 3b 3b 3e 2e 43 3c
       0.0076071294 0.0035216727 0.0028640225 0.01191288
000220 73 ad 8f 3c a4 bd bb 3b 49 32 5c 3b 5c ad 98 38
       0.017538762 0.005729394 0.0033599308 7.2802155e-05
000230 40 4b ef b9 fa ba 89 3b 97 2e 20 3c de 64 51 3b
       -0.00045641698 0.0042031975 0.009776733 0.003195099
000240 0e 6e 17 bb 77 ab d0 3b f2 3e 26 3c 70 09 72 ba
       -0.002310637 0.0063680965 0.010146843 -0.00092329737
000250 53 8d 23 bb a8 78 7f 39 94 38 ad 3c c0 8e c9 3b
       -0.0024956062 0.00024363643 0.021145143 0.0061510503
000260 31 8a 53 3c 1d f9 da 3b f5 a5 29 3b 66 1c 33 3c
       0.012911365 0.0066825286 0.0025886272 0.010932064
000270 81 be 62 3c a4 b8 3e 3c f2 19 fb 3b 53 be 0a 3a
       0.013839365 0.011640701 0.007663005 0.0005292643
000280 24 45 4a ba 2e 95 1a 3a 8c 4f 44 3c 86 a6 ba 3b
       -0.0007715991 0.00058968633 0.011981856 0.0056961207
000290 a0 3b 0a bb a9 5a 65 3c 22 87 27 3b 90 47 02 3c
       -0.0021092668 0.013998666 0.0025562723 0.007951632
0002a0 52 99 49 3b 14 ea 9d ba 30 96 68 3c 8a b3 20 3c
       0.0030761552 -0.001204791 0.014195964 0.00980843
0002b0 3f 06 c3 3b 97 56 2e 3b d8 8f 42 3b 80 aa 48 b7
       0.0059516723 0.0026601905 0.0029687788 -1.1960627e-05
0002c0 e6 db 9c bb 2b 4b 1d 3b 70 bd d6 3a f2 c9 8c ba
       -0.004786956 0.0024001102 0.0016383361 -0.0010741337
0002d0 ea f6 09 3c bc 79 31 3c 34 18 23 3c 12 bd aa 3a
       0.008420685 0.010832246 0.009954501 0.0013026318
0002e0 fc 73 c3 3a 36 2e 22 3c 82 11 13 3c 80 92 be 3b
       0.0014911885 0.009898713 0.008976342 0.005815804
0002f0 0a 02 87 3b 22 94 a1 3a e5 74 8b 3b ec f1 67 3b
       0.004120116 0.0012327472 0.0042558783 0.0035392
000300 e8 27 91 3b 24 45 b7 3b 60 05 37 bb b4 87 62 3b
       0.004429806 0.005592959 -0.0027926788 0.0034565749
000310 b5 14 e2 3b ee e0 a5 3a 74 1a 44 bb 9b 80 e4 ba
       0.006899441 0.0012655535 -0.0029922994 -0.0017433347
000320 28 84 94 ba 96 b5 a0 3c 19 76 3f 3c 60 9e 1f 3b
       -0.001133089 0.019617837 0.0116858715 0.0024355873
000330 08 12 0f bb 90 37 06 ba 36 84 fa 3c d3 53 a3 3b
       -0.0021830816 -0.0005119974 0.030580621 0.004984358
000340 db aa dc ba 8b db 85 b9 f8 ad 39 3c 7a 11 8c 3c
       -0.0016835587 -0.0002553131 0.011332981 0.017098177
000350 20 e0 01 3b 24 73 b8 bb cd 91 ae ba 76 67 94 3c
       0.0019817427 -0.00562896 -0.0013318599 0.01811574
000360 db ab b4 3c e6 a2 61 bb cc 5e 97 bb 8a 1f 3a 3b
       0.022054603 -0.003442937 -0.004619455 0.0028400146
000370 bd d9 a5 3c f0 7d e1 3b 3e 42 da bb eb c3 d7 3a
       0.020245427 0.006881468 -0.0066607287 0.0016461586
000380 3d a2 c9 3a 8e 28 b5 3a 52 7b 9a 3b a0 37 0a 3c
       0.0015383434 0.001382129 0.004714408 0.008436114
000390 f1 7b dd 3b 2b 57 38 3b 1e 84 a0 3c 3e 21 e4 3c
       0.0067591597 0.0028128128 0.019594248 0.027847882
0003a0 db ba 94 3c 94 6f 55 3b de 17 4a 3a 52 46 2b 3c
       0.018155506 0.0032567726 0.0007709245 0.010453777
0003b0 a9 99 bf 3c 9f 53 b4 3c 8c 47 4d 3b 74 3f 29 ba
       0.0233887 0.02201253 0.0031323163 -0.00064562936
0003c0 26 fa 32 3c e8 0a 09 3c f2 52 2c 3c b2 51 8b 3a
       0.010923898 0.008364417 0.010517823 0.0010629205
0003d0 da 1a 6c 3a b2 90 99 3c 49 98 4d 3c 4b 5e 64 3c
       0.0009006687 0.018745754 0.012548515 0.013938497
0003e0 d8 e0 03 ba 88 65 86 3b 69 c7 cf 3c d0 d1 11 3c
       -0.0005030758 0.004101459 0.02536364 0.008900121
0003f0 6a 4f 21 3c 18 11 8e bb e2 14 5d bc ca 53 4a 3c
       0.009845594 -0.004335534 -0.013493748 0.012349078

momentum_buffer f4 [20]
000000 06 bf c7 3a e1 fb 60 3b 00 73 ff b8 3d 81 e9 3a
       0.0015239425 0.003432982 -0.00012180768 0.0017815005
000010 e3 f5 91 bb be e8 30 bb c7 11 bd ba 32 cf d3 bb
       -0.004454361 -0.0026994194 -0.0014424854 -0.0064639086
000020 bf 2b 3e 3b 32 db 24 3b 3a e9 1a 3c e0 c8 39 39
       0.0029017774 0.0025155065 0.00945502 0.00017717807
000030 62 89 14 bc 11 95 a0 3b 33 f3 72 3b fa 2a 26 3b
       -0.009065958 0.0049005826 0.0037071228 0.0025355206
000040 a5 20 ce bb f6 c5 0a 3c f2 70 0b bc 66 7b dd bb
       -0.0062905126 0.008470049 -0.008510815 -0.006759095
