assignment_2/mnist/model/mnist_cnn.pt (torch, 179918 bytes, 16 tensors)

conv1.weight f4 [10, 1, 5, 5]
0.17406112 0.12526597 0.25429076 0.15393266 0.3896727 -0.0878188 -0.037555184 0.28161943
0.17573883 0.36265966 0.20350808 -0.017268937 0.18643737 0.08860577 0.07421529 -0.15452093
-0.021793984 -0.015469852 -0.20236884 -0.08633456 -0.12817721 -0.19548617 -0.34287181 -0.33228806
-0.22180448 0.01644298 0.13174485 0.093660876 0.13942704 0.1525924 -0.20499928 0.10106705
0.28284904 0.18879421 0.22288862 0.09598485 0.18401071 0.1910115 0.17751864 -0.14101425
0.08767418 0.13248418 0.027130824 0.07242168 0.005228874 -0.03984806 -0.09697147 0.27696142
0.21650581 -0.050521247 -0.123883195 -0.069991715 0.04994058 0.04658144 0.10706127 -0.21299249
0.18246399 0.11409143 -0.09159418 -0.19222447 0.010028244 -0.028843425 -0.05454109 -0.071383595
0.09858474 0.13571845 0.27270645 0.09846927 0.041981604 0.17086838 0.118889965 -0.0682972
0.22908671 0.2087894 0.15086523 0.019583274 -0.117661186 -0.14817281 0.10645768 -0.12248845
0.1724202 0.30007327 0.09367797 0.3369958 0.023826102 0.20823443 0.28860468 0.2539392
0.09657022 0.31573066 -0.09356975 -0.049325224 -0.040507037 0.23501192 0.2718291 -0.14235766
-0.27713615 -0.2565941 -0.19857703 0.02182699 0.10157247 0.22942351 0.072821505 0.077666014
0.03447803 -0.016383508 0.2914764 -0.14042807 -0.09568458 -0.19367479 0.27574822 0.19960998
-0.003952205 -0.21502614 0.06322686 0.18551767 0.0023110507 0.1845173 -0.22676253 0.013936635
0.0039116936 0.10216786 0.16199878 -0.04117247 -0.17060843 0.1032878 0.030196974 0.07538198
-0.2021959 -0.1252763 0.18195325 0.3341129 0.15115604 -0.20850317 -0.19885589 0.3439464
0.20810443 0.22090869 0.058802675 0.2300941 0.38653377 0.24369062 0.18441309 0.2209297
0.12228155 0.16682473 0.06592916 -0.06142547 -0.2100278 0.07434221 0.18823706 0.29058343
0.10589746 0.3748884 0.2546394 0.021259196 -0.037397467 0.26119703 0.18629445 0.055775225
-0.13533136 -0.16350119 -0.08943625 0.30220267 0.106282376 -0.051817477 -0.14831638 0.056636333
0.12652586 0.22386414 -0.16411772 -0.11284743 0.048528787 -0.099351056 0.2212769 -0.098579675
0.062619306 -0.05794327 -0.011405613 0.15263997 0.14228654 -0.10428359 -0.1668158 0.14936177
-0.11807472 0.19224659 0.022944126 -0.16532807 -0.12298178 -0.10995336 -0.10398179 0.18809374
-0.16798124 -0.15095975 -0.13555372 -0.18554139 0.16432576 -0.19694953 -0.20202155 -0.027988719
-0.06188994 -0.15322238 -0.19118603 -0.19548707 0.0035136715 -0.05146485 -0.058356665 -0.13185735
-0.013834239 -0.09121695 -0.06809563 -0.17778464 0.026025862 0.09106569 -0.09583082 0.13969536
-0.0119714 -0.08360455 -0.0017790182 -0.14491837 -0.04462395 -0.021579502 -0.11277962 -0.083083294
-0.085581474 -0.18520597 -0.11815967 -0.19609825 -0.14245576 -0.013344407 -0.14539643 0.05880794
-0.027937418 -0.19576289 -0.22126637 -0.0398061 -0.15815532 0.0030951207 0.12618262 0.081585616
0.21028368 -0.09831903 0.15444496 0.051404487 0.06097393 0.10647415 0.11923001 0.18892683
-0.12092686 -0.027665896
00000000: 143d 323e b945 003e 6632 823e 86a0 1d3e
00000010: 2e83 c73e 58da b3bd 77d3 19bd 6c30 903e
00000020: e1f4 333e 87ae b93e 6c64 503e 9677 8dbc
00000030: 70e9 3e3e f176 b53d 30fe 973d bc3a 1ebe
00000040: 4c89 b2bc 4375 7dbc c739 4fbe 2cd0 b0bd
00000050: e340 03be 872d 48be e58c afbe a921 aabe
00000060: b720 63be 6eb3 863c 1fe8 063e 46d1 bf3d
00000070: f6c5 0e3e 2f41 1c3e 55eb 51be 3efc ce3d
00000080: 97d1 903e 4553 413e ea3c 643e b493 c43d
00000090: 4e6d 3c3e 8598 433e 72c7 353e 0a66 10be
000000a0: 858e b33d efa9 073e 7641 de3c d151 943d
000000b0: f956 ab3b b837 23bd fa98 c6bd e3cd 8d3e
000000c0: b3b3 5d3e 5eef 4ebd 79b6 fdbd d157 8fbd
000000d0: 7e8e 4c3d 2ecc 3e3d f042 db3d b41a 5abe
000000e0: d7d7 3a3e c5a8 e93d bb95 bbbd 7ed6 44be
000000f0: 814d 243c 0c49 ecbc 7a66 5fbd 9031 92bd
00000100: cce6 c93d c7f9 0a3e 2ea0 8b3e 42aa c93d
00000110: e7f4 2b3d 1ff8 2e3e 957c f33d 67df 8bbd
00000120: b595 6a3e e3cc 553e 6a7c 1a3e 1a6d a03c
00000130: 59f8 f0bd 9dba 17be 7c06 da3d 39db fabd
00000140: ec8e 303e 34a3 993e 3cda bf3d b78a ac3e
00000150: f52e c33c 683b 553e fec3 933e 5204 823e
00000160: 9cc6 c53d 73a7 a13e 7fa1 bfbd 3f09 4abd
00000170: b5ea 25bd f7a6 703e 2f2d 8b3e 35c6 11be
00000180: cae4 8dbe 4d60 83be c757 4bbe 84ce b23c
00000190: 3a05 d03d ffed 6a3e 7123 953d 5c0f 9f3d
000001a0: d638 0d3d b536 86bc 653c 953e 60cc 0fbe
000001b0: 47f6 c3bd af52 46be df2e 8d3e 8f66 4c3e
000001c0: 8081 81bb d02f 5cbe 157d 813d 58f8 3d3e
000001d0: ff74 173b 1af2 3c3e 7034 68be 7c56 643c
000001e0: aa2d 803b 623d d13d 02e3 253e 77a4 28bd
000001f0: fab3 2ebe 8e88 d33d a55f f73c de61 9a3d
00000200: 710c 4fbe 6e48 00be f451 3a3e d910 ab3e
00000210: a6c8 1a3e db81 55be e1a0 4bbe be19 b03e
00000220: 5419 553e e335 623e 13db 703d ca9d 6b3e
00000230: c1e7 c53e 098a 793e c9d6 3c3e 653b 623e
00000240: c06e fa3d 1ad4 2a3e de05 873d 4699 7bbd
00000250: 8711 57be bb40 983d 37c1 403e 5ac7 943e
00000260: c4e0 d83d 5ff1 bf3e 1860 823e c427 ae3c
00000270: 162e 19bd 9ebb 853e f9c3 3e3e 9074 643d
00000280: 4e94 0abe db6c 27be 5a2a b7bd 4fba 9a3e
00000290: 93aa d93d 903e 54bd 40e0 17be 80fb 673d
000002a0: ff8f 013e a43c 653e 7a0e 28be 8e1c e7bd
000002b0: 1fc6 463d 9178 cbbd 6996 623e 24e4 c9bd
000002c0: 8d3e 803d ec55 6dbd 9cde 3abc a74d 1c3e
000002d0: 90b3 113e a392 d5bd c3d1 2abe 4bf2 183e
000002e0: 29d1 f1bd 4adc 443e 52f5 bb3c c34b 29be
000002f0: dfdd fbbd 3a2f e1bd 68f4 d4bd a59b 403e
00000300: 4603 2cbe 3195 1abe 98ce 0abe 90fe 3dbe
00000310: 0345 283e 23ad 49be bdde 4ebe 9948 e5bc
00000320: 4e80 7dbd 54e6 1cbe 45c6 43be c32d 48be
00000330: a045 663b cecc 52bd 6607 6fbd 9d05 07be
00000340: 01a9 62bc f4cf babd b975 8bbd 2d0d 36be
00000350: 3034 d53c a680 ba3d f342 c4bd 4d0c 0f3e
00000360: b123 44bc dd38 abbd f22d e9ba 7b65 14be
00000370: 9ac7 36bd 7fc7 b0bc 00f9 e6bd 9327 aabd
00000380: 5745 afbd a2a6 3dbe b2fd f1bd fbcd 48be
00000390: ecdf 11be 80a2 5abc cde2 14be 98e0 703d
000003a0: 03dd e4bc 1176 48be a793 62be b90b 23bd
000003b0: 78f3 21be 82d7 4a3b 0436 013e 5c16 a73d
000003c0: 9b54 573e 7d5b c9bd d226 1e3e 838d 523d
000003d0: cdbf 793d 1f0f da3d dd2e f43d 0976 413e
000003e0: 80a8 f7bd 97a3 e2bc

conv1.bias f4 [10]
0.0442234 0.09076337 0.2208705 0.18973933 -0.026258599 0.12332433 0.20320262 -0.07986997
0.09939571 0.21197969
00000000: 9923 353d 25e2 b93d e02b 623e 074b 423e
00000010: 461c d7bc 7791 fc3d 5914 503e de92 a3bd
00000020: fa8f cb3d 3411 593e

conv2.weight f4 [20, 10, 5, 5]
-0.014059552 0.09841919 0.12853739 0.06805032 -0.046300426 0.012685206 0.10426457 0.08437691
0.08670813 0.052281693 -0.019290714 -0.010366673 0.011007065 -0.049239263 -0.04499472 0.044777367
0.031250883 0.019389998 -0.048533943 0.0006058403 -0.02941117 0.083967865 0.05423407 0.04849791
-0.018703148 -0.04855721 0.0277928 -0.025318246 0.059879135 0.01310658 -0.08590619 0.015471902
-0.050329823 0.0031145427 0.008751269 -0.023088804 -0.099031225 -0.010373157 -0.07504151 0.0070255403
-0.06345264 -0.02900293 -0.023529628 -0.02084261 0.0429443 -0.012748102 -0.0118758315 0.103499874
0.02027918 -0.007954616 0.0042741336 -0.07324819 -0.028722052 -0.041718815 -0.00070679595 -0.0806353
-0.051680416 -0.037962615 -0.041262414 -0.07844177 0.025024569 0.008906254 -0.008517614 0.044901114
0.025028775 0.067078464 0.0014161695 0.04023758 0.033479337 0.044491015 -0.022354525 0.012165213
-0.01990939 -0.02164134 0.037747774 0.039126936 0.016594773 0.11017434 0.15498419 0.116093464
-0.021683374 -0.046739377 -0.045967575 0.047303963 0.0036401153 -0.055446945 -0.044650994 -0.07701826
-0.093948014 0.014599202 0.037929267 -0.018177878 0.02362398 -0.02439809 -0.030166913 -0.008287709
0.06378935 0.0675031 -0.02474297 -0.06077564 0.01128291 -0.0068843057 0.010007065 -0.04414996
-0.051332906 0.0095593585 -0.06403178 -0.09253378 -0.029181587 0.02172732 -0.07641609 -0.040542286
0.0022349306 -0.046043117 0.0020759483 -0.013035034 -0.034076586 -0.021125566 0.0074196374 -0.03837969
0.05283384 0.05021125 0.06553375 0.009752765 0.036342952 0.029634943 -0.015812682 0.05419328
0.053785734 -0.037271027 -0.0019468847 -0.08610269 -0.025311531 -0.033263933 -0.059998307 -0.06978687
-0.040149055 -0.0895832 -0.054369353 -0.07666943 0.044986654 0.036876187 0.052545283 -0.011145282
0.0067974385 0.047309767 -0.0043811477 0.03814877 0.020148529 0.024921844 0.0031782144 0.05508348
0.036571834 0.073716074 -0.041628536 -0.014610162 0.047388725 0.07039412 0.056690753 0.08263797
-0.022418642 -0.12397451 0.013905804 0.010561363 -0.059324693 -0.0067405286 -0.10519199 -0.06558777
-0.015798895 -0.062528335 0.0036254504 -0.0358026 -0.0354034 -0.019912623 -0.0112446975 0.04668847
0.063286 0.038334444 -0.0484955 0.048592385 -0.028070243 0.037384912 -0.030828208 0.042754613
-0.026344117 -0.007878847 0.059969664 0.05021058 -0.033484798 0.0390097 -0.029091455 0.0083122775
-0.03491512 0.02522996 -0.0020084425 0.006604876 -0.005457978 -0.047858078 0.016778681 -0.053034972
-0.05093031 -0.049493972 -0.029025806 -0.030971242 0.0001033449 -0.0112299435 0.024884325 0.04420536
0.04230072 -0.020726122 0.05933817 0.043964628 0.07065728 0.003185686 -0.034940317 0.025437925
0.015072396 -0.04592931 0.05896217 0.041615434 -0.022044724 -0.016761612 -0.06962041 -0.022403266
0.01792343 -0.054095697 0.042712808 0.016790664 -0.004338679 0.041015185 -0.02731815 0.037581403
-0.05348674 0.045009483 0.034485158 -0.037377417 0.022976937 0.03069265 0.027263524 -0.023941653
0.06152413 0.05996241 0.026632572 0.013408848 0.029378101 0.079619914 -0.018049913 -0.032610044
0.027413437 0.046473116 -0.09829064 -0.010376774 0.033035345 -0.045412652 -0.02698796 0.041604113
00000000: 095a 66bc 0090 c93d 4e9f 033e f75d 8b3d
00000010: 84a5 3dbd 9cd5 4f3c aa88 d53d cdcd ac3d
00000020: 0894 b13d 5425 563d 8f07 9ebc fad8 29bc
00000030: fa56 343c 1caf 49bd 624c 38bd 7968 373d
00000040: ed00 003d c6d7 9e3c 87cb 46bd 41d1 1e3a
00000050: b2ef f0bc 58f7 ab3d 8b24 5e3d bfa5 463d
00000060: 5837 99bc ede3 46bd baad e33c 3668 cfbc
00000070: d343 753d fbbc 563c 96ef afbd dc7d 7d3c
00000080: a526 4ebd 5b1d 4c3b 7c61 0f3c bb24 bdbc
00000090: e2d0 cabd 2df4 29bc 5daf 99bd 8136 e63b
000000a0: 75f3 81bd 8d97 edbc 35c1 c0bc 1fbe aabc
000000b0: 5de6 2f3d 6add 50bc d992 42bc bef7 d33d
000000c0: 8620 a63c 1454 02bc 080e 8c3b 2603 96bd
000000d0: 824a ebbc 59e1 2abd 4648 39ba 1f24 a5bd
000000e0: d8ae 53bd b07e 1bbd c702 29bd 14a6 a0bd
000000f0: 5300 cd3c 89eb 113c 768d 0bbc 3bea 373d
00000100: 2509 cd3c 6f60 893d c39e b93a 29d0 243d
00000110: a121 093d 363c 363d d620 b7bc 9a50 473c
00000120: 0419 a3bc 2e49 b1bc 699d 1a3d 9143 203d
00000130: c3f1 873c 16a3 e13d 2db4 1e3e 69c2 ed3d
00000140: 55a1 b1bc ca71 3fbd 7f48 3cbd cdc1 413d
00000150: 008f 6e3b 561c 63bd f6e3 36bd c0bb 9dbd
00000160: d167 c0bd 7e31 6f3c b85b 1b3d c6e9 94bc
00000170: 1487 c13c 81de c7bc 9a20 f7bc 2cc9 07bc
00000180: fea3 823d 113f 8a3d c5b1 cabc e1ef 78bd
00000190: f4db 383c be95 e1bb acf4 233c 97d6 34bd
000001a0: 7442 52bd db9e 1c3c 1823 83bd 5a82 bdbd
000001b0: 390e efbc 7efd b13c 0a80 9cbd ab0f 26bd
000001c0: ea77 123b b597 3cbd a20c 083b e590 55bc
000001d0: e493 0bbd 860f adbc 6e20 f33b 0634 1dbd
000001e0: 4c68 583d 50aa 4d3d 8f36 863d 10ca 1f3c
000001f0: 59dc 143d fbc4 f23c 9989 81bc c6f9 5d3d
00000200: 6e4e 5c3d 81a9 18bd 9c2e ffba 9b56 b0bd
00000210: 215a cfbc c33f 08bd c9c0 75bd 6bec 8ebd
00000220: 5673 24bd 6677 b7bd 66b2 5ebd dd04 9dbd
00000230: ed43 383d 7c0b 173d b939 573d b39a 36bc
00000240: 0cbd de3b e3c7 413d bb8f 8fbb e241 1c3d
00000250: 870e a53c e528 cc3c 9749 503b 379f 613d
00000260: 59cc 153d 74f8 963d af82 2abd 765f 6fbc
00000270: ae1a 423d cb2a 903d 9034 683d 193e a93d
00000280: 4da7 b7bc 59e6 fdbd 2bd5 633c 9109 2d3c
00000290: 73fe 72bd a7df dcbb e66e d7bd e152 86bd
000002a0: af6c 81bc db0e 80bd f798 6d3b bfa5 12bd
000002b0: 2803 11bd cc1f a3bc ae3b 38bc 693c 3f3d
000002c0: 179c 813d 9404 1d3d 38a3 46bd cf08 473d
000002d0: 91f3 e5bc ec20 193d 708b fcbc 761f 2f3d
000002e0: 9ecf d7bc 4816 01bc c0a2 753d 9ca9 4d3d
000002f0: 5b27 09bd a3c8 1f3d 3451 eebc 3830 083c
00000300: 2803 0fbd 10af ce3c 13a0 03bb b76d d83b
00000310: d7d8 b2bb d506 44bd 7273 893c 333b 59bd
00000320: 4d9c 50bd 31ba 4abd 87c7 edbc 67b7 fdbc
00000330: dfba d838 ccfd 37bc 36da cb3c ae10 353d
00000340: 8543 2d3d d4c9 a9bc 950c 733d 4114 343d
00000350: c4b4 903d f1c6 503b 941d 0fbd 3263 d03c
00000360: 36f2 763c 5f20 3cbd 5182 713d f274 2a3d
00000370: 2397 b4bc a64f 89bc 2595 8ebd 0e87 b7bc
00000380: 28d4 923c 7393 5dbd a0f3 2e3d 938c 893c
00000390: 7a2b 8ebb 8aff 273d 50ca dfbc f5ee 193d
000003a0: e914 5bbd dd5b 383d 4f40 0d3d 1019 19bd
000003b0: 213a bc3c 276f fb3c c157 df3c 4921 c4bc
000003c0: ba00 7c3d 259b 753d 8d2c da3c c9b0 5b3c
000003d0: 58aa f03c c40f a33d 69dd 93bc 1c92 05bd
000003e0: 2592 e03c 985a 3e3d 9a4c c9bd 5803 2abc
000003f0: 1250 073d 9e02 3abd db15 ddbc 1369 2a3d

conv2.bias f4 [20]
-0.022891985 0.05069329 -0.048914954 -0.033245523 -0.03547894 -0.049013272 0.03316031 -0.011482858
0.059145536 -0.015863309 -0.016404783 -0.07006157 0.009870346 0.030954055 -0.024722688 0.03592644
-0.0398597 0.010550473 -0.042143527 -0.05535648
00000000: f987 bbbc c4a3 4f3d 0c5b 48bd 752c 08bd
00000010: 5d52 11bd 24c2 48bd 1bd3 073d 9922 3cbc
00000020: 9742 723d c5f3 81bc 5363 86bc 717c 8fbd
00000030: 3bb7 213c 5c93 fd3c 3c87 cabc 9a27 133d
00000040: ed43 23bd e4db 2c3c b19e 2cbd 7abd 62bd

fc1.weight f4 [50, 320]
0.03923677 -0.061598368 0.037417717 0.017142836 0.010857196 -0.034930825 0.018190296 0.03312486
-0.072739445 -0.052532524 -0.007881117 0.07528075 -0.05004804 -0.027674377 0.009965586 -0.02226448
-0.024276515 0.0033592233 0.06989695 -0.014511733 -0.03553066 0.027903425 0.05846748 -0.037108894
0.025502503 0.048245892 -0.050251536 -0.046502564 -0.020479446 0.042138845 0.032199237 -0.014905525
-0.049342453 -3.419088e-05 0.0005668666 0.009016194 0.011671532 -0.053698786 0.0035706884 0.039559886
0.01975345 -0.023171365 0.0045155017 -0.055675335 -0.0012573036 0.03443158 0.06399164 -0.012840038
-0.038680416 0.022484884 0.0015313893 -0.027524084 0.058646224 0.019727204 0.012797567 -0.020708205
0.061092727 0.058832835 -0.005437402 0.03420845 0.07502727 -0.0008336525 -0.06312707 0.006573381
0.037147295 -0.035311896 -0.017900374 -0.048379503 0.018589796 0.009436654 -0.0337245 -0.006046126
0.015171365 -0.094241835 -0.01403424 -0.017239384 0.019671166 -0.031870786 -0.029943073 0.033907123
0.05204255 -0.039048206 -0.013145447 0.06348765 -0.030264026 0.0037443358 0.034625396 -0.010296029
0.0066407453 -0.05504077 0.032585572 0.025245247 0.07229885 -0.07591961 -0.017605014 -0.0053868773
0.0038886575 0.007974298 0.062189195 -0.025531465 -0.042501707 -0.037486658 -0.034908336 0.053628724
-0.014044241 0.0045119366 -0.07085496 -0.0015217364 -0.0008019748 -0.0062278397 0.040767126 0.04814052
0.047682766 -0.015836872 -0.005722669 -0.024206815 -0.022855705 -0.0027153813 -0.029694581 -0.016225476
-0.012380797 0.061857373 0.03171843 0.035870027 -0.05247944 -0.011230914 0.06316911 -0.039550263
-0.018755725 0.043279517 0.05126284 0.047092043 -0.052635767 -0.034191 0.021203198 -0.06944179
-0.026477225 -0.053684413 -0.04620015 -0.010855481 -0.00954131 -0.017169626 0.01179055 0.046866283
-0.04625672 0.020282656 0.043560423 0.013815972 -0.05241235 0.015144537 0.00054499554 0.028978476
-0.03622578 -0.14602688 -0.025943322 0.047276653 0.06223669 0.0031100751 -0.02836692 0.010660236
0.028027613 -0.0020222692 0.046429273 0.0732936 -0.04823957 0.0743672 -0.019220538 -0.06737328
0.02456379 0.008710156 0.0049186754 -0.06233726 -0.05337022 0.0050954893 0.034907036 0.03807732
0.0048089367 0.0021008777 0.027544608 0.05827329 -0.056776304 0.04852195 -0.003120232 0.02368841
-0.02800081 -0.035090048 0.0067250887 0.008011261 -0.05037869 -0.029046493 -0.011800586 0.03902027
0.020513875 -0.027623402 0.02420608 -0.03454446 0.042002726 0.052792314 0.034190457 -0.019805105
0.0023993405 0.0083009815 0.0065172045 0.022742217 0.019909726 0.036055252 -0.06991553 0.02795614
0.048892096 -0.008016072 0.036445063 0.001242661 0.022861548 0.019120255 0.08412918 0.005968923
0.0026363065 -0.007068843 -0.0061308164 -0.022608941 -0.03219767 -0.014203178 0.007282888 0.0049983067
-0.026263367 -0.06584232 0.012963035 -0.017951932 0.054890905 -0.032594427 -0.03410219 0.032153517
0.00890559 0.0055948677 0.03318448 0.004461251 -0.025503252 -0.010120429 0.017764779 0.0021445865
0.03187661 -0.020941645 0.0043760496 0.02599851 0.0113243675 0.02382394 0.04755952 -0.0105187325
-0.04460364 0.021502282 -0.05335783 -0.043417774 -0.01730397 0.0029064196 0.008012083 0.005997158
00000000: bcb6 203d 924e 7cbd 5243 193d 226f 8c3c
00000010: 61e2 313c a013 0fbd d103 953c efad 073d
00000020: 6bf8 94bd 582c 57bd cd1f 01bc cb2c 9a3d
00000030: 2cff 4cbd 60b5 e2bc b246 233c 0064 b6bc
00000040: 8bdf c6bc 6a26 5c3b 2226 8f3d 9fc2 6dbc
00000050: 9988 11bd b995 e43c 997b 6f3d 7fff 17bd
00000060: a0ea d03c 7c9d 453d 8ed4 4dbd 7979 3ebd
00000070: 83c4 a7bc c899 2c3d 59e3 033d 4e36 74bc
00000080: 501b 4abd 2e68 0fb8 c699 143a a9b8 133c
00000090: f439 3f3c 42f3 5bbd 3602 6a3b 8c09 223d
000000a0: fdd1 a13c e0d1 bdbc c6f6 933b d20b 64bd
000000b0: 1ccc a4ba 2108 0d3d 0d0e 833d 065f 52bc
000000c0: 5b6f 1ebd 3832 b83c e6b8 c83a 307a e1bc
000000d0: 0637 703d f29a a13c e3ac 513c 41a4 a9bc
000000e0: 5e3c 7a3d b3fa 703d 3c2c b2bb 291e 0c3d
000000f0: e6a7 993d 7989 5aba c448 81bd 8465 d73b
00000100: c327 183d 35a3 10bd cea3 92bc 9629 46bd
00000110: a149 983c 329c 1a3c b422 0abd 951e c6bb
00000120: 5191 783c dd01 c1bd deef 65bc 9c39 8dbc
00000130: 6d25 a13c f18a 02bd 2d4b f5bc 32e2 0a3d
00000140: 922a 553d 03f1 1fbd 0060 57bc d005 823d
00000150: 43ec f7bc 8863 753b 5cd3 0d3d adb0 28bc
00000160: 9c9a d93b 6e72 61bd 7378 053d 1fcf ce3c
00000170: 6b11 943d be7b 9bbd 6438 90bc 6784 b0bb
00000180: d9d8 7e3b a1a6 023c 19ba 7e3d 5d27 d1bc
00000190: 4516 2ebd 9c8b 19bd 0bfc 0ebd cba9 5b3d
000001a0: d119 66bc ded8 933b 681c 91bd 0075 c7ba
000001b0: 9e3b 52ba e812 ccbb 6efb 263d fe2e 453d
000001c0: 014f 433d 54bc 81bc 3a85 bbbb 5f4d c6bc
000001d0: e33b bbbc 8af4 31bb 0d42 f3bc 4aeb 84bc
000001e0: d4d8 4abc 285e 7d3d 2feb 013d 73ec 123d
000001f0: aef4 56bd de01 38bc ce5e 813d 75ff 21bd
00000200: 9ba5 99bc dd45 313d fcf8 513d 96e3 403d
00000210: 9a98 57bd dd0b 0cbd 54b2 ad3c 7f37 8ebd
00000220: c4e6 d8bc 30e4 5bbd 5e3c 3dbd 30db 31bc
00000230: 2853 1cbc 51a7 8cbc 272d 413c dcf6 3f3d
00000240: b077 3dbd d027 a63c 6a6c 323d 635c 623c
00000250: 55ae 56bd cb20 783c 08de 0e3a 4564 ed3c
00000260: 7c61 14bd 1288 15be 1787 d4bc 2aa5 413d
00000270: e6eb 7e3d 67d2 4b3b be61 e8bc 45a8 2e3c
00000280: 2a9a e53c 0c88 04bb 9f2c 3e3d f41a 963d
00000290: db96 45bd d54d 983d 6474 9dbc 01fb 89bd
000002a0: 003a c93c 0bb5 0e3c d72c a13b 5b55 7fbd
000002b0: bb9a 5abd 10f8 a63b aefa 0e3d f7f6 1b3d
000002c0: 4994 9d3b e1ae 093b 3ba5 e13c f9af 6e3d
000002d0: 458e 68bd f4be 463d ce7c 4cbb 320e c23c
000002e0: f461 e5bc 95ba 0fbd 225e dc3b aa41 033c
000002f0: e359 4ebd e9f2 edbc 3f57 41bc b8d3 1f3d
00000300: b70c a83c 794a e2bc d44b c63c 7e7e 0dbd
00000310: 0d0b 2c3d c13c 583d 4b0b 0c3d 513e a2bc
00000320: 413e 1d3b d700 083c 468e d53b e34d ba3c
00000330: b919 a33c acae 133d e02f 8fbd 4604 e53c
00000340: 1443 483d d855 03bc 6b47 153d c9e0 a23a
00000350: 2448 bb3c 15a2 9c3c eb4b ac3d f596 c33b
00000360: e2c5 2c3b c1a1 e7bb 04e5 c8bb 6336 b9bc
00000370: b4e1 03bd 72b4 68bc 4ba5 ee3b d6c8 a33b
00000380: 4626 d7bc 57d8 86bd e962 543c ee0f 93bc
00000390: 49d5 603d bc81 05bd bdae 0bbd 68b3 033d
000003a0: c0e8 113c 2755 b73b 73ec 073d b02f 923b
000003b0: 32ec d0bc 28d0 25bc 7187 913c 318c 0c3b
000003c0: 0c91 023d d08d abbc f764 8f3b d4fa d43c
000003d0: d789 393c 6c2a c33c c5cd 423d c356 2cbc
000003e0: 4eb2 36bd 8e25 b03c bd8d 5abd d6d6 31bd
000003f0: 0ec1 8dbc a179 3e3b 1d45 033c cf83 c43b

fc1.bias f4 [50]
0.0423111 -0.031255722 -0.0037524318 -0.029108988 -0.0042800657 0.020904668 0.053931627 -0.033215288
-0.00074166415 0.014111882 0.011177441 -0.017872069 0.036700487 -0.020523595 0.0138919465 -0.054678973
-0.020110063 0.035478886 -0.02685977 -0.018264962 0.008581695 -0.0009601616 0.03764189 0.054221466
0.033819422 0.017649308 0.01103902 0.011203353 0.049482007 0.0096690655 0.06222831 0.036491897
0.03415375 0.013719236 0.019884069 -0.018189495 -0.026052339 -0.035265468 0.07434091 -0.012616278
0.019047055 0.011025694 -0.025971081 0.05729969 0.044221397 -0.01654264 0.001066465 0.05538394
0.06283569 -0.00821514
00000000: 674e 2d3d 0006 00bd 5ceb 75bb f975 eebc
00000010: cb3f 8cbb 4440 ab3c 69e7 5c3d c10c 08bd
00000020: 3d6c 42ba 8635 673c 9621 373c 7268 92bc
00000030: 4053 163d 1921 a8bc 0c9b 633c 0ff7 5fbd
00000040: dcbd a4bc 4f52 113d 0509 dcbc 67a0 95bc
00000050: 3d9a 0c3c 5bb3 7bba 622e 1a3d 5417 5e3d
00000060: 3c86 0a3d 4895 903c 01dd 343c 458e 373c
00000070: a5ad 4a3d 006b 1e3c 1de3 7e3d 8778 153d
00000080: cde4 0b3d a5c6 603c eae3 a23c 2302 95bc
00000090: b76b d5bc 8672 10bd 0c40 983d 81b4 4ebc
000000a0: 9208 9c3c 1da5 343c 4ec1 d4bc 14b3 6a3d
000000b0: 7f21 353d 6e84 87bc a1c8 8b3a 45da 623d
000000c0: 00b0 803d cb98 06bc

fc2.weight f4 [10, 50]
0.16720763 0.13141415 -0.22964959 0.011152011 -0.23455971 0.11833903 -0.03722188 -0.161819
-0.010557169 -0.042678606 -0.053782836 -0.052484516 0.20678179 0.042164586 0.2391783 -0.027915733
-0.13621505 -0.1377811 -0.025674047 0.13971454 0.11259034 -0.08714537 -0.124429636 0.13350546
0.05102372 -0.14315337 -0.05529207 0.103449464 -0.018910099 0.14491877 -0.197173 -0.1593722
-0.13448869 0.15013382 -0.006742359 0.1270158 0.17727862 0.056764074 -0.21330728 0.0065235714
0.106106214 0.013286091 -0.09005187 -0.11843528 0.025352016 -0.013493798 -0.03618016 -0.21383516
0.14290914 -0.144434 -0.21663824 -0.1446922 -0.17824833 0.15304376 0.11810858 -0.06420055
0.23261313 0.15315883 0.040959023 -0.15653935 0.06331586 0.17170937 -0.037217423 -0.18799375
0.13893738 -0.004627422 -0.08811839 0.10313147 0.14810601 -0.22608827 0.057543725 0.1497438
-0.18904224 0.14918208 -0.06875338 -0.12025882 -0.1443356 -0.09691784 -0.0772168 -0.13403003
-0.022700068 0.20022985 -0.25894582 -0.15017761 0.09316182 0.1250454 0.012753519 -0.070489675
0.16187973 -0.24446233 0.1095816 0.08245919 -0.024748787 0.12017216 -0.15982419 -0.16860762
0.22989379 0.12510413 -0.012996295 -0.08739918 0.030353857 0.018774878 -0.097581394 0.02854544
-0.18646035 0.02452864 -0.07171547 -0.045130726 -0.20239604 0.17436807 0.085455045 0.17578779
0.16141115 0.07839737 0.18788904 -0.088751964 -0.02294454 0.13034463 0.15419911 0.020285048
0.060764797 0.06771709 0.13812017 0.15936342 -0.008269432 0.14553966 -0.002278992 0.08268624
-0.05888119 0.111031435 -0.22143766 -0.04147385 -0.13423833 -0.089478426 0.21293071 -0.17246549
-0.12380926 0.07536378 0.15295687 0.07984863 0.08009838 -0.090201356 -0.09598967 0.07229091
0.10547571 -0.069926105 -0.119921 0.091802895 -0.17468907 -0.07605493 -0.1862092 -0.14088199
0.10911715 0.009880836 0.09981945 0.11238968 0.21473055 -0.012788128 0.1654169 0.1460324
0.058152698 0.1485136 0.065365754 -0.049421676 -0.0038302601 0.06793104 -0.1509078 0.11067119
0.15177476 -0.14392196 0.09043705 -0.17804047 0.13411683 0.16572864 -0.015081953 -0.092550755
0.15550447 -0.14926916 -0.00021522604 0.12373038 0.054071244 -0.09711546 0.02097048 -0.13796207
0.04494396 -0.19199376 0.00456743 0.0875464 -0.0052589243 -0.1129289 -0.1176259 -0.23546025
-0.120657556 -0.030318076 0.15145048 -0.050298914 -0.0039850674 0.02878814 0.03165731 -0.06756063
-0.0794046 0.06373318 0.13834481 0.070314914 0.11778401 -0.1879303 0.014485312 0.10813324
0.005359091 0.11078771 -0.060516283 -0.1455049 -0.0236104 0.1804546 -0.044150908 -0.010888004
0.14546831 -0.15378208 -0.11883916 0.0518826 -0.16532438 -0.11609419 -0.15582159 -0.044093907
0.09672572 0.091391295 -0.14754753 0.051575806 0.14903378 -0.2287612 0.045672264 0.0933112
0.029933838 -0.15194708 -0.09424131 -0.04977596 0.005024682 -0.22652157 -0.13070445 0.102575175
0.04685482 0.10542187 0.06622342 -0.034899164 -0.09757006 0.05535738 0.24025081 0.15100636
-0.1855295 0.18328041 0.0077059595 -0.094739854 0.13258123 0.05935328 -0.025318716 0.11697412
00000000: 7a38 2b3e 6e91 063e 4329 6bbe edb6 363c
00000010: 6c30 70be bc5b f23d f875 18bd e1b3 25be
00000020: faf7 2cbc c3cf 2ebd 644b 5cbd 01fa 56bd
00000030: 9bbe 533e c6b4 2c3d 28eb 743e 89af e4bc
00000040: f57b 0bbe 7d16 0dbe 6152 d2bc 5411 0f3e
00000050: c495 e63d 4679 b2bd f7d4 febd a8b5 083e
00000060: 40fe 503d cc96 12be f079 62bd 50dd d33d
00000070: 5ae9 9abc 9665 143e b8e7 49be 7732 23be
00000080: 67b7 09be aebc 193e 02ef dcbb 6e10 023e
00000090: 8788 353e 7281 683d 396d 5abe afc3 d53b
000000a0: 374e d93d e8ad 593c 1d6d b8bd 328e f2bd
000000b0: 08af cf3c 1715 5dbc a631 14bd 9bf7 5abe
000000c0: c656 123e 82e6 13be 6ad6 5dbe 312a 14be
000000d0: bb86 36be 81b7 1c3e e9e2 f13d 947b 83bd
000000e0: 2332 6e3e abd5 1c3e a6c4 273d da4b 20be
000000f0: bfab 813d 95d4 2f3e 4c71 18bd 6f81 40be
00000100: 9a45 0e3e a1a1 97bb 6a77 b4bd 9836 d33d
00000110: 1aa9 173e af83 67be f8b2 6b3d 7056 193e
00000120: 4a94 41be 30c3 183e 92ce 8cbd 424a f6bd
00000130: b6cc 13be dc7c c6bd d723 9ebd 2b3f 09be
00000140: 7ef5 b9bc 0e09 4d3e 8c94 84be 29c8 19be
00000150: a0cb be3d e70b 003e 23f4 503c e45c 90bd
00000160: cdc3 253e 5554 7abe 516c e03d 5de0 a83d
00000170: f8bd cabc d21c f63d f4a8 23be 7aa7 2cbe
00000180: 4769 6b3e 4c1b 003e 69ee 54bc 57fe b2bd
00000190: a7a8 f83c c6cd 993c c1d8 c7bd 20d8 e93c
000001a0: 76ef 3ebe 49f0 c83c 8fdf 92bd ffda 38bd
000001b0: e840 4fbe 8b8d 323e 0e03 af3d b701 343e
000001c0: f748 253e cd8e a03d fc65 403e 97c3 b5bd
000001d0: 30f6 bbbc 1079 053e 5fe6 1d3e d42c a63c
000001e0: 82e4 783d 42af 8a3d 606f 0d3e 2a30 233e
000001f0: 837c 07bc 5908 153e 245b 15bb 6757 a93d
00000200: 672d 71bd 7364 e33d 8ec0 62be 7ce0 29bd
00000210: c675 09be 7740 b7bd 820a 5a3e cb9a 30be
00000220: b68f fdbd 5358 9a3d baa0 1c3e ae87 a33d
00000230: 9f0a a43d 7dbb b8bd 3b96 c4bd 420d 943d
00000240: a603 d83d 6b35 8fbd 2499 f5bd 2803 bc3d
00000250: b1e1 32be b0c2 9bbd a0ad 3ebe 5e43 10be
00000260: d078 df3d 3be3 213c 246e cc3d 902c e63d
00000270: 53e2 5b3e 4c85 51bc 0c63 293e 8489 153e
00000280: 8631 6e3d f313 183e 7bde 853d 626e 4abd
00000290: 1a05 7bbb 6e1f 8b3d 9387 1abe 94a7 e23d
000002a0: d86a 1b3e 4760 13be 0f37 b93d 3e50 36be
000002b0: ec55 093e c5b4 293e 4c1a 77bc 408b bdbd
000002c0: 903c 1f3e 04da 18be 4dae 61b9 5a66 fd3d
000002d0: cf79 5d3d 78e4 c6bd 49ca ab3c ee45 0dbe
000002e0: 2817 383d 039a 44be 61aa 953b 874b b33d
000002f0: 0e53 acbb 4447 e7bd d9e5 f0bd 7e1c 71be
00000300: 4f1b f7bd 9d5d f8bc d615 1b3e 3c06 4ebd
00000310: 2b95 82bb 1bd5 eb3c 18ab 013d 3a5d 8abd
00000320: e19e a2bd 8b86 823d 43aa 0d3e 4401 903d
00000330: be38 f13d cd70 40be cd53 6d3c f674 dd3d
00000340: 509b af3b abe4 e23d ecdf 77bd 3dff 14be
00000350: 996a c1bc 17c9 383e 95d7 34bd 9963 32bc
00000360: a5f5 143e 0d79 1dbe f261 f3bd d982 543d
00000370: cb4a 29be cac2 edbd b28f 1fbe d09b 34bd
00000380: 2218 c63d 5c2b bb3d b316 17be 2741 533d
00000390: 509c 183e 6040 6abe d712 3b3d f119 bf3d
000003a0: cf37 f53c 0498 1bbe 9701 c1bd e1e1 4bbd
000003b0: 16a6 a43b 45f5 67be 63d7 05be ef12 d23d
000003c0: d7ea 3f3d 6ce7 d73d 25a0 873d 6df2 0ebd
000003d0: d0d2 c7bd 6cbe 623d 4f04 763e 69a1 1a3e
000003e0: 72fb 3dbe dcad 3b3e 4682 fc3b f806 c2bd
000003f0: 60c3 073e 6d1c 733d 3269 cfbc 2190 ef3d

fc2.bias f4 [10]
0.0552219 0.12572393 -0.10598271 -0.009133326 0.08085793 0.12759182 0.08984266 -0.1186234
0.114451095 0.052650362
00000000: 5c30 623d c6bd 003e 770d d9bd f2a3 15bc
00000010: d898 a53d 6ea7 023e 6eff b73d d3f0 f2bd
00000020: 5665 ea3d e8a7 573d

momentum_buffer f4 [10, 1, 5, 5]
-0.016932013 0.02033243 0.022523008 0.04909872 0.051806487 0.006639112 0.012935274 0.015888166
0.03389461 0.05125502 0.0012768349 -0.0023845192 -0.0058307704 0.034954906 0.050920196 0.009575706
-0.0130899325 -0.0006732214 0.036657445 0.028513765 0.004888504 0.008771569 0.010526327 0.03177081
0.015018262 0.015603751 0.058348075 0.04703279 0.02820873 -0.0123095 0.031276423 0.060630757
0.02342873 0.0007294043 -0.0031500384 0.048339434 0.048336294 -0.0130437 -0.019166436 -0.0069966605
0.043425716 0.023348607 -0.018901633 -0.0009361942 -0.0049334783 0.008290284 -0.024346527 -0.033909887
-0.034644175 -0.021655666 0.008432996 0.012122767 0.011195974 -0.0066087353 -0.00016656215 0.01601478
0.025808832 0.016206723 0.024047686 0.0038595516 0.00077084475 0.022625854 0.018745229 0.021935549
-0.013606934 0.005061362 0.024489827 0.013086153 0.0010720277 -0.026905559 0.016719276 0.028256936
0.007149276 -0.00790211 -0.011976097 -0.022200953 0.0005529347 0.046027787 0.036528066 0.026226431
0.0034758728 0.007795514 0.046672676 0.059427593 0.05038201 -0.008333668 -0.0044561545 0.008666663
0.047111437 0.034872033 -0.008689435 -0.023664681 0.002195558 0.009842241 0.0348419 0.0032865098
-0.0023243087 0.025428072 0.0044234367 0.027381625 0.026854401 -0.0068625603 -0.036948442 -0.019715548
-0.0034525278 0.022657087 -0.02474983 -0.025169326 0.0037358315 0.015576407 0.012277228 -0.02592469
0.0024624201 0.006090788 0.013138287 -0.003786493 -0.023800392 0.013985921 0.004382391 0.008215128
-0.041463826 -0.036825575 -0.008153979 -0.013802133 -0.007134094 0.006837502 0.029227061 -0.017292721
-0.010806192 -0.0051124254 0.016076384 -0.008156152 -0.021420758 0.004183019 -0.0192417 -0.027359491
-0.026912328 -0.017224936 -0.0031631924 -0.023945186 -0.03265265 -0.036922563 -0.038781043 -0.009564185
-0.014271797 -0.061074328 -0.0719159 -0.04656813 -0.022626294 -0.016930452 0.080915645 0.048513
0.057522412 0.08056756 0.035722427 0.054722324 0.0426981 0.05012138 0.04915037 0.024451343
0.019237567 0.011656139 0.017299544 -0.009522533 -0.023361234 0.019746266 0.0075795148 0.0007306943
-0.047460966 -0.041492138 0.0006561307 -0.0011901744 -0.0098603 -0.033988256 -0.044856615 0.0059915185
-0.004308762 -0.00446922 0.006765333 0.01117005 0.0071564647 0.0012380497 0.005929584 0.015271027
0.011795286 -0.0015458327 -0.00443606 0.006224535 0.005586399 0.004979932 -0.011219181 -0.01641917
0.0019463327 0.0042164926 0.0053720176 -0.020571206 -0.02189958 0.0020847842 0.004309278 0.012911073
-0.0046592415 -0.005131094 -0.0012935684 0.0032427176 0.012842692 0.00204532 -0.0015279393 5.254266e-05
0.010499897 0.006643104 -0.0008715142 0.0020780824 0.0042967484 0.0112446 0.0006640712 0.0014887175
-0.003972169 0.00515185 0.0034260144 0.0011697495 0.0024657715 -0.0111634955 -0.0033360324 -0.0040620603
0.004824141 0.005426998 -0.01728882 -0.015336137 0.003877872 0.040183388 -0.0033657257 -0.026404832
-0.012373149 0.016168207 0.048906054 -0.012147239 -0.011391912 0.006652996 0.031243041 0.05309774
-0.0077171875 0.012068869 0.03719373 0.036457736 0.035414577 0.002589894 0.029400598 0.0567293
0.038096514 0.025174452
00000000: 01b5 8abc 3290 a63c 2c82 b83c bd1b 493d
00000010: 0a33 543d e88c d93b 79ee 533c e627 823c
00000020: 13d5 0a3d c9f0 513d 785b a73a 9845 1cbb
00000030: 0c10 bfbb e02c 0f3d b291 503d 6ce3 1c3c
00000040: 2877 56bc 207b 30ba 1e26 163d b395 e93c
00000050: be2f a03b a0b6 0f3c 9e76 2c3c 1c22 023d
00000060: 280f 763c e0a6 7f3c 64fe 6e3d 74a5 403d
00000070: ff15 e73c c9ad 49bc b51b 003d f557 783d
00000080: 9ced bf3c 7e35 3f3a e070 4ebb 92ff 453d
00000090: 47fc 453d 3eb5 55bc ee02 9dbc 3e44 e5bb
000000a0: 2adf 313d 9445 bf3c 99d7 9abc ee6a 75ba
000000b0: 04a9 a1bb f9d3 073c 5e72 c7bc 18e5 0abd
000000c0: 0de7 0dbd 3967 b1bc 8d2a 0a3c 929e 463c
000000d0: 526f 373c 178e d8bb 30a7 2eb9 6e31 833c
000000e0: 0b6d d33c f6c3 843c a7ff c43c 88f0 7c3b
000000f0: 8412 4a3a db59 b93c 988f 993c 2eb2 b33c
00000100: 9eef 5ebc c8d9 a53b e49e c83c 4e67 563c
00000110: 4883 8c3a 0c69 dcbc ddf6 883c 177b e73c
00000120: 7944 ea3b da77 01bc 6437 44bc c6de b5bc
00000130: d2f2 103a a287 3c3d 749e 153d d0d8 d63c
00000140: 78cb 633b 8371 ff3b d92b 3f3d 596a 733d
00000150: 5e5d 4e3d f089 08bc ef04 92bb 9ffe 0d3c
00000160: ecf7 403d fad5 0e3d 225e 0ebc 6fdc c1bc
00000170: 5ae3 0f3b 5a41 213c 61b6 0e3d 7c62 573b
00000180: 6e53 18bb 884e d03c 7af2 903b 6e4f e03c
00000190: c3fd db3c 54df e0bb 4057 17bd 8082 a1bc
000001a0: ce43 62bb 5b9b b93c 28c0 cabc e72f cebc
000001b0: dad4 743b 3034 7f3c 6d26 493c 0460 d4bc
000001c0: 8e60 213b 3c95 c73b f841 573c d026 78bb
000001d0: 0af9 c2bc 3425 653c 299a 8f3b bf98 063c
000001e0: f9d5 29bd 6ad6 16bd 4498 05bc 5722 62bc
000001f0: 1ec5 e9bb 200d e03b 976d ef3c 77a9 8dbc
00000200: 740c 31bc 2286 a7bb 9fb2 833c 62a1 05bc
00000210: 967a afbc b511 893b c5a0 9dbc 0321 e0bc
00000220: 3e77 dcbc 4f1b 8dbc 904d 4fbb b228 c4bc
00000230: c9be 05bd 1d3c 17bd dfd8 1ebd 19b3 1cbc
00000240: 41d4 69bc 1329 7abd a548 93bd 39be 3ebd
00000250: c75a b9bc bbb1 8abc 1ab7 a53d 91b5 463d
00000260: 9f9c 6b3d 9b00 a53d ae51 123d 8424 603d
00000270: 34e4 2e3d 134c 4d3d e651 493d 2f4e c83c
00000280: 1a98 9d3c 64f9 3e3c c6b7 8d3c 6604 1cbc
00000290: 0f60 bfbc ecc2 a13c 945d f83b 108c 3f3a
000002a0: 6e66 42bd a9f3 29bd 3000 2c3a a0ff 9bba
000002b0: 198d 21bc 4537 0bbd 92bb 37bd 8054 c43b
000002c0: 8430 8dbb 8972 92bb baaf dd3b 9602 373c
000002d0: c780 ea3b 0e46 a23a f54c c23b 5433 7a3c
000002e0: 0441 413c 8a9d caba 5e5c 91bb 2ff7 cb3b
000002f0: 1d0e b73b b32e a33b a8d0 37bc 7f81 86bc
00000300: 171c ff3a 812a 8a3b c007 b03b f284 a8bc
00000310: bf66 b3bc e0a0 083b d834 8d3b f788 533c
00000320: 8dac 98bb bc22 a8bb f48c a9ba c683 543b
00000330: 286a 523c c70a 063b 2345 c8ba 4061 5c38
00000340: c307 2c3c 65ae d93b 5476 64ba 7030 083b
00000350: bdcb 8c3b 453b 383c 1015 2e3a 1221 c33a
00000360: f828 82bb dad0 a83b fc86 603b 4852 993a
00000370: c898 213b 18e7 36bc 56a1 5abb 081b 85bb
00000380: d413 9e3b f5d4 b13b 49a1 8dbc 6c44 7bbc
00000390: e523 7e3b 5697 243d 8293 5cbb f24e d8bc
000003a0: c0b8 4abc 3073 843c b751 483d 3705 47bc
000003b0: 24a5 3abc 6001 da3b 68f1 ff3c 047d 593d
000003c0: 76e0 fcbb 81bc 453c 7458 183d b554 153d
000003d0: e00e 113d 36bb 293b 86d9 f03c fc5c 683d
000003e0: 170b 1c3d a73a ce3c

momentum_buffer f4 [10]
0.0050303424 -0.017065525 -0.017107088 0.0024333782 -0.014273321 -0.035826508 -0.021610308 -0.010938311
0.003419095 0.0032954826
00000000: 92d5 a43b 00cd 8bbc 2a24 8cbc 5079 1f3b
00000010: a6da 69bc d1be 12bd 1a08 b1bc 9a36 33bc
00000020: e512 603b 06f9 573b

momentum_buffer f4 [20, 10, 5, 5]
0.05203666 0.06465571 0.090737164 0.08381317 0.069980085 0.022416284 0.052719038 0.070102856
0.064885475 0.0606787 -0.008180132 0.017911993 0.05274123 0.052202135 0.0522857 0.010900191
0.0037585902 -0.006557469 0.03739906 0.033544637 0.07278099 0.069887295 0.0732273 0.08057047
0.07548336 0.011538006 0.06136258 0.11333046 0.118447654 0.14654022 -0.0039059008 0.06780714
0.08200177 0.07953521 0.13454652 0.011055168 0.07264863 0.071483515 0.07876261 0.135606
0.043549757 0.095141575 0.06235432 0.07582455 0.11426727 0.048889294 0.10049962 0.054706916
0.09968637 0.10779559 -0.0013113022 0.028568868 0.036130995 0.04216788 0.054381743 0.010215662
0.023554442 0.03813317 0.057045385 0.058938608 0.03851097 0.043390885 0.039661743 0.037203215
0.059530042 0.035260662 0.06384509 0.072929464 0.058373295 0.07046581 0.012336596 0.050921522
0.05260363 0.059153162 0.07057091 0.029393347 0.059532028 0.07517186 0.111468084 0.11233556
-0.003749582 0.027974641 0.051947735 0.08026476 0.07328009 0.018090444 0.007167377 0.021140855
0.07733035 0.048628233 0.05862411 0.044497304 0.011135569 0.042021953 0.046792444 0.061818074
0.09831985 0.10219725 0.10832095 0.09199052 0.0055850856 0.00017958414 0.034701437 0.04709701
0.055096462 0.002237589 -0.002870934 0.046785235 0.047132827 0.045449458 0.0012180097 0.0045786006
0.062050637 0.03270697 0.03915801 2.9636081e-05 0.024673006 0.07412308 0.02653563 0.038592033
-0.010673798 0.02932067 0.06366867 0.022415351 0.058190204 -0.013093633 0.015709952 0.0664877
0.12563635 0.12821671 -0.009361071 -0.01919928 0.084189154 0.10113189 0.09479104 0.014318321
0.008092226 0.08354299 0.062330913 0.070153445 0.015854524 0.063042775 0.10937279 0.042351313
0.101519465 -0.0026748488 0.09133831 0.15157424 0.08610552 0.12145981 0.059999768 0.1069146
0.12614968 0.13391562 0.16756582 0.02930633 0.084895134 0.09475012 0.121885166 0.13593666
0.019864209 0.054084145 0.045215093 0.11701963 0.11338231 0.07136127 0.059822235 0.010904734
0.089317024 0.08422771 0.09288758 0.09458794 0.052875187 0.08606981 0.06635799 0.01373066
2.3021494e-06 0.0011163934 0.005154988 -0.005991289 0.015452792 0.001042717 0.0008272752 0.0055522905
-0.0013392015 0.008279497 0.0033155102 0.0056032483 -0.0056193722 0.0034559416 -0.0013838112 0.0018637803
0.011001894 -0.0044210814 -0.0012794763 0.0033627765 -0.0076434943 0.0071843565 0.0066588144 0.0048824623
0.010894756 0.004981674 -0.0045289136 -0.0018090431 -0.0022400129 0.016718293 0.0021505887 -0.0042843656
-0.0013501685 -0.0035276734 0.016599253 0.007835096 0.0055844705 -0.008278985 -0.0019225824 0.0032813195
0.0033678724 0.005914845 -0.0011311325 0.0018847845 0.005976366 2.3623696e-05 0.0003375539 0.0017883326
-0.00057572965 -0.0018045576 0.0011617048 0.0031906415 -0.0011651911 -0.0057195984 0.011062889 0.013057004
0.0111367125 0.0033604838 0.008329215 0.015815433 0.020804232 0.007900906 0.0008529625 0.00349676
0.012908393 0.016598698 0.019762283 0.021217728 0.009801472 0.0026388452 0.002952387 0.011564807
0.012719148 0.009679957 0.0008377824 -0.018904021 -0.040392585 -0.03703755 -0.027491093 0.01653462
00000000: 6524 553d 366a 843d 68d4 b93d 3da6 ab3d
00000010: b851 8f3d 5ba2 b73c ebef 573d 1692 8f3d
00000020: ade2 843d 3b8a 783d f605 06bc 2cbc 923c
00000030: 3007 583d e8d1 553d 8829 563d b796 323c
00000040: ae52 763b 09e0 d6bb c22f 193d 1a66 093d
00000050: 330e 953d 1221 8f3d 32f8 953d 2102 a53d
00000060: 0597 9a3d e809 3d3c 5457 7b3d cd19 e83d
00000070: af94 f23d a40e 163e 24fa 7fbb 78de 8a3d
00000080: 8bf0 a73d 5be3 a23d 90c6 093e bc20 353c
00000090: cec8 943d f365 923d 4b4e a13d 4ddc 0a3e
000000a0: 3b61 323d 96d9 c23d 3e67 7f3d e749 9b3d
000000b0: f504 ea3d 2440 483d bfd2 cd3d 5c14 603d
000000c0: 5e28 cc3d efc3 dc3d 00e0 abba 4209 ea3c
000000d0: 18fe 133d 3ab8 2c3d 64bf 5e3d 985f 273c
000000e0: 3ff5 c03c 8731 1c3d 6ca8 693d 9c69 713d
000000f0: aebd 1d3d a4ba 313d 5a74 223d 6662 183d
00000100: c6d5 733d 7c6d 103d 37c1 823d 0b5c 953d
00000110: d618 6f3d 6150 903d 6f1f 4a3c 1693 503d
00000120: e776 573d 964a 723d 7b87 903d 51ca f03c
00000130: dbd7 733d b4f3 993d 6149 e43d 3010 e63d
00000140: 8cbb 75bb 132b e53c 26c7 543d da61 a43d
00000150: df13 963d 6932 943c 51dc ea3b 962f ad3c
00000160: 605f 9e3d 662e 473d d61f 703d ce42 363d
00000170: f671 363c 361f 2c3d 6fa9 3f3d f334 7d3d
00000180: eb5b c93d cb4c d13d 60d7 dd3d 8765 bc3d
00000190: 1803 b73b c04e 3c39 1823 0e3d cbe8 403d
000001a0: d4ac 613d 84a4 123b 4826 3cbb e0a1 3f3d
000001b0: 5a0e 413d 3629 3a3d a0a5 9f3a 1608 963b
000001c0: cf28 7e3d bef7 053d 2664 203d 009b f837
000001d0: 0b1f ca3c d7cd 973d 4061 d93c ae12 1e3d
000001e0: 27e1 2ebc e731 f03c b864 823d 66a0 b73c
000001f0: da58 6e3d ad86 56bc 28b2 803c b42a 883d
00000200: d1a6 003e 3e4b 033e 2d5f 19bc cf47 9dbc
00000210: 5d6b ac3d 3d1e cf3d ce21 c23d 6497 6a3c
00000220: 4295 043c 9618 ab3d b34e 7f3d 9cac 8f3d
00000230: 59e1 813c 921c 813d d7fe df3d 9278 2d3d
00000240: 70e9 cf3d 844c 2fbb 940f bb3d 4736 1b3e
00000250: 1758 b03d ecbf f83d 51c2 753d 0bf6 da3d
00000260: 622d 013e 2d21 093e 6096 2b3e d413 f03c
00000270: 80dd ad3d 5a0c c23d ee9e f93d fb32 0b3e
00000280: 44ba a23c 5687 5d3d 7633 393d fda7 ef3d
00000290: fc34 e83d dc25 923d 2908 753d c5a9 323c
000002a0: d8eb b63d 947f ac3d d83b be3d 52b7 c13d
000002b0: a793 583d 5e45 b03d b3e6 873d 90f6 603c
000002c0: a07e 1a36 f253 923a 2ceb a83b 9352 c4bb
000002d0: b52d 7d3c c7ab 883a 80dd 583a fdef b53b
000002e0: 2588 afba baa6 073c 0849 593b 749b b73b
000002f0: b622 b8bb 147d 623b 0061 b5ba 174a f43a
00000300: 4a41 343c b8de 90bb 1ab4 a7ba 0762 5c3b
00000310: 4776 fabb c06a eb3b 2f32 da3b 10fd 9f3b
00000320: eb7f 323c 4f3d a33b 4867 94bb 6a1d edba
00000330: 2ecd 12bb cdf4 883c e4f0 0c3b dd63 8cbb
00000340: 23f8 b0ba 8a30 67bb 28fb 873c c65e 003c
00000350: effd b63b 94a4 07bc 29ff fbba 680b 573b
00000360: 86b7 5c3b 51d1 c13b 8242 94ba e00a f73a
00000370: 64d5 c33b 802b c637 b8f9 b039 7c66 ea3a
00000380: 90ec 16ba e886 ecba 5844 983a 151a 513b
00000390: 53b9 98ba 786b bbbb 1f41 353c 0bed 553c
000003a0: c276 363c 903b 5c3b 4377 083c 5e8f 813c
000003b0: a36d aa3c cd72 013c 5899 5f3a e629 653b
000003c0: b97d 533c fef9 873c 83e4 a13c cdd0 ad3c
000003d0: 5a96 203c 7af0 2c3b d67c 413b 517a 3d3c
000003e0: f963 503c af98 1e3c a09e 5b3a 9bdc 9abc
000003f0: b272 25bd b0b4 17bd 0035 e1bc 9d73 873c

momentum_buffer f4 [20]
0.022655964 -0.007304755 -0.01131515 -0.0060883854 -0.005728062 0.026652269 -0.0022627488 0.011652461
0.005334859 -0.01741615 -0.0025743332 0.026240353 0.010392736 0.01291297 0.0074430364 0.026431132
-0.0033009627 -0.01695718 0.0010826362 0.00017940189
00000000: 0099 b93c ba5c efbb 2e63 39bc 1481 c7bb
00000010: 77b2 bbbb dc55 da3c a04a 14bb f7e9 3e3c
00000020: 0ad0 ae3b 50ac 8ebc 25b6 28bb 02f6 d63c
00000030: 4b46 2a3c ec90 533c b7e4 f33b 1a86 d83c
00000040: f754 58bb c9e9 8abc 3ee7 8d3a d41d 3c39

momentum_buffer f4 [50, 320]
-0.002611808 -0.005112568 -0.021254769 -0.018240565 0.0077602547 0.035924915 0.045688618 0.034745228
-0.03530355 -0.043428022 -0.044875264 -0.057438646 0.0050869416 -0.021835504 -0.017863197 -0.013313655
-0.034826238 -0.025799796 -0.048290092 -0.07909982 0.0010436045 -0.014679305 -0.009451286 -0.034882866
-0.032583855 -0.024982227 -0.0030554428 -0.0007334874 -0.032766327 -0.017109513 0.0044868076 -0.0006005926
0.0032859682 -0.021073055 -0.026402716 -0.011376756 -0.006893518 -0.020858124 -0.036748957 -0.044105552
-0.01870491 -0.022873564 -0.013709946 -0.0046325894 -0.034427892 -0.0534466 -0.03849157 -0.015169602
-0.0011576877 -0.0033580381 -0.0058944235 -0.0061724717 -0.023400458 -0.026820645 -0.0024533323 -0.0047344095
-0.038278107 -0.010820475 0.0012265809 -0.0078092664 -0.041017074 -0.0029652263 0.0013492212 -0.00057316746
0.007328796 -0.004947269 -0.014732333 0.0062183607 -0.006722822 -1.2677629e-05 0.027414083 0.03255119
-0.016972633 0.012636468 0.023241784 -0.043486767 -0.0011606179 0.03640665 0.004526202 -0.005919519
-0.00080808485 -8.550426e-05 -0.0020079014 -0.0011400984 0.005434988 -0.0055647474 -0.013231315 -0.0030230512
0.007257616 -0.003390438 -0.011153858 -0.012880303 0.0033522884 -0.004546329 -0.0053203376 -0.0067573283
-0.0012398426 0.0002743135 -0.00045756088 0.0038910736 -0.00168223 -0.015807372 -0.029235968 -0.022782128
0.0011739503 5.677734e-05 -0.0015190528 -0.006762285 -0.029084206 -0.023188317 -0.020005737 -0.01738563
-0.020322887 -0.047720905 -0.03705795 -0.026728474 -0.014713234 -0.018106047 -0.021031585 -0.010596428
-0.002934788 -0.029311882 -0.021435441 -0.024003357 -0.010026321 -0.04614833 -0.03420988 -0.01870362
0.00090458663 0.07935751 0.08490862 0.03953986 0.073889665 0.09985824 0.057285346 0.029854141
0.060848515 0.0014531387 0.04701463 0.076787315 0.00061080384 0.020337112 0.08469114 0.0437596
6.132231e-05 0.018269766 0.04739586 0.040440883 -0.0077050044 -0.022272574 -0.012042969 0.021068174
0.053143848 0.002653688 -0.029833982 -0.035690863 0.012675546 -0.025056176 -0.018866524 -0.019641854
-0.0021925191 -0.0031936232 -0.002003085 0.00013683835 -0.0030607295 -0.04813834 -0.04367447 -0.0154642705
-0.0027699831 -0.030146984 -0.026632026 -0.007947402 -0.017834008 -0.017402994 -0.018846137 -0.046332292
0.0073918775 0.021459848 0.032632846 0.012739734 0.0020660188 -0.014370981 -0.006919142 -0.00390657
0.005293781 0.01326279 -0.012134912 -0.015167943 -0.024749842 -0.044497818 -0.017397337 -0.005087866
-0.0008518191 0.0120072495 -0.009330814 -0.019929023 0.002424093 0.030663762 -0.0018846015 -0.0005274904
0.010716964 0.004446527 0.008792916 0.042784873 0.001186501 -0.005210483 0.05273914 0.038270086
-0.025657093 0.00032807793 -0.0008364428 -0.002905101 0.0003538896 -0.0029897774 -0.013501693 -0.017838761
0.0027397505 -0.0019576875 -0.02044388 -0.029200861 0.0013242357 -0.013881782 -0.0039028116 -0.00012167942
0.04696574 0.04707035 0.051491983 0.073226966 0.032914218 -0.00108908 -0.002897318 -0.007759916
-0.0033241746 0.043877598 0.02360505 -0.006552896 0.0077192527 0.032180212 -0.0012569076 0.0002955732
-0.0011601492 -0.00076555973 -0.002623491 -0.0012340951 -0.028019348 -0.05329039 -0.04831635 -0.017935932
-0.0002627712 -0.0029539282 -0.008066064 -0.000675884 -0.038007114 -0.041479517 -0.03753176 -0.021268178
00000000: de2a 2bbb 5487 a7bb 7b1e aebc 3d6d 95bc
00000010: bc49 fe3b 0126 133d fd23 3b3d 0351 0e3d
00000020: 759a 10bd 95e1 31bd 20cf 37bd c944 6bbd
00000030: 5cb0 a63b 5fe0 b2bc d755 92bc 8421 5abc
00000040: f5a5 0ebd 185a d3bc d5cb 45bd 16ff a1bd
00000050: 8ec9 883a 7881 70bc 91d9 1abc 56e1 0ebd
00000060: a676 05bd 87a7 ccbc d33d 48bb 8247 40ba
00000070: fc35 06bd 4029 8cbc 1206 933b 1671 1dba
00000080: 6659 573b 66a1 acbc 824a d8bc 9365 3abc
00000090: 05e3 e1bb a8de aabc 1386 16bd 06a8 34bd
000000a0: 0a3b 99bc 5761 bbbc ae9f 60bc facc 97bb
000000b0: 4304 0dbd d2ea 5abd 56a9 1dbd ec89 78bc
000000c0: 8ebd 97ba 8812 5cbb 0226 c1bb 7242 cabb
000000d0: 51b2 bfbc f8b6 dbbc 16c8 20bb 1b23 9bbb
000000e0: 81c9 1cbd 5d48 31bc 3ac5 a03a e0e4 ffbb
000000f0: 8501 28bd 3e54 42bb 5ad8 b03a 9e40 16ba
00000100: 6626 f03b b31c a2bb e25f 71bc 64c3 cb3b
00000110: 1e4b dcbb 00b2 54b7 8093 e03c 6654 053d
00000120: 310a 8bbc 3009 4f3c 8e65 be3c 2e1f 32bd
00000130: e01f 98ba 241f 153d 8950 943b 86f8 c1bb
00000140: a8d5 53ba c050 b3b8 ff96 03bb 5b6f 95ba
00000150: fc17 b23b 7c58 b6bb 28c8 58bc 621e 46bb
00000160: 4cd1 ed3b 1c32 5ebb acbe 36bc e807 53bc
00000170: 11b2 5b3b 5ff9 94bb 3a56 aebb 946c ddbb
00000180: 3782 a2ba bcd1 8f39 c8e4 efb9 6201 7f3b
00000190: 467e dcba 767e 81bc 4580 efbc 96a1 babc
000001a0: 3cdf 993a 3424 6e38 f41a c7ba 2896 ddbb
000001b0: 0042 eebc 6df5 bdbc 12e3 a3bc 4f6c 8ebc
000001c0: 2f7c a6bc ff76 43bd 14ca 17bd acf5 dabc
000001d0: c70f 71bc 2253 94bc 6e4a acbc a49c 2dbc
000001e0: 9255 40bb 791f f0bc 6199 afbc b0a2 c4bc
000001f0: 7045 24bc 0806 3dbd a91f 0cbd 5638 99bc
00000200: c821 6d3a 3186 a23d 92e4 ad3d 8cf4 213d
00000210: 7753 973d 7a82 cc3d 0aa4 6a3d ac90 f43c
00000220: 4b3c 793d 3e77 be3a 6a92 403d ab42 9d3d
00000230: 5a1e 203a 049a a63c 8c72 ad3d 443d 333d
00000240: 2a9a 8038 7aaa 953c 2922 423d 57a5 253d
00000250: 437a fcbb f974 b6bc e04f 45bc 2a97 ac3c
00000260: 5dad 593d 7fe9 2d3b 6566 f4bc 9530 12bd
00000270: 18ad 4f3c 9c42 cdbc f88d 9abc f4e7 a0bc
00000280: 5eb0 0fbb 1b4c 51bb 3146 03bb 447c 0f39
00000290: 8596 48bb b52c 45bd 00e4 32bd da5d 7dbc
000002a0: 9b88 35bb cff6 f6bc 682b dabc d235 02bc
000002b0: a018 92bc b990 8ebc 3763 9abc eec6 3dbd
000002c0: 9037 f23b 90cc af3c 05aa 053d 51ba 503c
000002d0: 0b66 073b 4374 6bbc f8b9 e2bb af02 80bb
000002e0: 7477 ad3b 2c4c 593c 83d1 46bc f782 78bc
000002f0: 2ec0 cabc 5843 36bd dc84 8ebc 1db8 a6bb
00000300: 9d4c 5fba 0eba 443c 45e0 18bc 3142 a3bc
00000310: 88dd 1e3b 9232 fb3c bc04 f7ba 4847 0aba
00000320: 3496 2f3c 2cb4 913b 2a10 103c 313f 2f3d
00000330: 5e84 9b3a b3bc aabb ff04 583d 18c1 1c3d
00000340: d32e d2bc e001 ac39 ba44 5bba 8263 3ebb
00000350: 428a b939 24f0 43bb 3436 5dbc 9822 92bc
00000360: 638d 333b 8c4c 00bb ed79 a7bc a536 efbc
00000370: fa91 ad3a 6a70 63bc 50c6 7fbb 242e ffb8
00000380: 265f 403d d7cc 403d 42e9 523d 05f8 953d
00000390: 0fd1 063d 76bf 8eba eee0 3dbb e546 febb
000003a0: 65da 59bb ffb8 333d 615f c13c adb9 d6bb
000003b0: c9f1 fc3b 66cf 033d d2be a4ba 2af7 9a39
000003c0: 2610 98ba d8af 48ba e0ee 2bbb 5cc1 a1ba
000003d0: d588 e5bc 0647 5abd 5de7 45bd 60ee 92bc
000003e0: 8ec4 89b9 b196 41bb 8627 04bc cf2d 31ba
000003f0: 59ad 1bbd 6de6 29bd e7ba 19bd 9a3a aebc

momentum_buffer f4 [50]
0.00018111616 0.002179752 0.0042887228 -0.0040928987 0.004223327 0.016951442 0.003814119 -0.0068752524
0.021771275 0.0008190556 0.0042368593 -0.003314068 0.010742697 -0.019783964 0.020425076 0.00022693693
0.0086985575 -0.00090890843 0.010749571 -0.0077371476 -0.0014896255 -0.0049604853 0.00015276484 -0.0036521042
0.00014483804 0.001626381 -0.0074718343 -0.0007711253 0.011796304 -0.004059556 0.006418635 -0.0056699356
0.0027500403 0.019882202 -0.0017572192 0.0050610546 -0.0004127564 0.022548687 -0.0053673256 -0.0019329018
-0.010192566 -0.005767778 0.0014513447 -0.0038777997 -0.0028397855 -0.010528212 -0.009387197 -0.0038638827
0.0015212827 -0.009381901
00000000: 00ea 3d39 2cda 0e3b 6a88 8c3b b91d 86bb
00000010: d663 8a3b c0dd 8a3c 4cf6 793b cc49 e1bb
00000020: ac59 b23c e4b5 563a 5ad5 8a3b d630 59bb
00000030: 2302 303c fb11 a2bc 7d52 a73c ebf5 6d39
00000040: 6584 0e3c d043 6eba f81e 303c e687 fdbb
00000050: 8a3f c3ba 918b a2bb 802f 2039 2458 6fbb
00000060: aadf 1739 4a2c d53a 4ad6 f4bb 5825 4aba
00000070: 4945 413c 0606 85bb 6a53 d23b deca b9bb
00000080: 053a 343b 00e0 a23c 7e52 e6ba 34d7 a53b
00000090: 3a67 d8b9 06b8 b83c 64e0 afbb 6c59 fdba
000000a0: b8fe 26bc a1ff bcbb 0c3b be3a af22 7ebb
000000b0: b21b 3abb 867e 2cbc c2cc 19bc 3239 7dbb
000000c0: c765 c73a 8bb6 19bc
