assignment_2/mnist_mnist/model/mnist_cnn.pt (torch, 179918 bytes, 16 tensors)

conv1.weight f4 [10, 1, 5, 5]
0.36756784 0.009049566 -0.22616461 -0.19244282 -0.327231 0.027818587 0.29145774 0.10562069
-0.2242074 -0.118257955 0.30016366 0.3347539 0.09948449 -0.2222141 0.008931682 0.06740621
0.06300713 -0.066547446 -0.046022 -0.11905361 0.16829579 0.14942001 0.017307116 -0.084968284
-0.22002333 -0.117498584 -0.16744077 -0.045181733 -0.2573053 -0.08729629 0.29770595 0.120261826
0.2755241 0.38305283 0.394957 0.062635824 0.32038072 0.17327732 0.3188569 0.044005632
0.043655213 -0.19231442 -0.14027894 -0.08423501 -0.31434166 -0.06397268 -0.2138083 -0.048364557
-0.4008771 -0.17314275 0.20214112 0.11678651 0.06912427 0.163291 0.311774 0.093513906
0.12566492 0.015322377 0.14038125 0.28859705 -0.2955187 -0.12710832 -0.22329938 -0.18794009
0.12046447 -0.21826333 -0.03209067 -0.020257477 -0.07267525 0.001025958 -0.05668249 -0.14878832
-0.11304349 0.08103609 0.018662771 0.2462131 0.33892065 0.13269116 0.23467246 0.014461887
0.25807157 0.14299904 0.17895532 0.0044597792 -0.02095232 0.083020724 0.2922562 0.086952396
-0.17019096 -0.17792915 0.1908225 0.19276175 -0.23248056 -0.15859006 -0.089245565 0.26411104
-0.14085126 -0.13494575 -0.23408325 -0.28153476 -0.1156725 0.3282987 0.14503509 -0.029353669
0.12884517 0.051883377 0.35296014 0.41304275 0.28204945 0.19845685 -0.37238306 -0.04433885
0.10021578 0.13900633 -0.031109616 -0.4365307 -0.37723792 -0.41354632 -0.23265857 -0.33660492
0.14958005 -0.23536424 -0.14823589 -0.28675947 -0.032817405 0.2010448 0.116828375 -0.10954127
0.03415174 0.1151202 -0.18000971 0.19038028 0.2872988 0.03961384 0.22548701 -0.045578316
0.17745504 0.19547164 0.1851292 0.023329334 0.11201735 0.24760357 0.11606261 -0.1416288
0.23560612 0.11993091 -0.0050687543 -0.035890613 0.08935392 -0.12811013 0.31386077 0.22224855
0.06719277 0.08403935 -0.29167396 0.17413868 0.121545896 -0.19490385 -0.16940069 -0.22111769
-0.14017795 -0.21520105 -0.03935136 -0.28014174 -0.27274793 -0.24968989 -0.23783882 -0.12011807
-0.14749235 0.16991429 -0.2382662 -0.059954215 -0.16079664 -0.19515735 -0.15126117 -0.21166305
-0.26119295 -0.27962753 0.027379502 0.21879596 -0.240766 -0.2826725 -0.2759651 0.13676564
0.17445022 -0.3414495 -0.14499572 -0.0029380447 0.3406482 0.29504135 -0.3763136 -0.18035853
0.19492313 0.2245364 0.29659027 -0.31178606 0.030398615 0.26623192 0.19609089 0.015581886
0.035365436 0.17500536 0.04916819 0.22622047 0.21494655 0.026172388 0.28801388 0.45957357
0.31173828 -0.20720442 0.16341884 0.06542592 0.11329687 0.11708155 -0.2003478 0.042730764
-0.18514389 0.18560179 -0.00024757654 0.11927201 -0.33747637 -0.15057461 0.006663425 0.21327388
0.42851081 0.2280439 0.53863627 0.47463036 0.24330774 0.16217728 0.088161245 0.1211787
0.074599594 0.16250373 0.3053151 -0.3358197 -0.21296592 -0.057512395 0.17125636 0.1418969
-0.22543377 -0.19266121 -0.1446684 -0.20971157 -0.105291665 -0.27285963 -0.20677274 -0.32349283
-0.08134203 -0.060864802
00000000: da31 bc3e a244 143c b297 67be bb0f 45be
00000010: d28a a7be cee3 e33c f339 953e a94f d83d
00000020: a096 65be 3a31 f2bd 0daf 993e dd64 ab3e
00000030: 86be cb3d 188c 63be 3156 123c 440c 8a3d
00000040: e209 813d 074a 88bd 9181 3cbd 61d2 f3bd
00000050: bb55 2c3e 8f01 193e a7c7 8d3c da03 aebd
00000060: cc4d 61be 19a3 f0bd 9875 2bbe 7b10 39bd
00000070: 85bd 83be 66c8 b2bd ea6c 983e d54b f63d
00000080: 7f11 8d3e 801f c43e ce37 ca3e 3647 803d
00000090: f108 a43e 9c6f 313e 3641 a33e 403f 343d
000000a0: cfcf 323d 12ee 44be 48a5 0fbe 6883 acbd
000000b0: 64f1 a0be 1c04 83bd 90f0 5abe ea19 46bd
000000c0: c33f cdbe 554c 31be 15fe 4e3e c42d ef3d
000000d0: 0691 8d3d c235 273e d7a0 9f3e 3884 bf3d
000000e0: 4eae 003e b50a 7b3c 1ac0 0f3e fec2 933e
000000f0: 3a4e 97be af28 02be 98a8 64be 5e73 40be
00000100: 13b6 f63d 6c80 5fbe 8271 03bd 02f3 a5bc
00000110: c3d6 94bd 7079 863a e62b 68bd f75b 18be
00000120: 5883 e7bd 40f6 a53d abe2 983c 491f 7c3e
00000130: 0287 ad3e 31e0 073e fa4d 703e 8df1 6c3c
00000140: f521 843e 576e 123e 1040 373e 5723 923b
00000150: 33a4 abbc c506 aa3d 9ba2 953e 1914 b23d
00000160: 8a46 2ebe 0f33 36be f966 433e 5663 453e
00000170: 620f 6ebe 6f65 22be 61c6 b6bd 9039 873e
00000180: 503b 10be 382f 0abe 85b3 6fbe 5325 90be
00000190: b4e5 ecbd c416 a83e 1484 143e 1b77 f0bc
000001a0: fdef 033e aa83 543d 31b7 b43e 577a d33e
000001b0: c968 903e 4638 4b3e fea8 bebe a79c 35bd
000001c0: ee3d cd3d ad57 0e3e 98d9 febc f480 dfbe
000001d0: 5425 c1be 58bc d3be 0c3e 6ebe 7b57 acbe
000001e0: 832b 193e 5303 71be 26cb 17be 23d2 92be
000001f0: 8b6b 06bd b0de 4d3e b743 ef3d 2c57 e0bd
00000200: b2e2 0b3d 24c4 eb3d 7754 38be 0cf3 423e
00000210: d418 933e 1f42 223d 11e6 663e 54b0 3abd
00000220: c6b6 353e b829 483e 8292 3d3e 291d bf3c
00000230: 5a69 e53d ca8b 7d3e 3cb2 ed3d 2407 11be
00000240: bb42 713e 569e f53d cb17 a6bb 0902 13bd
00000250: 30ff b63d 4d2f 03be 5cb2 a03e 2095 633e
00000260: 5d9c 893d d31c ac3d 4a56 95be 6951 323e
00000270: 0eed f83d e094 47be 6077 2dbe ad6c 62be
00000280: cf8a 0fbe aa5d 5cbe e42e 21bd bd6e 8fbe
00000290: 9ea5 8bbe b5ae 7fbe 058c 73be 7600 f6bd
000002a0: 3c08 17be 03fe 2d3e 0efc 73be 8d92 75bd
000002b0: e0a7 24be 54d7 47be 35e4 1abe 33be 58be
000002c0: 15bb 85be 572b 8fbe fa4a e03c 0c0c 603e
000002d0: 5d8b 76be 73ba 90be 4c4b 8dbe 4b0c 0c3e
000002e0: 14a3 323e 78d2 aebe c279 14be 368c 40bb
000002f0: 7169 ae3e a90f 973e 2dac c0be e8af 38be
00000300: ee99 473e dfec 653e aeda 973e 6ca2 9fbe
00000310: 8406 f93c 8d4f 883e 0dcc 483e 2b4b 7f3c
00000320: 59db 103d 9b34 333e 9664 493d 57a6 673e
00000330: f31a 5c3e 7a67 d63c 8e76 933e 3a4d eb3e
00000340: 299c 9f3e 652d 54be 4557 273e 06fe 853d
00000350: 3008 e83d 74c8 ef3d f927 4dbe 7406 2f3d
00000360: 5c96 3dbe 650e 3e3e 29cd 81b9 e244 f43d
00000370: b4c9 acbe 3b30 1abe dc58 da3b 7864 5a3e
00000380: c565 db3e 5784 693e 11e4 093f c002 f33e
00000390: aa25 793e cd11 263e e28d b43d 8a2c f83d
000003a0: acc7 983d 6167 263e 4352 9c3e 8ff0 abbe
000003b0: bd13 5abe 1e92 6bbd d45d 2f3e 6c4d 113e
000003c0: 1cd8 66be fb48 45be f423 14be a1be 56be
000003d0: 28a3 d7bd 42b4 8bbe 3cbc 53be daa0 a5be
000003e0: a696 a6bd 5f4d 79bd

conv1.bias f4 [10]
0.04871026 0.01913223 -0.07633435 -0.2171016 -0.15437478 0.28817874 0.06671991 -0.029248295
0.10772646 0.15612501
00000000: 6984 473d 32bb 9c3c 2f55 9cbd e24f 5ebe
00000010: 6c14 1ebe 2a8c 933e 73a4 883d 1f9a efbc
00000020: b19f dc3d 3cdf 1f3e

conv2.weight f4 [20, 10, 5, 5]
-0.067844376 -0.051989082 -0.08285279 0.0030996648 0.05060852 -0.054782175 0.05776962 0.05424679
-0.061972942 0.0056231692 0.0094414875 0.09287717 0.080926836 0.07387639 0.09422899 -0.03595588
0.10163474 0.05385433 -0.029918395 -0.020515725 -0.031691514 0.0062019955 0.031222004 -0.051169243
0.04639572 -0.004385092 -0.0024120382 -0.039004244 -0.10112109 -0.06927163 0.10592546 -0.025335899
-0.045241214 -0.040116493 -0.10545499 -0.022169692 -0.035492297 0.06996858 0.054234516 0.0031536506
-0.033256054 -0.045460097 -0.028980035 -0.030905161 -0.015461732 -0.04264447 -0.04068374 -0.041188776
-0.025123386 0.111694485 -0.07418076 0.0040874914 0.007679398 -0.019917436 -0.06107775 0.008830301
0.039632 -0.022900807 -0.099639796 -0.106845856 0.10230213 0.08216418 0.026999308 0.0406252
-0.008733228 -0.015082265 0.007835452 -0.06625088 0.073772326 0.057348188 -0.007203967 -0.035708614
-0.013055948 0.08312789 0.07158447 -0.038475093 -0.08302986 -0.13113217 -0.026196048 0.09800937
0.0066223787 -0.07948783 -0.07189693 -0.051942844 0.02806274 -0.072693065 0.070460446 0.091577426
-0.012895296 0.046110857 0.006917465 0.06142849 0.065877095 0.07539319 0.00530687 -0.010401793
0.06601319 0.036283966 0.034413252 -0.023894291 0.040152416 0.041516792 0.084337994 -0.05607538
-0.038168788 -0.00237207 0.023309499 0.031360988 -0.11961318 -0.04094665 0.040907513 0.0146397315
-0.07388288 -0.052245 0.013768342 -0.09775875 -0.11563131 -0.10089907 -0.10979407 -0.011106169
-0.12916327 -0.04975563 -0.090428434 0.024489705 0.019217048 -0.06960532 -0.06887745 -0.045423068
-0.037663687 0.048418853 0.011433552 -0.010986923 -0.0064216657 -0.06739306 -0.08251422 0.114038065
0.045058522 0.044238605 0.10772995 -0.0017054286 -0.04439774 0.09656732 0.09688537 -0.003229136
-0.019407496 -0.08097627 -0.024541538 0.011549963 -0.009919186 -0.0041008834 0.03016262 0.067022935
0.07841085 -0.006273455 -0.07097807 0.05902533 -0.06845304 0.009220389 0.0023332373 -0.05934285
-0.004397375 0.015753485 -0.0071953787 -0.06778815 0.019103693 0.0270122 -0.007914012 -0.094561346
-0.076220796 -0.12689571 0.06256637 0.0671353 0.006210784 -0.013893171 -0.078315355 0.026321454
-0.02986878 -0.016923979 -0.05468135 -0.009947048 -0.037184212 0.029677391 -0.041657735 0.04219172
0.022277366 -0.03007665 0.021142684 0.019261762 -0.021624189 -0.012812963 0.06603235 0.084627524
0.1030311 -0.07173335 0.0316814 -0.042415008 0.05491503 -0.04289149 -0.09835602 0.08058662
-0.12985393 -0.15830776 -0.09485952 0.012574496 0.06850991 -0.04652832 -0.004200643 0.022960022
-0.09860746 -0.06813836 0.10214889 0.120726176 -0.02018567 0.029394751 0.01059939 0.030278452
0.055840705 0.07043544 0.017628437 -0.032335706 0.012530302 0.08533884 0.026478384 -0.019744517
0.013289868 -0.026424147 0.06135984 0.061787605 0.02293517 -0.009290383 0.020810694 0.06316921
-0.04521584 -0.10795745 -0.14242984 0.09140836 0.047858547 -0.039546527 -0.019639743 0.004325681
-0.05026165 -0.034689303 -0.027563894 -0.009243598 -0.011544386 -0.04445904 -0.017667474 -0.08408529
-0.05596215 0.1008047 -0.002564971 -0.06619278 -0.011949943 0.013744196 -0.031955544 0.058103114
00000000: fef1 8abd 81f2 54bd b9ae a9bd bf23 4b3b
00000010: e14a 4f3d 4663 60bd d69f 6c3d e231 5e3d
00000020: 57d7 7dbd 9042 b83b 78b0 1a3c 6336 be3d
00000030: f8bc a53d 814c 973d 21fb c03d 7946 13bd
00000040: e025 d03d 5c96 5c3d 6c17 f5bc 9810 a8bc
00000050: f6ce 01bd 1c3a cb3b 4ac5 ff3c d796 51bd
00000060: 7009 3e3d d1b0 8fbb 4913 1ebb eac2 1fbd
00000070: 9318 cfbd 49de 8dbd 73ef d83d 3b8d cfbc
00000080: da4e 39bd 3151 24bd c9f8 d7bd 379d b5bc
00000090: 5f60 11bd b04b 8f3d 0325 5e3d 7aad 4e3b
000000a0: 8037 08bd 5e34 3abd 8a67 edbc d22c fdbc
000000b0: 3453 7dbc f8ab 2ebd fea3 26bd 90b5 28bd
000000c0: 8fcf cdbc 14c0 e43d 15ec 97bd 5df0 853b
000000d0: 76a3 fb3b e429 a3bc aa2c 7abd f8ac 103c
000000e0: 2a55 223d 799a bbbc f30f ccbd 00d2 dabd
000000f0: c783 d13d b245 a83d a72d dd3c 9c66 263d
00000100: d015 0fbc 9b1b 77bc 4560 003c 8bae 87bd
00000110: f215 973d efe5 6a3d 410f ecbb 3243 12bd
00000120: 9de8 55bc f53e aa3d e19a 923d 0f98 1dbd
00000130: 8f0b aabd 8347 06be 1899 d6bc 23b9 c83d
00000140: 8a00 d93b 84ca a2bd b33e 93bd 05c2 54bd
00000150: d5e3 e53c 1ae0 94bd 914d 903d f28c bb3d
00000160: cb46 53bc bdde 3c3d e7ab e23b 719c 7b3d
00000170: 92ea 863d bf67 9a3d 41e5 ad3b 486c 2abc
00000180: ec31 873d 7f9e 143d e9f4 0c3d f6bd c3bc
00000190: dc76 243d 830d 2a3d 66b9 ac3d 4caf 65bd
000001a0: e056 1cbd bb74 1bbb 90f3 be3c 6174 003d
000001b0: c1f7 f4bd adb7 27bd a38e 273d 7cdb 6f3c
000001c0: e84f 97bd dafe 55bd 9d94 613c bd35 c8bd
000001d0: 1cd0 ecbd 2ca4 cebd b7db e0bd a6f6 35bc
000001e0: 6043 04be 8fcc 4bbd 8b32 b9bd a29e c83c
000001f0: 126d 9d3c 3c8d 8ebd 9f0f 8dbd 8a0d 3abd
00000200: 3d45 1abd d952 463d cb53 3b3c 7f02 34bc
00000210: d66c d2bb 5f05 8abd 37fd a8bd ca8c e93d
00000220: 498f 383d 8a33 353d 85a1 dc3d b088 dfba
00000230: 68da 35bd 16c5 c53d d66b c63d ea9f 53bb
00000240: 78fc 9ebc e3d6 a5bd 560b c9bc 0e3c 3d3c
00000250: 1584 22bc b460 86bb 9917 f73c 5243 893d
00000260: de95 a03d 8e91 cdbb f35c 91bd 8bc4 713d
00000270: 1c31 8cbd 1d11 173c 3ae9 183b 7d11 73bd
00000280: db17 90bb 740d 813c 36c7 ebbb 83d4 8abd
00000290: 597f 9c3c b048 dd3c c6a9 01bc 61a9 c1bd
000002a0: a619 9cbd f3f0 01be cc22 803d 3b7e 893d
000002b0: d583 cb3b 2fa0 63bc cd63 a0bd 17a0 d73c
000002c0: 5faf f4bc 28a4 8abc 8df9 5fbd f1f8 22bc
000002d0: 794e 18bd 001e f33c 4da1 2abd 3ad1 2c3d
000002e0: 067f b63c 4f63 f6bc 6c33 ad3c d8ca 9d3c
000002f0: 3625 b1bc 76ed 51bc f83b 873d 3251 ad3d
00000300: f801 d33d efe8 92bd 5bc4 013d 5cbb 2dbd
00000310: 95ee 603d fdae 2fbd e26e c9bd 990a a53d
00000320: 6ef8 04be 6e1b 22be b545 c2bd 4205 4e3c
00000330: ec4e 8c3d 7b94 3ebd 8ca5 89bb a816 bc3c
00000340: b5f2 c9bd 208c 8bbd 7033 d13d 493f f73d
00000350: 6b5c a5bc 43cd f03c 10a9 2d3c 840a f83c
00000360: 39b9 643d 7540 903d 8369 903c 7272 04bd
00000370: e54b 4d3c 21c6 ae3d 32e9 d83c 41bf a1bc
00000380: bfbd 593c 7477 d8bc 7554 7b3d 0015 7d3d
00000390: 8ae2 bb3c b136 18bc 307b aa3c dc5e 813d
000003a0: 3f34 39bd cc18 ddbd 21d9 11be 4e34 bb3d
000003b0: 5307 443d 8afb 21bd 87e3 a0bc 71be 8d3b
000003c0: 29df 4dbd 5f16 0ebd adcd e1bc 7672 17bc
000003d0: aa24 3dbc af1a 36bd 61bb 90bc e934 acbd
000003e0: 9138 65bd b272 ce3d 1319 28bb 1590 87bd
000003f0: b2c9 43bc 562f 613c d1e3 02bd 88fd 6d3d

conv2.bias f4 [20]
0.039557464 -0.02138407 -0.00029371228 -0.0069547906 -0.059028585 -0.071146116 0.05549794 0.048437346
0.050710864 -0.050138578 -0.08144325 -0.036257524 0.052108888 -0.060064603 0.026609357 0.0072769173
0.07542107 -0.0276439 -0.020554218 -0.04961657
00000000: 0207 223d a52d afbc 65fd 99b9 03e5 e3bb
00000010: f5c7 71bd 0eb5 91bd cf51 633d 3d66 463d
00000020: 32b6 4f3d 1c5e 4dbd b8cb a6bd c582 14bd
00000030: 2170 553d 4d06 76bd defb d93c 3573 ee3b
00000040: 5d76 9a3d 7675 e2bc 5261 a8bc bf3a 4bbd

fc1.weight f4 [50, 320]
-0.03725197 -0.08172885 0.018989736 0.100181945 -0.023037804 -0.040839806 -0.0056509827 0.03779426
-0.12388642 -0.17224468 -0.09922028 0.060583875 -0.03602066 0.001016022 0.041569594 0.0053965906
-0.0013784673 -0.058091972 -0.069299795 -0.007267551 0.04168078 0.025054533 -0.026708474 -0.087407865
-0.05220135 -0.008032665 0.012064564 -0.038225215 0.053717595 0.115133435 0.12873968 -0.0038977135
0.029334223 0.05792417 0.06318837 -0.030502133 -0.059937064 0.014461967 0.026364667 -0.046884608
0.014339897 0.048343606 0.061551943 -0.14135495 0.0039195395 -0.052898973 -0.06070089 -0.036657285
0.0060632057 -0.03352742 0.006809684 -0.08123872 0.03905215 0.07189693 -0.008227008 -0.052986924
0.06932832 0.025624275 -0.008494331 -0.05405411 0.0212223 0.0061587254 -0.06998205 -0.021184066
-0.013629122 0.01577294 0.035286106 -0.05374018 0.021198938 0.011694398 0.0040357173 -0.06804802
0.0037952317 0.042304665 0.024536518 -0.044768423 -0.03907171 0.07366596 -0.066001944 -0.015697464
-0.013323403 -0.045791507 -0.031305663 -0.036635913 0.03148139 0.0668507 0.06639358 0.0450497
-0.064883925 0.036974415 0.03450879 -0.011663278 -0.113003924 0.0017550341 0.0487445 0.02329752
-0.043686025 -0.08758847 -0.02360846 0.022717427 0.007872454 -0.002515371 0.004810783 0.043087672
-0.10087497 -0.061883025 -0.014332931 0.010146233 -0.022229817 0.06462805 0.05384088 0.01989365
-0.044192504 -0.0010711759 -0.035918195 0.002407301 0.11326561 0.063121244 -0.04520959 -0.021090992
-0.07946635 -0.053674627 -0.026165178 0.0052870577 0.0007897592 0.07038052 0.028947588 -0.018206876
-0.0438606 -0.10057975 -0.08201736 -0.05061641 0.01073887 -0.0023758472 0.011542155 -0.042628065
0.005671449 0.06556549 0.056226097 -0.029427439 -0.059081793 -0.012226039 0.037664145 0.0057392353
0.038732868 0.049912464 -0.085535415 -0.040450715 0.057686526 -0.018496014 -0.04438136 -0.039947797
0.043729138 0.03059584 0.017739573 0.051491663 0.025945984 -0.02981676 -0.064962715 0.02057972
0.057695333 0.07462285 0.02780673 -0.08301118 0.018521396 0.039645005 0.007431982 -0.029714504
-0.011958625 0.04292379 -0.07610293 -0.003686711 0.0078957025 0.016357677 -0.0014971207 -0.12879105
0.013964373 0.035020072 0.021015737 -0.014569897 -0.023393866 0.07472258 0.13150914 -0.024643654
-0.029734893 -0.04812516 0.019209212 -0.029218398 -0.09297115 -0.046808343 -0.06698743 -0.0002986642
-0.012406307 -0.0047113434 -0.075134635 0.005702034 0.023616912 0.13350855 0.0260678 -0.028648915
-0.036715865 -0.018953815 -0.07357576 -0.042967312 0.05326635 0.0023000762 0.009780993 0.07601154
-0.0038208049 0.027022421 -0.05130937 0.009218344 -0.019485272 -0.015384651 -0.0049432 -0.033388827
-0.03898803 0.00864635 0.05860931 -0.064321965 -0.02890891 0.035465766 0.098742254 -0.093951076
0.007875597 -0.033233773 -0.052143667 -0.0804916 0.013792675 0.056566477 0.022250367 -0.061218027
0.01156117 0.032091115 -0.00044929594 0.000298033 0.053717405 -0.024938324 -0.056791786 0.072774366
-0.030545108 -0.07792412 -0.030998236 -0.033836152 0.004841948 0.056471813 0.13814645 0.081466116
0.060075603 0.040329438 0.018921591 -0.026401605 -0.18037227 -0.13529693 0.012394744 -0.017602583
00000000: 8695 18bd 7561 a7bd 5d90 9b3c 312c cd3d
00000010: c7b9 bcbc a447 27bd e12b b9bb 27ce 1a3d
00000020: 2ab8 fdbd e960 30be 0134 cbbd cc26 783d
00000030: 668a 13bd 0b2c 853a e144 2a3d e2d5 b03b
00000040: b0ad b4ba d9f1 6dbd 0ded 8dbd a324 eebb
00000050: 77b9 2a3d 2a3f cd3c bbcb dabc e502 b3bd
00000060: 15d1 55bd 709b 03bc 73aa 453c 0b92 1cbd
00000070: fb06 5c3d 14cb eb3d 56d4 033e c870 7fbb
00000080: 534e f03c e541 6d3d e768 813d 9cdf f9bc
00000090: 9180 75bd e3f1 6c3c b7fa d73c 130a 40bd
000000a0: e3f1 6a3c f203 463d e41d 7c3d 5abf 10be
000000b0: 7b6f 803b 98ac 58bd 7fa1 78bd f325 16bd
000000c0: dbad c63b 0c54 09bd c523 df3b 7c60 a6bd
000000d0: 26f5 1f3d b33e 933d 93ca 06bc d108 59bd
000000e0: 02fc 8d3d 00ea d13c ce2b 0bbc d867 5dbd
000000f0: 64da ad3c 22cf c93b c052 8fbd 358a adbc
00000100: ae4c 5fbc 4136 813c 2a88 103d aa1e 5cbd
00000110: 65a9 ad3c dc99 3f3c 0d3e 843b c35c 8bbd
00000120: 6cb9 783b a847 2d3d cf00 c93c 185f 37bd
00000130: a809 20bd 2ede 963d 072c 87bd f897 80bc
00000140: 674a 5abc e08f 3bbd 5e3a 00bd 8a0f 16bd
00000150: a1f2 003d 05e9 883d 5bf9 873d 0986 383d
00000160: dde1 84bd 7c72 173d 1759 0d3d 5517 3fbc
00000170: 9a6e e7bd 2c09 e63a 50a8 473d 71da be3c
00000180: 1ef0 32bd 9561 b3bd 8766 c1bc e619 ba3c
00000190: 77fb 003c ecd8 24bb c6a3 9d3b b37c 303d
000001a0: 8997 cebd 0e79 7dbd abd4 6abc 633c 263c
000001b0: 4e1b b6bc b65b 843d 4188 5c3d 02f8 a23c
000001c0: 3303 35bd b366 8cba f51e 13bd cfc3 1d3b
000001d0: cdf7 e73d b645 813d b12d 39bd 04c7 acbc
000001e0: 41bf a2bd edd9 5bbd 5b58 d6bc 0e3f ad3b
000001f0: d807 4f3a a923 903d 7e23 ed3c 9626 95bc
00000200: 2ca7 33bd c2fc cdbd b8f8 a7bd 2753 4fbd
00000210: 16f2 2f3c 1ab4 1bbb 4f1b 3d3c c49a 2ebd
00000220: 90d7 b93b 3347 863d 564d 663d d011 f1bc
00000230: c0ff 71bd b94f 48bc b845 1a3d 3210 bc3b
00000240: 5ba6 1e3d 0371 4c3d 312d afbd a6af 25bd
00000250: b548 6c3d f484 97bc 3bc9 35bd 4da0 23bd
00000260: 531d 333d 21a4 fa3c 9552 913c ece8 523d
00000270: ac8c d43c 4742 f4bc 2c0b 85bd cd96 a83c
00000280: f151 6c3d ddd3 983d f0ca e33c c401 aabd
00000290: 2fba 973c cd62 223d fc87 f33b d56b f3bc
000002a0: 1cee 43bc dbd0 2f3d dadb 9bbd bf9c 71bb
000002b0: fa5c 013c 8900 863c 093b c4ba cde1 03be
000002c0: d3ca 643c 3571 0f3d 3229 ac3c 94b6 6ebc
000002d0: 7ea4 bfbc 2708 993d 55aa 063e 7de1 c9bc
000002e0: 9796 f3bc e31e 45bd a35c 9d3c 6c5b efbc
000002f0: a967 bebd 1bba 3fbd b530 89bd 0896 9cb9
00000300: d343 4bbc 9d61 9abb 30e0 99bd 21d8 ba3b
00000310: 4178 c13c 77b6 083e 248c d53c 21b1 eabc
00000320: 6063 16bd 0845 9bbc e3ae 96bd 7efe 2fbd
00000330: d12d 5a3d e0bc 163b 7540 203c f0ab 9b3d
00000340: 7866 7abb 205e dd3c c629 52bd 8a08 173c
00000350: 949f 9fbc e70f 7cbc 91fa a1bb b9c2 08bd
00000360: eab1 1fbd 6ca9 0d3c 5110 703d 3cbb 83bd
00000370: 61d2 ecbc 8d44 113d 6139 ca3d 6c69 c0bd
00000380: a608 013c 2320 08bd 9994 55bd c8d8 a4bd
00000390: acfa 613c 40b2 673d 6746 b63c c1bf 7abd
000003a0: 106b 3d3c f971 033d 7b8f ebb9 5041 9c39
000003b0: c806 5c3d 754b ccbc 819e 68bd ba0a 953d
000003c0: bc39 fabc ae96 9fbd 03f0 fdbc c797 0abd
000003d0: 34a9 9e3b fd4e 673d 4376 0d3e b5d7 a63d
000003e0: d611 763d 7b30 253d 7401 9b3c 2e48 d8bc
000003f0: 82b3 38be 478b 0abe 5313 4b3c 4b33 90bc

fc1.bias f4 [50]
-0.028900817 0.0014206979 -0.003520549 0.016599737 0.021498462 0.009861938 -0.024510812 -0.0024828822
-0.0181613 0.049592268 0.012663374 0.046622124 0.03543879 0.06869808 -0.014533671 0.06645824
-0.022596888 -0.009541864 -0.0036352437 0.017671395 0.012491023 0.030753875 -0.0035463455 0.02848221
0.05322831 0.013934961 0.061434757 0.022796348 0.0037676257 0.024603298 0.023391647 -0.0023057607
0.059827294 0.0034776547 0.07154779 0.012208826 0.047358472 0.084147945 0.0035922236 -0.011677995
0.078968324 -0.023993393 -0.0031173776 0.06796946 0.021064172 0.012557 -0.018818725 0.035151362
0.04404052 -0.001955245
00000000: 68c1 ecbc b636 ba3a 03b9 66bb 2cfc 873c
00000010: 8b1d b03c f793 213c e6ca c8bc dab7 22bb
00000020: 02c7 94bc 4321 4b3d 0a7a 4f3c d7f6 3e3d
00000030: 4428 113d 94b1 8c3d a21e 6ebc 421b 883d
00000040: 1c1d b9bc 7a55 1cbc 453d 6ebb 9ac3 903c
00000050: 26a7 4c3c 8def fb3c ce69 68bb 8653 e93c
00000060: ee05 5a3d 764f 643c 03a3 7b3d 68bf ba3c
00000070: 45ea 763b db8c c93c d79f bf3c 3f1c 17bb
00000080: 770d 753d 5de9 633b a687 923d 8707 483c
00000090: f5fa 413d c255 ac3d 836b 6b3b 1055 3fbc
000000a0: 25ba a13d cb8d c4bc eb4c 4cbb 9233 8b3d
000000b0: c58e ac3c e0bb 4d3c ba29 9abc e0fa 0f3d
000000c0: d563 343d 9123 00bb

fc2.weight f4 [10, 50]
-0.19896819 -0.21507767 -0.061736595 -0.06851977 0.2507372 -0.19184591 0.026304472 0.27227536
0.21478724 -0.19225125 -0.15448181 -0.17311995 -0.07300856 0.18938261 -0.15776137 0.13929944
0.16609025 -0.11773917 -0.13004318 -0.14432882 0.013399604 -0.15961899 -0.19962801 0.19941923
0.011727698 0.18972757 0.0014302774 -0.14125901 0.27692902 0.1586454 0.010347011 -0.15289354
0.08937479 0.20218556 0.20273153 -0.24307789 -0.10663951 0.28591785 -0.06580131 0.031664304
-0.07687664 -0.06292147 0.081353135 -0.16278191 -0.16760191 0.13021293 -0.03138577 -0.18142934
-0.17379369 -0.123581454 -0.11841955 -0.10223561 -0.10880436 -0.11467221 -0.17227636 0.2087025
-0.039256405 -0.16202009 -0.17516752 -0.23275241 0.1707621 0.07929186 -0.2150308 -0.2019957
0.25085327 0.18482055 -0.21047814 0.103745356 0.121288 -0.112046234 0.4339413 0.06652242
0.2117982 -0.0557282 0.08359847 0.12589915 -0.10571966 -0.22419836 -0.16945711 -0.19065778
0.29054645 -0.022632428 0.246511 -0.14774369 -0.26262483 -0.13513312 0.2111639 -0.25906017
0.10332177 -0.06507386 0.2238991 0.006888176 -0.247492 0.29784778 0.10791784 0.017929776
0.14838564 0.23865366 0.14438851 -0.14314744 -0.11109108 0.16286232 0.21228759 -0.058882296
-0.08493988 -0.14891486 0.07033313 0.14493056 -0.05612906 -0.0015588145 0.2034016 -0.15582885
-0.13576503 -0.08373185 0.24499035 0.19255702 0.001131699 -0.2017249 -0.15454395 0.042427503
-0.122170575 0.07620125 -0.2001351 -0.015955353 0.26454303 0.15120426 -0.147425 -0.14451218
0.20878267 0.16742878 -0.16765705 0.18864045 -0.12879811 -0.1671182 0.15542641 -0.05195295
-0.11543847 -0.16279988 0.1998719 0.1540982 0.21494107 -0.05775509 0.18675056 -0.022264566
0.1791687 0.07556223 0.22735271 -0.100045696 -0.13585564 -0.012502525 0.20184647 0.16558883
-0.1589195 -0.16117045 -0.19116896 -0.15967184 -0.14840189 -0.13788731 -0.044461776 -0.07648951
-0.14760537 0.23692559 0.238845 0.11954524 0.23001277 -0.001614625 0.15278725 0.19138812
-0.3099659 -0.09202488 -0.1664267 0.11294734 -0.15848546 -0.16772665 -0.13627554 0.115563944
-0.18887144 -0.19004492 -0.17784636 0.15837263 -0.16757368 0.15688948 -0.18065743 -0.10297227
-0.09395789 0.20219968 0.20151632 -0.0015645276 0.13620225 -0.09108548 0.0007229686 0.23778267
0.10360398 -0.15090396 0.16376579 -0.21034127 0.2203771 -0.1878059 0.17095828 -0.066012286
0.13177265 0.1703406 -0.05463366 0.23816165 -0.04939766 0.08008163 0.34684423 -0.09748606
-0.06916914 0.21292223 -0.13944028 0.07415032 -0.12408709 -0.31875584 -0.013607628 0.21533519
-0.20119289 -0.19171928 0.17199565 -0.10569827 -0.09268458 -0.17673382 0.18621483 -0.20006837
0.35512394 -0.18177608 -0.13203707 0.2019055 -0.1510181 -0.24220084 -0.01638785 -0.122080535
0.14511454 -0.16599095 0.22758447 0.18424825 0.23816878 -0.058986463 -0.17256458 0.27268785
-0.17144369 -0.21488672 -0.02405714 0.11735637 -0.22027096 0.10791375 -0.13512331 0.25439367
0.19535127 -0.13401714 -0.12366332 0.13359706 -0.10826412 -0.19619888 -0.052252006 0.14921628
00000000: 51be 4bbe 523d 5cbe 83df 7cbd 1854 8cbd
00000010: a060 803e 4173 44be 7a7c d73c ad67 8b3e
00000020: 30f1 5b3e 83dd 44be 7b30 1ebe 5b46 31be
00000030: 8385 95bd 84ed 413e 328c 21be 83a4 0e3e
00000040: 9013 2a3e 3c21 f1bd 0a2a 05be efca 13be
00000050: 038a 5b3c 2973 23be 496b 4cbe 8e34 4c3e
00000060: 8825 403c f247 423e 2578 bb3a 34a6 10be
00000070: a4c9 8d3e f173 223e 8286 293c 2090 1cbe
00000080: 210a b73d bb09 4f3e db98 4f3e 69e9 78be
00000090: d165 dabd d363 923e d6c2 86bd 6eb2 013d
000000a0: 8071 9dbd f9dc 80bd 799c a63d 4db0 26be
000000b0: d69f 2bbe 8a56 053e 5d8e 00bd 9dc8 39be
000000c0: f9f6 31be 4618 fdbd f385 f2bd e760 d1bd
000000d0: d2d4 debd 43d9 eabd 3769 30be 1cb6 553e
000000e0: 53cb 20bd 98e8 25be 1d5f 33be a656 6ebe
000000f0: 43dc 2e3e c563 a23d 0931 5cbe f6d7 4ebe
00000100: d76f 803e 9941 3d3e 9587 57be 7278 d43d
00000110: d865 f83d 7f78 e5bd 8e2d de3e e83c 883d
00000120: a1e1 583e 4143 64bd ad35 ab3d b5eb 003e
00000130: 8d83 d8bd 4194 65be 2a86 2dbe cb3b 43be
00000140: 81c2 943e a467 b9bc 616d 7c3e 1f4a 17be
00000150: c376 86be 5660 0abe 593b 583e 89a3 84be
00000160: 5d9a d33d 7245 85bd ce45 653e 35b6 e13b
00000170: 8b6e 7dbe 817f 983e 0704 dd3d 77e1 923c
00000180: 68f2 173e a061 743e 95da 133e 3e95 12be
00000190: b883 e3bd 61c5 263e eb61 593e 902e 71bd
000001a0: f6f4 adbd 237d 18be d10a 903d ad68 143e
000001b0: 96e7 65bd 2351 ccba 8248 503e 9991 1fbe
000001c0: fd05 0bbe 9b7b abbd c0de 7a3e ab2d 453e
000001d0: 8455 943a f990 4ebe c540 1ebe 76c8 2d3d
000001e0: 9134 fabd 670f 9c3d 37f0 4cbe cdb4 82bc
000001f0: 2f72 873e 4ad5 1a3e 94f6 16be 00fb 13be
00000200: 20cb 553e 7372 2b3e 4aae 2bbe f62a 413e
00000210: a7e3 03be 0921 2bbe 1a28 1f3e 9ecc 54bd
00000220: 016b ecbd 03b5 26be 38ab 4c3e ebcb 1d3e
00000230: 8319 5c3e 9a90 6cbd 8a3b 3f3e 2e64 b6bc
00000240: 0078 373e 5fc0 9a3d 26cf 683e c2e4 ccbd
00000250: be1d 0bbe 64d7 4cbc d7b0 4e3e 1e90 293e
00000260: cbbb 22be de09 25be ccc1 43be 0481 23be
00000270: aaf6 17be 5532 0dbe 8d1d 36bd 88a6 9cbd
00000280: dd25 17be 9f9c 723e c993 743e 23d4 f43d
00000290: 7888 6b3e d3a1 d3ba 4374 1c3e 3ffb 433e
000002a0: dab3 9ebe 8a77 bcbd c36b 2abe ef50 e73d
000002b0: 034a 22be 89c0 2bbe d18b 0bbe caac ec3d
000002c0: 8467 41be 239b 42be 5b1d 36be 6f2c 223e
000002d0: 6f98 2bbe a3a7 203e 43fe 38be 20e3 d2bd
000002e0: ff6c c0bd 6f0d 4f3e 4b5a 4e3e d610 cdba
000002f0: 9a78 0b3e 068b babd 9a85 3d3a 4d7d 733e
00000300: 532e d43d 9186 1abe 38b2 273e b463 57be
00000310: 89aa 613e 3150 40be b00f 2f3e 7331 87bd
00000320: 69ef 063e c46d 2e3e 8bc7 5fbd a6e0 733e
00000330: 3355 4abd d601 a43d 9195 b13e c5a6 c7bd
00000340: 8da8 8dbd 4908 5a3e 6fc9 0ebe 1fdc 973d
00000350: 5f21 febd f733 a3be 87f2 5ebc d480 5c3e
00000360: 8205 4ebe 0f52 44be a11f 303e 5678 d8bd
00000370: 6ad1 bdbd b6f9 34be 1aaf 3e3e b9de 4cbe
00000380: ced2 b53e 8223 3abe ba34 07be 51c0 4e3e
00000390: 7da4 1abe 7f03 78be d03f 86bc 5c05 fabd
000003a0: e898 143e 88f9 29be e70b 693e 93ab 3c3e
000003b0: 84e2 733e ca9b 71bd c5b4 30be be9d 8b3e
000003c0: ef8e 2fbe 440b 5cbe 7b13 c5bc 8958 f03d
000003d0: b68e 61be e201 dd3d c45d 0abe e33f 823e
000003e0: 2a0a 483e ca3b 09be 3243 fdbd abcd 083e
000003f0: 94b9 ddbd 5ce8 48be 3306 56bd 27cc 183e

fc2.bias f4 [10]
0.11708271 0.26998696 -0.12766959 -0.11659343 -0.018212838 0.09235408 -0.15770696 -0.16511197
0.26642817 0.24309795
00000000: 0fc9 ef3d bb3b 8a3e d1bb 02be 89c8 eebd
00000010: 1733 95bc 2324 bd3d ef7d 21be 1d13 29be
00000020: 4669 883e abee 783e

momentum_buffer f4 [10, 1, 5, 5]
0.01508163 0.014840069 0.0048661535 -0.0010123237 -0.015037618 0.06253942 0.022430174 -0.0057455073
-0.02823323 -0.030575246 0.06065136 0.017708024 -0.01696399 -0.028842889 -0.036887918 0.011643849
-0.006430174 -0.001504123 -0.020516396 -0.04269573 -0.0029067579 0.0080040265 0.024659147 -0.005048843
-0.038099106 -0.027285881 -0.032938782 -0.05531356 -0.05989264 -0.004382205 -0.045609508 -0.03840796
-0.019169211 0.01781663 0.06967799 -0.03508782 -0.034424458 0.012388855 0.053342447 0.12424314
-0.03391317 -0.013623439 0.027568864 0.06467684 0.08743321 -0.03581442 -0.01801433 0.020785937
0.050884545 0.067064725 -0.021904953 -0.016510118 0.008309646 0.029789038 0.034462202 -0.036802568
-0.014845967 0.011502579 0.040867854 0.032388553 -0.023642574 -0.012940513 0.0014378976 0.025825556
0.047128994 -0.0020319063 0.00019978051 0.012395866 0.03188434 0.06270081 0.012468826 0.009729651
0.017322741 0.044847533 0.06175839 0.007269032 -0.014066365 -0.004340172 0.012346434 0.005401644
-0.048063125 -0.00037708227 -0.0023299283 -0.009361111 -0.049360592 0.031125529 0.046518326 0.026020728
-0.016014766 -0.034840032 0.053739745 0.07300785 0.045184758 0.0036215074 -0.0016956078 0.058149416
0.017897876 0.0070566814 0.027664697 0.03748749 -0.07219444 -0.13433747 -0.13788486 -0.06502357
0.031896554 -0.07903887 -0.11430871 -0.109750636 -0.025675476 0.04588539 -0.1075525 -0.10904887
-0.07430362 -0.019252095 0.030537006 -0.09008861 -0.0856532 -0.036250982 -0.005429771 0.018967459
-0.08372313 -0.049004003 -0.023136249 0.0003662156 0.029553507 0.04580862 0.05458819 0.03164217
-0.010593985 0.039862286 -0.00520706 0.022791775 0.01422152 0.029188177 0.04171535 -0.030354053
-0.022845171 0.03944944 0.06032097 0.08248914 -0.046261266 -0.034072753 -0.0042703426 0.000768194
0.010928344 -0.010689402 0.0052282545 0.016315592 -0.004187802 0.0024742596 -0.007996 0.00042155944
0.0020956718 -0.0013349308 -0.009097321 0.0090680765 0.009864051 0.0063677416 0.0021362172 0.0019810507
0.017482076 0.0061086416 0.0008228503 0.0038168884 0.005326639 0.004247726 0.0010469919 0.0019346098
0.0076085683 0.012027916 -0.0058840644 -0.005267528 0.004137714 0.009001042 0.00703122 0.011715828
0.016220042 0.03415991 -0.017677752 -0.050452746 0.020619174 0.036472134 0.051837076 -0.022958033
-0.07900642 0.00908203 0.007738968 0.007879915 -0.054272033 -0.054984793 -0.02041487 -0.03492774
-0.057955462 -0.11547307 -0.12347458 -0.0423194 -0.044926513 -0.06703237 -0.10615217 -0.12786509
0.03246307 0.03980559 0.02418787 0.0094410665 0.061035186 0.02499302 0.06691315 0.036467794
0.052031808 0.07627845 0.005343473 0.028320685 0.037962705 0.0336215 0.058700528 0.0035461476
0.034242343 0.02399782 -0.009764899 0.04717157 0.02486942 0.032802742 0.02477506 0.030190842
0.046068296 -0.12255534 -0.086465046 -0.054616988 -0.0053926758 0.067502774 -0.13230774 -0.042668223
0.012086986 0.05954493 0.10231352 -0.0830359 -0.014677951 0.016599406 0.045653358 0.07587196
-0.028751303 -0.016531093 -4.9293885e-05 0.017052218 0.038865216 -0.019937228 -0.02168006 -0.0077193673
0.033421732 0.0687864
00000000: f118 773c c323 733c 4174 9f3b f2af 84ba
00000010: 5760 76bc ab14 803d 7cbf b73c cf44 bcbb
00000020: 6049 e7bc f078 fabc 8f6d 783d 6b10 913c
00000030: 11f8 8abc ec47 ecbc c917 17bd d8c5 3e3c
00000040: 36b4 d2bb fe25 c5ba 0012 a8bc b8e1 2ebd
00000050: 4e7f 3ebb 5223 033c fb01 ca3c c470 a5bb
00000060: cf0d 1cbd a486 dfbc d1ea 06bd 7990 62bd
00000070: fc51 75bd 9a98 8fbb 09d1 3abd aa51 1dbd
00000080: c008 9dbc 2ef4 913c 56b3 8e3d 3fb8 0fbd
00000090: a900 0dbd a0fa 4a3c 9c7d 5a3d 3073 fe3d
000000a0: 89e8 0abd d834 5fbc 19d8 e13c 4b75 843d
000000b0: 2f10 b33d 24b2 12bd ca92 93bc 4547 aa3c
000000c0: 506c 503d 3b59 893d 0472 b3bc 3a40 87bc
000000d0: 2e25 083c 2408 f43c 3d28 0d3d 4abe 16bd
000000e0: 803c 73bc 5075 3c3c 0d65 273d dca9 043d
000000f0: 12ae c1bc 7204 54bc d677 bc3a 1e90 d33c
00000100: 550a 413d bb29 05bb 2c7c 5139 0818 4b3c
00000110: 2799 023d 4869 803d 0c4a 4c3c 1d69 1f3c
00000120: 6ce8 8d3c 0cb2 373d 5ef6 7c3d 0f31 ee3b
00000130: 9c76 66bc 0038 8ebb b348 4a3c 4600 b13b
00000140: d7dd 44bd 20b3 c5b9 b6b1 18bb 585f 19bc
00000150: 552e 4abd f7fa fe3c 008a 3e3d 6c29 d53c
00000160: 6631 83bc 6cb4 0ebd 351e 5c3d 2485 953d
00000170: a713 393d d056 6d3b 283f deba 152e 6e3d
00000180: 919e 923c bc3b e73b 13a1 e23c 7b8c 193d
00000190: aeda 93bd c38f 09be b031 0dbe 142b 85bd
000001a0: f6a5 023d 22df a1bd af1a eabd f1c4 e0bd
000001b0: 6055 d2bc 52f2 3b3d 7c44 dcbd 0455 dfbd
000001c0: 7f2c 98bd 92b6 9dbc be28 fa3c 6180 b8bd
000001d0: f26a afbd e97b 14bd 38ec b1bb a561 9b3c
000001e0: 0877 abbd 6cb8 48bd 3b88 bdbc a000 c039
000001f0: 321a f23c d2a1 3b3d de97 5f3d 389b 013d
00000200: 6592 2dbc a346 233d fc9f aabb d1b5 ba3c
00000210: 6101 693c 0b1c ef3c b7dd 2a3d 10a9 f8bc
00000220: cc25 bbbc bc95 213d 1f13 773d 11f0 a83d
00000230: 747c 3dbd df8f 0bbd 3bee 8bbb a060 493a
00000240: cc0c 333c 9a22 2fbc c751 ab3b 47a8 853c
00000250: d439 89bb 3027 223b a801 03bc c004 dd39
00000260: 8a57 093b d8f8 aeba ee0c 15bc 4592 143c
00000270: d49c 213c 7da8 d03b c7ff 0b3b 84d4 013b
00000280: 9236 8f3c 002b c83b 8db4 573a c324 7a3b
00000290: 168b ae3b 8230 8b3b 383b 893a bc92 fd3a
000002a0: 4c51 f93b bc10 453c 1ccf c0bb 3a9b acbb
000002b0: a995 873b 1b79 133c 2666 e63b bff3 3f3c
000002c0: e5df 843c 43eb 0b3d efd0 90bc 8aa7 4ebd
000002d0: 8be9 a83c ce63 153d 1d53 543d 7c12 bcbc
000002e0: 1ece a1bd cbcc 143c 2b97 fd3b c21a 013c
000002f0: 5a4c 5ebd bc37 61bd 163d a7bc 6410 0fbd
00000300: b562 6dbd 257d ecbd 3ee0 fcbd 1b57 2dbd
00000310: dd04 38bd 4448 89bd 4f66 d9bd 11ef 02be
00000320: fff7 043d 300b 233d a425 c63c b4ae 1a3c
00000330: 0800 7a3d 29be cc3c c309 893d 415f 153d
00000340: 4e1f 553d e037 9c3d 4d18 af3b c800 e83c
00000350: c87e 1b3d b3b6 093d f76f 703d 7c66 683b
00000360: b341 0c3d 1497 c43c f4fc 1fbc fa36 413d
00000370: f4ba cb3c 2b5c 063d 11f5 ca3c c952 f73c
00000380: 1cb2 3c3d 4bfe fabd 9614 b1bd 10b6 5fbd
00000390: 0bb5 b0bb e53e 8a3d ae7b 07be e0c4 2ebd
000003a0: 7e08 463c 62e5 733d c089 d13d ba0e aabd
000003b0: ca7b 70bc 7afb 873c 04ff 3a3d c262 9b3d
000003c0: da87 ebbc 376c 87bc e8c0 4eb8 18b1 8b3c
000003d0: 2231 1f3d 6653 a3bc 629a b1bc bff2 fcbb
000003e0: 3ae5 083d e2df 8c3d

momentum_buffer f4 [10]
0.016089499 0.008644059 0.008757964 -0.006829721 0.010546414 0.006965452 -0.0059830416 -0.050114643
0.032964 -0.009708088
00000000: 20ce 833c d09f 0d3c 907d 0f3c dacb dfbb
00000010: deca 2c3c 723e e43b 640d c4bb 0345 4dbd
00000020: 4205 073d ac0e 1fbc

momentum_buffer f4 [20, 10, 5, 5]
0.018801548 0.009286653 0.008869992 -0.0065049403 -0.0066398117 0.001456181 0.010703061 0.035491988
0.0017581154 0.008485073 0.002472926 0.029768035 0.056902904 0.008463932 0.0077990517 -0.0018270016
-0.011694738 0.027077978 0.00047992263 0.0025958153 -0.005696735 0.014255036 0.000103763305 -0.002047082
-0.005856949 0.004035507 -9.3031675e-05 0.0035824594 0.0011787321 -0.008006605 -0.034862373 -0.04241427
-0.035168096 -0.029166093 -0.030586151 0.009740545 0.003518065 -0.0011441656 -0.011026267 -0.005152476
-0.0061911456 0.0013528545 0.013451461 0.018201984 -0.0037314943 0.021406032 0.017349469 0.012410781
0.0012848298 0.0013609082 0.0077056317 0.0009297384 -0.007424558 0.005760781 -0.0031545712 0.019899271
-0.016419336 -0.016819704 0.006099985 -0.011969006 0.017097527 -0.011199143 -0.008483611 -0.0122163175
-0.024742663 0.030315498 0.0018502352 0.0073351446 0.002114736 -0.021986324 -0.00077760615 -0.021975407
0.008965483 0.009625562 0.0029030414 0.0357299 0.020772891 0.014146417 0.009852257 0.019719154
-0.024966039 -0.016508909 0.016909495 -0.02470833 -0.016778864 -0.028146347 -0.018602945 0.024325896
-0.023971975 -0.01403353 0.004362491 0.041918594 0.03162993 -0.014972313 -0.0048164236 0.0050754957
0.026726931 0.023942923 -0.006963041 -0.016228797 0.0054746037 -0.004778843 0.0037062457 0.008544861
0.007735316 0.0015731221 -0.044690114 -0.017324125 -0.009569771 -0.018161613 -0.0064674537 0.0010857345
-0.009746771 -0.025382917 -0.015710121 0.0045286603 0.031476453 0.024996929 0.009339251 0.020143235
0.0036671832 -0.0004093137 0.013447816 0.015622165 0.01820542 -0.00022485899 -0.00043705106 0.0008249078
-0.008810726 -0.021244965 0.00249301 0.013534563 0.00013597868 -0.029884787 -0.026172835 0.033995684
0.036526516 0.02288745 -0.026717596 -0.014381785 0.0104460595 0.02586224 0.039427616 -0.0033749817
-0.01206378 0.02100573 0.03233178 -0.017000241 -0.017510794 -0.017968975 -6.1020182e-05 0.007001585
0.009465759 0.0056996006 0.012139631 -0.003874681 -0.035216935 -0.019918773 0.0038689869 -0.0017724336
-0.043384805 -0.03363536 -0.01807261 -0.017115261 -0.010904113 -0.022357889 -0.00394718 0.011651575
-0.00024919445 0.0010367716 -0.010308713 -0.010485759 0.009629132 0.005623441 -0.0026219497 -0.016087193
0.012617147 -0.012493998 -0.00377202 -0.0108853225 0.02982572 0.0040579 -0.029618524 -0.012364247
-0.04364639 0.043545716 -0.00229915 -0.048942238 0.00039439276 -0.04010502 0.03755545 0.012037706
-0.023496144 -0.022929486 -0.056605965 0.03613185 -0.03891154 -0.02365541 -0.026681721 -0.038984694
0.045729026 0.010311553 -0.01708475 -0.015435411 -0.0059187734 0.023284914 0.030356722 -0.019625213
-0.008404993 -0.038778245 0.019577462 0.0842329 0.0014984636 -0.0153635815 -0.01975886 0.035539098
0.0014700666 0.016489603 -0.0019236878 -0.018602137 0.0336889 0.004257447 -0.008071657 -0.01504764
-0.035969146 0.013012473 0.0028757816 -0.0022029104 0.007248861 0.00922541 0.03658645 -0.042647745
-0.035588436 -0.01009059 -0.025045441 0.012122755 -0.007739411 -0.021259867 -0.03118464 -0.041399542
0.010925612 0.025391202 0.039183654 0.018654838 0.0036925087 0.0076596467 -0.0076993653 0.023618806
0.024954494 0.0029500434 -0.01078734 -0.0012133683 -0.042448994 -0.02706575 -0.020828312 -0.014224641
00000000: b405 9a3c 0c27 183c 7153 113c 6527 d5bb
00000010: c792 d9bb 54dd be3a e45b 2f3c 0c60 113d
00000020: 9070 e63a fa04 0b3c d010 223b 18dc f33c
00000030: 0513 693d 4eac 0a3c 308f ff3b 0078 efba
00000040: 499b 3fbc a3d2 dd3c 209e fb39 8e1e 2a3b
00000050: adab babb f48d 693c 809b d938 5628 06bb
00000060: a6eb bfbb 493c 843b 001a c3b8 b2c7 6a3b
00000070: b07f 9a3a 232e 03bc d9cb 0ebd 96ba 2dbd
00000080: 6c0c 10bd bbed eebc cf8f fabc cf96 1f3c
00000090: 568f 663b d4f7 95ba 84a7 34bc 1ad6 a8bb
000000a0: 18df cabb 4452 b13a 8463 5c3c 541c 953c
000000b0: 168c 74bb b45b af3c 7920 8e3c 9756 4b3c
000000c0: bc67 a83a 8060 b23a 867f fc3b b0b9 733a
000000d0: b549 f3bb efc4 bc3b ecbc 4ebb cc03 a33c
000000e0: d881 86bc 7ac9 89bc 62e2 c73b a619 44bc
000000f0: 1d10 8c3c 9c7c 37bc d8fe 0abc f326 48bc
00000100: 20b1 cabc 3558 f83c 9783 f23a a75b f03b
00000110: 6297 0a3b aa1c b4bc 44d8 4bba c505 b4bc
00000120: f6e3 123c 88b4 1d3c f440 3e3b 8459 123d
00000130: e92b aa3c 60c6 673c 5c6b 213c 108a a13c
00000140: 9485 ccbc b13d 87bc c885 8a3c 2069 cabc
00000150: d473 89bc 2b93 e6bc 3465 98bc 1a47 c73c
00000160: e060 c4bc e4ec 65bc 3af3 8e3b d5b2 2b3d
00000170: 638e 013d 6f4e 75bc 17d3 9dbb 5850 a63b
00000180: 70f2 da3c f323 c43c 392a e4bb 41f2 84bc
00000190: 4e64 b33b d797 9cbb 7ce4 723b bfff 0b3c
000001a0: 8978 fd3b 3831 ce3a fb0c 37bd 53eb 8dbc
000001b0: 87ca 1cbc aac7 94bc efec d3bb 344f 8e3a
000001c0: ecb0 1fbc d6ef cfbc 83b2 80bc 2865 943b
000001d0: 74ed 003d 5cc6 cc3c a803 193c 6d03 a53c
000001e0: 2055 703b 2899 d6b9 3a54 5c3c 1cf4 7f3c
000001f0: 8823 953c 20c8 6bb9 0024 e5b9 a03e 583a
00000200: dd5a 10bc ec09 aebc c461 233b 12c0 5d3c
00000210: 8095 0e39 f1d0 f4bc 6a68 d6bc 0f3f 0b3d
00000220: d49c 153d 767e bb3c dcde dabc 94a1 6bbc
00000230: f325 2b3c 0cdd d33c da7e 213d cc2e 5dbb
00000240: 29a7 45bc 3514 ac3c 546e 043d 1744 8bbc
00000250: cc72 8fbc ac33 93bc ecef 7fb8 8d6d e53b
00000260: 4516 1b3c b7c3 ba3b 4ee5 463c 5cee 7dbb
00000270: a23f 10bd b22c a3bc d48e 7d3b 0151 e8ba
00000280: 44b4 31bd 3bc5 09bd 030d 94bc 4e35 8cbc
00000290: 2aa7 32bc e427 b7bc 5957 81bb 3fe6 3e3c
000002a0: 50a6 82b9 48e4 873a e0e5 28bc 76cc 2bbc
000002b0: 82c3 1d3c d844 b83b 04d5 2bbb 4ac9 83bc
000002c0: 26b8 4e3c a0b3 4cbc ff33 77bb 5a58 32bc
000002d0: 1155 f43c 22f8 843b 8ca2 f2bc 6993 4abc
000002e0: 8fc6 32bd fe5c 323d 56ad 16bb a877 48bd
000002f0: 80c6 ce39 2945 24bd bed3 193d cc39 453c
00000300: fc7a c0bc 9ed6 bbbc a8db 67bd fefe 133d
00000310: b561 1fbd fec8 c1bc a093 dabc 6aae 1fbd
00000320: 5c4e 3b3d caf1 283c 51f5 8bbc cee4 7cbc
00000330: 45f2 c1bb 01c0 be3c a9ae f83c 0ec5 a0bc
00000340: 19b5 09bc f0d5 1ebd ea60 a03c 4c82 ac3d
00000350: 1868 c43a 88b7 7bbc 55dd a1bc 7291 113d
00000360: 40af c03a 3415 873c 4024 fcba 8263 98bc
00000370: 5ffd 093d 0e82 8b3b fc3e 04bc 608a 76bc
00000380: 6254 13bd 4432 553c 9c77 3c3b b45e 10bb
00000390: da87 ed3b 2d26 173c acdb 153d 67af 2ebd
000003a0: 2ec5 11bd 0153 25bc 192c cdbc 859e 463c
000003b0: e39a fdbb 2c29 aebc ee76 ffbc 9192 29bd
000003c0: 5701 333c 3601 d03c 0a7f 203d 08d2 983c
000003d0: 04fe 713b c6fd fa3b f54a fcbb 3a7c c13c
000003e0: 5e6d cc3c 8455 413b 62bd 30bc e209 9fba
000003f0: ffde 2dbd feb8 ddbc 23a0 aabc 780e 69bc

momentum_buffer f4 [20]
-0.004147464 -0.020111185 0.0016455451 0.00614517 -0.00038615917 0.00086813164 -0.001612846 0.003963755
-0.003764062 0.0010628073 0.0056275437 0.007460227 -0.011394175 -7.892569e-05 0.029216358 0.010947467
-0.0025082007 -0.0012932413 -0.0054438775 0.003388059
00000000: 73e7 87bb 36c0 a4bc 55af d73a 6c5d c93b
00000010: 6875 cab9 5493 633a 2266 d3ba 63e2 813b
00000020: 7bae 76bb e54d 8b3a 4267 b83b eb74 f43b
00000030: a2ae 3abc e884 a5b8 2557 ef3c 015d 333c
00000040: a060 24bb fa81 a9ba 8e62 b2bb 330a 5e3b

momentum_buffer f4 [50, 320]
0.02220147 0.015470596 0.0037172004 0.030315802 -0.0027983906 -0.0034868887 0.003683893 0.020515475
0.0026883483 0.0064673605 0.029958522 0.023998559 0.009272872 0.002260692 0.013156717 0.0016973799
-0.0012527647 0.023072824 0.017478563 0.008091444 0.004885525 0.0046186126 -1.7510061e-05 0.024692621
0.0044259867 0.015242069 -0.00048673083 0.03212445 0.015064846 0.022400836 -0.0020468761 0.026739737
0.00729323 0.0031639817 0.0016818002 -8.76437e-05 0.028527109 0.027170729 0.013136793 -0.00071169017
0.008442422 0.0019897686 0.00200475 -0.0015598069 0.0013949035 -0.00043355234 -0.001145316 -0.00028330254
0.0051650596 0.006516167 0.0034580335 -0.0012058904 0.008336344 0.0059909965 -0.0044709793 -0.005872913
-0.007806279 -0.0069576246 -0.005770787 -0.0011035439 0.0049838345 0.0075711207 0.0035949512 0.0041897125
-0.00016883985 -0.000955434 -0.0029053378 -0.0025979534 0.005530809 0.006809414 -0.00015441477 -6.154973e-05
0.014483359 0.014032302 0.0065392936 -0.0004472432 -0.0064413194 -0.0058280723 -0.00105327 -0.00029441598
0.009553963 -0.002070347 -6.383706e-05 0.005132954 -0.0012331782 0.00019470183 0.0061895573 0.0014712269
-0.00052141777 -0.001235142 -0.0029416534 -0.00017104679 -0.00026866377 0.0008862498 0.00422269 -8.270894e-06
0.0050556334 0.010913335 0.015320224 0.0053129555 3.472851e-05 -2.0532403e-05 0.029002678 0.02323887
-0.00040684454 0.00043697024 0.01677275 0.0063342657 -0.00075090746 0.0073098736 0.011343173 -0.00044533092
-0.0007322274 -0.0016843621 -0.00086663995 -7.0299848e-06 9.238424e-05 6.7247456e-06 -1.852374e-05 1.189491e-05
2.1156484e-05 -0.00021280441 0.0022794502 0.00086919445 -0.00025801646 -0.0010914603 -0.0012009636 -2.766408e-07
0.00027139956 -2.8184379e-05 -1.5746184e-05 -0.00014888885 0.0013086264 -0.00035554994 -2.9351972e-06 -1.9533015e-06
-0.0018274155 -0.00035292725 0.0021815107 0.0031713787 0.00093707576 -0.0028613475 -0.002817426 9.850131e-07
0.00040739332 -0.0012425117 -0.0013056616 -0.00088690105 0.0009026654 -0.002991657 -0.0012418508 -0.0019830405
-0.00139484 -0.0022070939 -0.0007405557 2.0543794e-05 -0.000358317 -0.0009757321 -0.0015034385 -0.00013784022
0.00813661 0.0019986664 -0.003559299 -0.0035449355 0.006799262 0.021167146 0.004947601 -0.0039154105
-0.00467487 -0.00563089 -0.004514979 -0.0037898198 0.0070514036 0.00078679656 0.00062539394 0.003127561
0.0012670173 -7.538584e-05 -0.00037008288 5.176058e-05 -0.0022105186 -0.000457508 6.6618915e-05 0.00091436395
-0.0019797878 -0.0007945749 -0.00078835106 -0.0017224585 0.0012673207 0.0006449999 0.004776191 -0.00014350208
0.002344898 -0.0041922214 -0.0029848183 -0.0023869819 -0.0036841629 0.003188763 0.0006078366 -0.00076913973
0.002493844 2.3192842e-06 -0.0034722271 0.001071597 -0.004245332 -0.004139166 -0.0023585786 -0.008656764
2.6205414e-06 -1.9289464e-06 -5.6120007e-07 7.545234e-06 0.0036644258 0.005828746 -0.002211361 -0.001214531
-0.0019366092 -0.0016818462 -0.0007525205 1.3312584e-05 -0.00086187903 -0.004294279 -0.0043089017 -0.0030756444
-0.0008505379 -0.0046580615 -0.004094775 -0.002753202 -0.0009005822 0.0024818296 0.0012540213 -2.1778867e-05
0.016824376 0.009091662 -0.0070115686 0.006104229 0.0021033194 -0.008951688 -0.002407504 -0.003826409
0.00023364952 -6.3662344e-05 -8.258694e-07 5.370792e-06 0.020481283 -0.00024883577 0.0015482643 0.005680905
0.0023464812 -0.0007269879 0.013550647 0.01964061 0.003986724 0.009489884 0.01574761 0.012368547
00000000: dbdf b53c 6278 7d3c 469c 733b d858 f83c
00000010: 3465 37bb 4984 64bb 786d 713b 1210 a83c
00000020: 002f 303b 27ec d33b 936b f53c a098 c43c
00000030: 3eed 173c 1e28 143b 458f 573c 9e7a de3a
00000040: cf33 a4ba 3803 bd3c 342f 8f3c fa91 043c
00000050: c116 a03b bb57 973b 92e2 92b7 2e48 ca3c
00000060: de07 913b dfb9 793c e82f ffb9 ed94 033d
00000070: 8bd2 763c f581 b73c e224 06bb 4b0d db3c
00000080: 0cfc ee3b ce5a 4f3b da6f dc3a 5acd b7b8
00000090: afb1 e93c 2695 de3c b43b 573c b890 3aba
000000a0: 1652 0a3c c766 023b 2062 033b 6f72 ccba
000000b0: 32d5 b63a 694e e3b9 6e1e 96ba 3988 94b9
000000c0: a93f a93b 9285 d53b 2da0 623b f80e 9eba
000000d0: 2995 083c 1f50 c43b 4b81 92bb 9171 c0bb
000000e0: d1cb ffbb c9fc e3bb df18 bdbb caa4 90ba
000000f0: 6f4f a33b 2a17 f83b 4699 6b3b db49 893b
00000100: 9a0a 31b9 1776 7aba 7b67 3ebb 6d42 2abb
00000110: ca3b b53b 8121 df3b 66ea 21b9 4214 81b8
00000120: 9c4b 6d3c bee7 653c 9247 d63b f77b eab9
00000130: b411 d3bb 6af9 bebb e00d 8aba d85b 9ab9
00000140: 3a88 1c3c a9ae 07bb 43e0 85b8 5732 a83b
00000150: 98a2 a1ba e028 4c39 c5d1 ca3b 2fd6 c03a
00000160: c1af 08ba 7de4 a1ba c1c8 40bb 065b 33b9
00000170: 71db 8cb9 3853 683a 7e5e 8a3b 38c3 0ab7
00000180: baa9 a53b d8cd 323c ad01 7b3c 4d18 ae3b
00000190: 74a9 1138 003d acb7 0697 ed3c 715f be3c
000001a0: c04d d5b9 2719 e539 0267 893c ac8f cf3b
000001b0: 8cd8 44ba aa87 ef3b b7d8 393c 4e7b e9b9
000001c0: f3f2 3fba d0c5 dcba 392f 63ba 1ce3 ebb6
000001d0: 69be c138 20a5 e136 6e63 9bb7 4090 4737
000001e0: 3479 b137 4024 5fb9 d462 153b a7da 633a
000001f0: 6246 87b9 550f 8fba a769 9dba 3985 94b4
00000200: a24a 8e39 7e6d ecb7 ac16 84b7 0c1f 1cb9
00000210: 3786 ab3a 1b69 bab9 4efa 44b6 7715 03b6
00000220: e485 efba 1809 b9b9 adf7 0e3b e8d6 4f3b
00000230: 17a6 753a 7285 3bbb 91a4 38bb cb34 8435
00000240: 6897 d539 c6db a2ba bc22 abba ec7e 68ba
00000250: d9a0 6c3a ad0f 44bb 99c5 a2ba e6f5 01bb
00000260: 10d3 b6ba e4a4 10bb da21 42ba 7655 ac37
00000270: 7edc bbb9 46c8 7fba 060f c5ba 3489 10b9
00000280: 6a4f 053c 0ffc 023b 2143 69bb 2652 68bb
00000290: 58cc de3b b966 ad3c 7c1f a23b d84c 80bb
000002a0: a72f 99bb 5483 b8bb 64f2 93bb a05e 78bb
000002b0: 760f e73b 0641 4e3a 7af1 233a c4f7 4c3b
000002c0: 0c12 a63a 7718 9eb8 af07 c2b9 8019 5938
000002d0: 59de 10bb afdd efb9 c2b5 8b38 edb1 6f3a
000002e0: 54bf 01bb 054b 50ba 58a9 4eba 1ec4 e1ba
000002f0: 3a1c a63a 3615 293a 9881 9c3b 0c79 16b9
00000300: dcac 193b e75e 89bb f19c 43bb e96e 1cbb
00000310: ff71 71bb 91fa 503b 3957 1f3a 18a0 49ba
00000320: c26f 233b 00a5 1b36 4e8e 63bb d474 8c3a
00000330: 6d1c 8bbb d7a1 87bb 6292 1abb 1ad5 0dbc
00000340: 8fdc 2f36 0c73 01b6 60a5 16b5 112d fd36
00000350: dd26 703b 11ff be3b 7bec 10bb e630 9fba
00000360: d2d5 fdba 6571 dcba cc44 45ba 1d59 5f37
00000370: b9ef 61ba 06b7 8cbb b031 8dbb c090 49bb
00000380: a2f6 5eba a7a2 98bb 762d 86bb 116f 34bb
00000390: 0c15 6cba 31a6 223b f95d a43a c3b1 b6b7
000003a0: 46d3 893c 32f5 143c 4dc1 e5bb fc05 c83b
000003b0: d8d7 093b 1aaa 12bc 37c7 1dbb 7ec4 7abb
000003c0: d1ff 7439 7682 85b8 50b1 5db5 c136 b436
000003d0: 5dc8 a73c 2c76 82b9 21ef ca3a e326 ba3b
000003e0: 6cc7 193b 5593 3eba 8803 5e3c 58e5 a03c
000003f0: 11a3 823b 757b 1b3c 2201 813c 72a5 4a3c

momentum_buffer f4 [50]
0.0024027587 -0.000829765 -0.010175882 0.0008304586 0.003375649 0.0028866697 2.048022e-06 -0.0067498097
-0.016424002 0.02011381 -0.004118373 -0.00094163534 -0.0008152126 0.0034230005 -0.0018487406 -0.002588604
0.0005799724 0.001222261 -0.0010552456 -0.0010373947 -0.0014644607 0.010734955 0.0011434233 -0.008930314
-0.010898587 -0.0025133572 -0.00031468243 0.001133858 -0.0021944912 -0.025063016 -0.0023286415 0.0020746726
-0.00027623726 -0.002893906 0.011936479 0.0010960615 0.00077507173 -0.002763508 -0.0010734665 -0.00012151737
-0.0010435903 0.01603437 0.026777485 0.0019054279 0.0009544977 -0.0035433772 -0.0011541956 -0.00042206224
-0.00062267267 0.021239372
00000000: 9a77 1d3b 9684 59ba beb8 26bc 22b3 593a
00000010: fe39 5d3b 482e 3d3b c070 0936 822d ddbb
00000020: a18b 86bc b8c5 a43c 6bf3 86bb 14d8 76ba
00000030: feb3 55ba 6b54 603b 7151 f2ba 92a5 29bb
00000040: 4a09 183a 4634 a03a 2b50 8aba 31f9 87ba
00000050: 26f3 bfba aae1 2f3c ebde 953a 7450 12bc
00000060: fd8f 32bc 23b7 24bb f6fb a4b9 f69d 943a
00000070: 74d1 0fbb f450 cdbc 1f9c 18bb 3bf7 073b
00000080: f0d3 90b9 b0a7 3dbb 3991 433c b9a9 8f3a
00000090: 2f2e 4b3a f81b 35bb 8fb3 8cba 24d7 feb8
000000a0: 14c9 88ba 835a 833c 755c db3c 8dbf f93a
000000b0: 4237 7a3a 0138 68bb 6148 97ba 3c48 ddb9
000000c0: db3a 23ba 31fe ad3c
