assignment_2/mnist_mnist/model/mnist_cnn.pt (torch, 179918 bytes, 16 tensors)

conv1.weight f4 [10, 1, 5, 5]
00000000: 06fd 23be db1b 22bd 2df3 683e 0813 d23c
00000010: 604c d2bd 3eaf c03d f211 89bb 5574 bcbd
00000020: e484 8f3e 1a6a 243e a688 593e abe7 28bd
00000030: fd24 9f3d d68e ae3e c664 9a3d 87af ebbb
00000040: c5c7 e03d f847 933e 40d7 673e 394d f93c
00000050: e036 e13c 5e1f 193d 4935 e4bd b5e8 3c3d
00000060: 2b7f 863e ec3b 2fbd 4268 47be e516 253d
00000070: d5e1 29be 867a 303e ec3e eabd 3c36 60be
00000080: 0641 0e3c 0f72 1e3d 7290 56bd 6246 bf3c
00000090: f34c 2c3e 0cdc 2fbc 83b7 653e 1ae1 873d
000000a0: 89b0 363e 5b9e 193e f01a 203e 73ee 533e
000000b0: df2c 8f3e e32a 28be 5a5d 6dbc ca6f 8ebd
000000c0: 33c1 4b3e f38d 3bbd db61 833d dd75 2bbc
000000d0: 4959 6bbe 7470 1abe d3cb 99be 6ad9 72bd
000000e0: 41f8 9dbd 2e94 78be d3db 7bbe e123 3bbe
000000f0: 16b9 c3bd 2e86 4d3e 94c5 583d f4df 00be
00000100: 21f7 263e 4b77 7b3e e40f d3bc be5b b83e
00000110: afd5 b23e 00f3 033e bac2 353e 362a 963d
00000120: c617 433e 34e1 133e 47f3 3b3e 762b 253e
00000130: 0427 ac3e 613a 693e 463a a5bd c554 06be
00000140: 6fee 8b3e f00b ca3e 9a15 443e bcba b03e
00000150: 12dd 6c3e 39d1 f43c 2a9b 3c3e fab9 d23e
00000160: 12b8 1a3e 024b 453e de64 713e 8ae4 8f3d
00000170: 66ac 0a3e 3589 d43d 11c9 0c3e 00d7 813d
00000180: 3f99 91bd 0a22 abbd c0c5 11be 4986 5d3d
00000190: 6f55 a4bc 8299 1fbe 8a60 14be c229 96bd
000001a0: 3ce4 6d3e 8ab3 e1bc 91ce d1bd 4808 edbb
000001b0: 475f 1abe 72b8 cb3d 4c7b 81be d004 19be
000001c0: 212d aebd 1798 07bd 0364 943e ff24 abbd
000001d0: e7a8 91bd 8a33 46be 69b4 543e a794 0d3d
000001e0: 2444 03bc e4c4 13be 3e38 9cbd a201 7e3e
000001f0: cfa6 893e 8cca 15be a4ec 26be 0340 a33d
00000200: f284 453e e83f 1d3e 7804 13be cbe6 0b3c
00000210: 105c 6fbd 0cf1 a7bd b167 863e 2656 49be
00000220: 7274 7c3d 048a adbd a2e9 0c3e 56f7 5e3e
00000230: ed40 85bd 362f b6bd b81e 06be d85c 68be
00000240: 36e0 9f3b c403 bb3c 1d38 11be 1e52 76bd
00000250: ee0f af3d e9a2 2fbe 2618 0b3e 80e7 663e
00000260: 0ef6 933e 03b0 063d 5d87 333e da64 4ebd
00000270: 5490 35bd af2e 12be 080a a73d fa74 633e
00000280: 4d1d 87be fbc0 93bc b7f3 5f3d 172f 713e
00000290: 3c31 bd3d 70ed 44bd a1ec 91be 180f 36be
000002a0: b66d 663e 5670 403e 304f 1bbe 0a94 71bd
000002b0: a6dc 3ebe 4fd0 273e f01f a63e 6a47 3abe
000002c0: 50da ecbd 8f39 d5bd 1a51 22bd 8ddd 2e3e
000002d0: 2d9e cf3c 0056 a5bd 2b7a 67be 404a f83d
000002e0: 4f3a 04bd 50e1 473e d60f 823d fef9 fb3d
000002f0: 1e6e 24be 4b14 5dbe 61be 48be fdac 29be
00000300: b2b4 55bb af62 233d c580 4fbe 2c6b 8d3d
00000310: 8e46 7d3d 4ea1 07be 90cc 60bd 3135 cbbd
00000320: 1416 ad3c d1da 30be 5a7c 02be 8324 633e
00000330: 7d74 113e 99fc 32be 8047 713d 64b0 a63d
00000340: ba46 943e b3b5 6c3e 2441 0bbe 1c6c 733d
00000350: a4c6 6dbd b99a b63e 4c0c 903e 4d35 113e
00000360: 0b48 4c3c 6473 a13e f818 a03e 8606 663e
00000370: cea1 323e cf5e c33d 1c25 583d eb25 14be
00000380: ea6b a6bd f9ce 163e eaad 32bd 432e e33d
00000390: 22c1 273e aa71 49be 4313 ad3d 06da f13d
000003a0: 2cbd 16be 142a f1bd 27fb eabd d55c a0bd
000003b0: a524 023e 3f90 1fbe daf0 c0bc 72bd 5b3d
000003c0: a68e 193d c586 0c3e 868d aebd 672c 47be
000003d0: 5b03 56bc d9a4 253e bd82 a7bd a953 9dbc
000003e0: 3a7b 1abe 08d8 053d
-0.1601449 -0.039577346 0.22749014 0.02564384 -0.102684736 0.09408425 -0.0041830475 -0.09201876
0.28031075 0.160561 0.21243533 -0.04123656 0.07770727 0.3409335 0.07538752 -0.0071925553
0.10975603 0.28765845 0.22640705 0.03043233 0.027491987 0.03738343 -0.11142976 0.046120364
0.26268896 -0.042781755 -0.19473365 0.040305037 -0.16590054 0.17234239 -0.11437783 -0.21895689
0.008682495 0.038682994 -0.052383848 0.02334899 0.16826229 -0.010733616 0.22433285 0.066347316
0.1784078 0.15001814 0.15635276 0.2069643 0.2796392 -0.1642261 -0.014487589 -0.06954916
0.19897918 -0.04578967 0.06415149 -0.0104651125 -0.22983278 -0.1508196 -0.30038318 -0.059289373
-0.07713366 -0.24275276 -0.24595575 -0.18275405 -0.09556787 0.20070717 0.0529228 -0.12585431
0.1630521 0.24557225 -0.025764413 0.36007494 0.34928653 0.12885666 0.17750064 0.0733227
0.19052038 0.14441377 0.18354522 0.1612986 0.33623517 0.22776176 -0.080677554 -0.13118275
0.27330348 0.39462233 0.19148865 0.34517467 0.23131207 0.029884921 0.18418565 0.41157514
0.1510928 0.19266894 0.23573634 0.07026012 0.13542327 0.10377733 0.13748576 0.06339836
-0.071093075 -0.08356102 -0.14235592 0.054083142 -0.02006027 -0.15585902 -0.14489952 -0.073321834
0.23231596 -0.027551431 -0.102444775 -0.007233653 -0.15075408 0.099472895 -0.2528938 -0.14943242
-0.085047014 -0.03310403 0.28982553 -0.08356666 -0.07112294 -0.19355598 0.20771946 0.034565594
-0.008011851 -0.14430577 -0.07627915 0.2480531 0.26885077 -0.14628047 -0.16301209 0.07971194
0.19288996 0.1535641 -0.14357173 0.008538912 -0.058437407 -0.08200273 0.26250985 -0.1966177
0.06163449 -0.0847359 0.13760999 0.21774039 -0.06506524 -0.088957235 -0.13097656 -0.22691667
0.004879023 0.022828944 -0.14181562 -0.060136907 0.0854796 -0.17151989 0.1358343 0.22549248
0.28898662 0.0328827 0.17532106 -0.05038915 -0.044327095 -0.14275621 0.0815621 0.22212592
-0.26389542 -0.018036356 0.054675784 0.2355312 0.09237906 -0.048078 -0.28500846 -0.17779195
0.22502789 0.18792853 -0.15166926 -0.05897907 -0.18638858 0.16388057 0.3244624 -0.18191305
-0.11565077 -0.10411369 -0.039628126 0.17076702 0.025343979 -0.08073044 -0.22605197 0.12123537
-0.03228217 0.19519544 0.06350677 0.123035416 -0.16057631 -0.21589772 -0.19603874 -0.16569896
-0.0032608924 0.039889034 -0.20263965 0.06905207 0.061834864 -0.13245127 -0.054882586 -0.09922255
0.021128692 -0.17270972 -0.12742749 0.22181897 0.14204593 -0.17479171 0.05890608 0.081391126
0.2896021 0.23116188 -0.13599068 0.059429273 -0.058050767 0.3566492 0.28134382 0.14180489
0.012468348 0.3153335 0.3126905 0.22463426 0.17444536 0.09539568 0.052769765 -0.1446759
-0.08126052 0.14727391 -0.04362289 0.11092808 0.16382268 -0.19672266 0.084509395 0.11809163
-0.14720601 -0.11775604 -0.11473685 -0.07830206 0.12709291 -0.1558237 -0.023552347 0.053647466
0.037489556 0.13723285 -0.08523087 -0.19450532 -0.013062323 0.16176166 -0.08179233 -0.019204931
-0.1508607 0.032676727

conv1.bias f4 [10]
00000000: d507 5b3e 48ee 18bd 64b5 273e 894a 913e
00000010: 92df d03d c31d f63d e6c0 473e d935 533e
00000020: a272 57bd d451 5bbb
0.21389706 -0.037336618 0.16377789 0.28377178 0.10198893 0.12017395 0.19507179 0.2062601
-0.052599557 -0.0033465521

conv2.weight f4 [20, 10, 5, 5]
00000000: d1f0 513d dc23 00bd 7218 42bc b5a2 c33c
00000010: dd15 84bc 0c4f 17bd 3332 85bd 4932 f23c
00000020: 1030 2f3d b763 e53c 4896 47bd fd2f 63bc
00000030: e70f 853d 0884 d639 1bc6 583d d34e 9eb9
00000040: 259b 49bd 20bf 55bc a26b 233c dd08 4b3c
00000050: 25bf a53c aca3 003d c28f aabd 5d7c a4bd
00000060: 7820 9dbd 1e1b 783d 56b9 60bd 0a8e 57bd
00000070: 9553 9cbc 2a19 6dbd 10e6 1f3d fbbc 8bbd
00000080: 593b 8ebd 89b0 8fbd 69e7 523d f007 a93c
00000090: 4ee9 dcbb 1393 803c e642 82bb fd4a 87bb
000000a0: c978 7a3a 08d9 ccbc d4b0 5ebc 94f7 73bb
000000b0: c6c6 9abb 283f 11bc edce 073b 3722 743c
000000c0: 8ac1 45bc e277 4bbd 7824 2bbd 8a74 97bd
000000d0: ef5e 98bd a3b2 853d aa5e 8f3d 007c 963c
000000e0: fe8a 6ebd 82d1 e3bb 5d93 5a3d 2fc0 b63c
000000f0: a1cb 053d 39e1 bc3c f222 743d 566d 0d3d
00000100: 219a cc3c 83c4 593d 24fc 9c3d 9ce2 8d3c
00000110: 88fe 67bd f448 c2bd be34 6bbc 8ea6 46bd
00000120: 451c 513d cd6f d33c 3157 f0bc 2d5f 233d
00000130: 84c2 c23b cfbb ed3d 3874 903d 3c1d 48bd
00000140: fb9f b9bd 8c19 12bc 51f6 6fbc c466 883d
00000150: 7864 ae3d 96c0 1c3c 4644 3bbd 425c 88bc
00000160: 9de5 a63c 9ef8 343d eb62 a33d 883e 953d
00000170: dae1 eb3c 4c5c 073d d4b0 0e3b cde4 a2bb
00000180: 4863 debc 77e4 903b cbb9 20bd 011b 90bd
00000190: 01ce 5fbd 3f98 bfbd b134 b53b 176c cbbd
000001a0: f5ce 993c 7857 8dbd c1ef 22bc 0527 d3ba
000001b0: afa1 8bbd 4bcd 613c 47ef 9bbd cac5 4ebd
000001c0: 9d8a b1bc c67e 0abd 3af5 503d ef18 3f3c
000001d0: f2c9 a4bd d31d 8bbd 307a 0cbd 8317 efbc
000001e0: 7b5c d5bc 060b 9ebd 2f6f 5dbd 3da6 293d
000001f0: e4aa dd3c 629f 803d 190c 1dbd 8e1d 873d
00000200: dca0 7cbd efbd 83bd 631b 073d 11ba 4c3d
00000210: 1408 483c ff7b 023d 4779 18bd 04ab 923b
00000220: 14b2 8fbb 975e 5b3d 823c 51bd bfae bebb
00000230: eef1 113a 2d9c f1bc 9ecb 08bd 9371 b7bb
00000240: 39bd 7a3d c9c4 21bd 865a a8bc df01 0fbd
00000250: 31d4 0bbd 40af 81bd c212 a6bc db90 8e3d
00000260: 199b ac3d b5fe 693d f7c5 11bc d372 9ebc
00000270: 9217 003d ab06 323c 173d 203d 9455 f33c
00000280: e7f1 1b3d def2 7d3c f02c 20bd 65d2 c53c
00000290: eb45 15bc c13c 2fbd ee7a 5abd 51eb 2cbc
000002a0: 8371 e1bc 79de 923d 8d69 b3bc 478b d23c
000002b0: fc97 993c 45ee 1ebc 503e 3bbc 3ac1 fabc
000002c0: 6c47 bdbc e70e ddbc 4b21 c73c 97da 04bd
000002d0: 47e7 2dbd 69ca 323d 0dc4 c73b f8a4 553d
000002e0: f871 973c 67cc 253d bd59 1a3d 9dd9 dbbc
000002f0: 4ac6 3a3c 875b 55bd 9068 47bc 4cf5 993c
00000300: d0c8 2c3d 7cc6 673d fb72 f5ba f813 463d
00000310: c803 643c 4816 073d e16e 3cbd 58a1 3dbd
00000320: aae4 ceba 5a86 803d 8e02 813d f2eb afbd
00000330: 110b b6bd 8951 9dbd f9de a7bd b7a6 3dbd
00000340: 18c7 183d 8d61 1a3d 168f 76bd 69ad 1abd
00000350: dcb9 2d3d 49c9 953d b253 c93d 1845 433a
00000360: 63fe 4f3d 3be4 b23c 8357 4c3d 1e00 8fbc
00000370: bb0f a03c 1a24 2abd 7fe5 f8bc ba29 28bd
00000380: ea32 a8bd e80b 51bd 8533 663c 43d8 2cbd
00000390: 1101 15bd 298d 48bd e01b ebbc f254 0cbc
000003a0: 2459 a23c f184 20bd e828 42bd dbd7 1ebc
000003b0: 209c 63bd 5dc3 143d 493c aabd c5f9 8fbd
000003c0: 686f 3cbd b7d1 94bd cd8f e539 d9ad 0dbd
000003d0: 100a 72bc 51ae 77bc 33cf 0d3d dd31 8abc
000003e0: 1ab6 ce3c 40b3 f0bc 14dc 413d 1ca4 48bd
000003f0: e461 373d 8fcc 213d 7dd0 8abb bf13 ac3c
0.05125505 -0.0312842 -0.0118466485 0.023881296 -0.016123706 -0.03694062 -0.06503715 0.029564993
0.042770445 0.02800165 -0.048727304 -0.013866422 0.06497174 0.00040915632 0.052923303 -0.00030194837
-0.049220223 -0.013046056 0.009974392 0.01239225 0.020232746 0.03140609 -0.08328201 -0.08031533
-0.076722085 0.060572736 -0.05486425 -0.052625693 -0.019082824 -0.057885326 0.039037764 -0.068231545
-0.069449134 -0.07016093 0.05149022 0.020633668 -0.0067416793 0.01569513 -0.00397526 -0.0041288123
0.00095547416 -0.025005832 -0.013591964 -0.0037226425 -0.0047234027 -0.008865155 0.0020722703 0.014900736
-0.012070069 -0.049674876 -0.041782826 -0.07395275 -0.07439982 0.06528213 0.070004776 0.018369675
-0.058238022 -0.0069524655 0.053363193 0.022308437 0.0326649 0.023056613 0.05960364 0.0345281
0.024975838 0.053165924 0.076652795 0.01731997 -0.056639224 -0.09486571 -0.014355836 -0.048498683
0.05105235 0.025810147 -0.029338451 0.03988569 0.005943598 0.11608087 0.07053417 -0.048856005
-0.09063717 -0.008917224 -0.014646129 0.06660226 0.08515257 0.0095674 -0.045719407 -0.016645554
0.02037316 0.044182412 0.079778515 0.072873175 0.028794218 0.033047006 0.0021772878 -0.004971123
-0.02714695 0.0044217664 -0.039239686 -0.070364006 -0.05463982 -0.093552105 0.005529963 -0.09932726
0.018775443 -0.06901449 -0.009944857 -0.0016109651 -0.06817948 0.013781856 -0.07613998 -0.050481595
-0.021672541 -0.033812307 0.051015116 0.0116636595 -0.080463305 -0.06792798 -0.034296215 -0.029186016
-0.026045075 -0.07716946 -0.05406111 0.041418303 0.027059026 0.062804 -0.038341615 0.06597434
-0.061676845 -0.06432711 0.032985102 0.049982134 0.012208957 0.031856533 -0.037225034 0.004475953
-0.0043852422 0.053557005 -0.051083095 -0.005819171 0.00055673614 -0.029493416 -0.03339731 -0.005598256
0.061215613 -0.03949431 -0.020550977 -0.034913894 -0.03413791 -0.063322544 -0.020272616 0.06961223
0.0842802 0.057127673 -0.008897296 -0.019341862 0.03127248 0.010865848 0.03912076 0.029703893
0.038072493 0.015499799 -0.039105356 0.024148175 -0.009110908 -0.04278255 -0.05333989 -0.010554151
-0.027519947 0.071713395 -0.021900916 0.025701178 0.01874923 -0.009700363 -0.011428431 -0.030609716
-0.023105346 -0.026984645 0.024307868 -0.032435026 -0.04245689 0.043650065 0.006096369 0.05215928
0.018486962 0.040478136 0.037683237 -0.026837165 0.011399815 -0.05208924 -0.012170926 0.018793724
0.042183697 0.056585774 -0.0018726283 0.048358887 0.013916917 0.032980233 -0.04600418 -0.046296448
-0.00157847 0.062756255 0.062993154 -0.08589925 -0.088888295 -0.07681567 -0.081968255 -0.04630157
0.037299246 0.037690688 -0.06019505 -0.037763033 0.042413577 0.07313783 0.09830417 0.00074489554
0.05077971 0.021837344 0.049888145 -0.01745611 0.01953875 -0.041538335 -0.03038287 -0.04105542
-0.08212836 -0.051036745 0.014050369 -0.04219843 -0.03637797 -0.048962746 -0.028699815 -0.008565174
0.019817896 -0.039189283 -0.047402292 -0.009695019 -0.055568814 0.036319125 -0.0831228 -0.07030062
-0.046004683 -0.072665624 0.00043785424 -0.034589622 -0.014772907 -0.015117244 0.03462143 -0.01686948
0.025233317 -0.029382348 0.047329023 -0.048984632 0.04477109 0.039501723 -0.0042362795 0.02100551

conv2.bias f4 [20]
00000000: 5d0a ed3b db49 8f3d faf6 873c 7b7c 763d
00000010: 10a7 243c 5727 6abd 47b7 b13c 5d90 84bc
00000020: 6ecc bd3b 3a76 e0bb 3b2c 02bd c3a3 25ba
00000030: 1e63 2b3d 638f 73bd 539e c33c e710 6a3b
00000040: 6f94 c3bb 72af 513d 2944 6cbc a267 aa3c
0.0072339014 0.06996509 0.01659726 0.060177308 0.010049596 -0.057166424 0.021693839 -0.016182119
0.005792192 -0.006850031 -0.031780463 -0.0006318653 0.041842572 -0.059462916 0.023879206 0.003571564
-0.0059686224 0.05119271 -0.0144205475 0.02080137

fc1.weight f4 [50, 320]
00000000: 76ff 283d 0bf4 b63a 26a6 993d 486e e3bc
00000010: 35b3 2a3d 9beb 3f3d e47f cabc b7b7 eebc
00000020: e7a2 3ebd d0f9 03bd dbae d73c e996 933c
00000030: 1b2e 86bc df0a c1bc c127 81bc 331b f3bc
00000040: b165 bebc 10ce 11bd 73fe 0b39 c203 29bd
00000050: 85c2 2fbc 772c 693d f933 863d 178f 653d
00000060: a8c9 95bc 3fbf f6bc ac5e 353b 319f 323d
00000070: b71d 86bc 1277 f7bc becd 6f3d a889 993c
00000080: fbfe ed3c 97bc 3d3d 5307 ae3b 9ee1 1bbd
00000090: c68c 183d fb5c 82bd f880 fbbc 1441 953c
000000a0: 713d 46bd 1c6d 96bc eb42 3b3b 882d 903c
000000b0: c1ab 30bd 41c0 3b3c 37e2 c13d 37c0 913c
000000c0: 5a31 58bd 8a63 233d c515 e3bc 8de4 a7bb
000000d0: 90ba 333d 8657 873c f2a2 efbc 4fa7 50bd
000000e0: 388a 863d 4546 763d f005 a4bc 2560 443d
000000f0: 051a 85bb ebe8 81bc 6f05 1f3d 665b 1b3d
00000100: a258 033d 5550 d43c d753 b63d a297 f43c
00000110: 3ab3 9dbc b756 74bd 0f6e cbbc 875e 8b3c
00000120: 5d21 c6b9 047b 34bc 4bb7 eebc 03f7 7ab9
00000130: d837 403d 957b 933b 0c22 823d d5e3 67bd
00000140: 195b 503c 7f46 a53d b249 3bbc 293b ccba
00000150: f18c 8a3d d66e 9d3d 4253 debc c8a0 08bd
00000160: 8d4c 33bc 3e7a 963c 9af4 bcbb ab74 59bd
00000170: 7788 55bd 0b44 6fbd 4cf0 7f3c 83de 5f3d
00000180: 0de8 153d 6400 7b3c 4e5e d33c fbbc 4b3d
00000190: 75fc 2b3d 001f 2a3c 4980 1a3d d477 e13b
000001a0: 36e6 f6bb 8f9e a9bd 927e 033d 0955 c53b
000001b0: fa8c 6abd 3de6 023d 4f80 38bb cd41 5f3d
000001c0: 2f9b 693b b006 e3bc 87fa 0abd ce35 c3bc
000001d0: 905f 4f3c bd01 79bc f21d 5a3c 4550 18bd
000001e0: 462e 05bd 8922 34bc 128d 7ebc 45f1 5d3d
000001f0: dda7 6e3c 7abc 84b8 6605 c13c caf3 1b3c
00000200: 21c9 3a3a 56cb fabc bb23 80bd 03d1 c3bc
00000210: 9e40 c3bc 41f5 1fbd 8549 373d 6018 fbbc
00000220: 446e 17bc e28a 0fbc 125b 983d 18a8 9b3c
00000230: e65c 2dbb 0c91 613d bca4 393d d9cc 213d
00000240: 344e 14bd 15e3 5c3d 60f5 3f3d b1d0 b2bc
00000250: 2f4c d43b 0a60 3e3d 2a3c 443d 638c e13b
00000260: 90b3 d7bc 20b9 eebc 6ab4 8cbd 538a 99bc
00000270: 0783 2fbd b3f6 8fbc 79bc e63b 8271 573c
00000280: 9584 9c3c 2c85 15bc bdda 87bb 868e 513c
00000290: b6ea 72bc 76f4 fabc 2e4b 19bd 2d56 86bb
000002a0: 15b1 713d 2dff 9d3c 189f 9bbd 8216 173d
000002b0: c165 4abd cb23 223d b90d 0d3d e69b 183c
000002c0: 5a22 00bb 7476 503d a40a 403d c2b4 943b
000002d0: 68ac fb3c 3901 04bd 90c0 12bb bd58 c03c
000002e0: c078 a2ba e443 67bd fc41 a0bd bfa6 6e3d
000002f0: 988a cabc 3eb4 2fbd eef6 e8bb 60e4 813d
00000300: 3cbc 08bd 1103 a7bc 81e1 833c bb0e fcbc
00000310: 7dce cbbc 91cd b0bc 55a4 54bd 3d63 353d
00000320: 8e24 083c d63f 20bc b8e1 debc 16d3 243c
00000330: 07cc 963d 061e 213d 2569 ce3d 050d 203c
00000340: f7a4 6abd fa4b 793d cf58 4e3c bc54 f7bc
00000350: 9ad8 0abd 6500 3cbb 8e88 7d3d 6019 f4bc
00000360: 9b36 48bd d4f5 b93c 38a7 42bd b236 ae39
00000370: 59a2 843b 818d fdbc 5748 1bbd a1ca 473d
00000380: 16df 9a3c c261 eeba 516d 95bd 22f0 2cbc
00000390: 9134 41bc 587f 553c 0f2e d13c b8b2 4d3d
000003a0: 1248 373b a673 ff3c d0ce 973d 107b da3c
000003b0: cc71 983c 94cc cc3c 0ffa adbc 06b3 7ebc
000003c0: 3e0b cabc 307e b13b c6cf 5c3d 7b77 6ebc
000003d0: bc50 863c c8ff a7ba 8a2d af3c 79e8 4ebc
000003e0: cd2d bfbd 4206 533b 9b72 5dbd 8b57 c53c
000003f0: d800 883c 8991 e73c ed5f 30bd 8a39 c63c
0.04125925 0.0013958229 0.075023934 -0.027762547 0.04167481 0.04685555 -0.024719186 -0.029140336
-0.046542075 -0.03222066 0.026328495 0.018016296 -0.016379407 -0.023564754 -0.015766026 -0.029676056
-0.02324185 -0.035596907 0.00013350863 -0.04126335 -0.010727529 0.05692717 0.06552882 0.056044664
-0.018284634 -0.03012049 0.0027674837 0.043608848 -0.016371591 -0.030208144 0.05854582 0.018742397
0.029052248 0.04632243 0.0053109317 -0.038056962 0.037243627 -0.06365391 -0.030701146 0.018219508
-0.04839844 -0.018362574 0.0028573822 0.017599836 -0.043132547 0.011459411 0.09466975 0.01779185
-0.05278144 0.03988985 -0.027720341 -0.005123681 0.04387909 0.016521227 -0.029252503 -0.050940808
0.06569332 0.060125608 -0.020022362 0.047943253 -0.0040619397 -0.015858134 0.03882354 0.03792896
0.03206695 0.025917212 0.0890271 0.02985746 -0.019250501 -0.05965301 -0.024832753 0.017012848
-0.0003779036 -0.011015657 -0.029140135 -0.00023933877 0.046928257 0.004500816 0.0635415 -0.056613762
0.012717032 0.08070087 -0.011431145 -0.0015581596 0.06765164 0.07687156 -0.02713931 -0.033356458
-0.010943544 0.018368836 -0.0057664635 -0.05308978 -0.052132096 -0.0584145 0.015621256 0.054655563
0.036598254 0.015319917 0.025801804 0.049740773 0.04198881 0.010383368 0.03772 0.0068807397
-0.0075347675 -0.08282196 0.03210313 0.0060221 -0.057263352 0.031957854 -0.002815265 0.054506112
0.0035645475 -0.02771315 -0.033930328 -0.023829367 0.012657061 -0.015198168 0.013312804 -0.037185926
-0.032514833 -0.010994562 -0.0155365635 0.05418517 0.014566389 -6.329357e-05 0.023562144 0.009518573
0.00071253075 -0.030614536 -0.06256815 -0.023903375 -0.023834523 -0.03905225 0.044747848 -0.030651271
-0.009242598 -0.00876114 0.07439245 0.019001052 -0.0026453077 0.055069968 0.04532312 0.039502
-0.036207393 0.0539275 0.046864867 -0.021828027 0.0064788084 0.04647831 0.04790894 0.0068831905
-0.02633074 -0.029141009 -0.06870349 -0.018742716 -0.042849567 -0.01757369 0.0070415107 0.013149621
0.019106189 -0.009125989 -0.0041459487 0.012790328 -0.014826467 -0.030634146 -0.037425213 -0.0040996284
0.05900677 0.019286716 -0.07598704 0.0368867 -0.049413446 0.039584916 0.034436915 0.009314513
-0.0019551725 0.050894216 0.046885148 0.0045381496 0.030721858 -0.03222773 -0.0022392608 0.023479814
-0.0012395605 -0.05646123 -0.078250855 0.05826449 -0.02472429 -0.0428965 -0.0071095144 0.06342387
-0.03338264 -0.020387204 0.01609874 -0.030768743 -0.024878735 -0.021582397 -0.05191453 0.044284094
0.008309497 -0.009780845 -0.02720724 0.010060092 0.07363134 0.039335273 0.100786485 0.009768729
-0.05728623 0.060863473 0.012594416 -0.030191772 -0.033897974 -0.0028686759 0.061897807 -0.029797256
-0.0488802 0.022700228 -0.047522753 0.00033228617 0.0040476737 -0.030951263 -0.037910786 0.048777226
0.018905204 -0.0018187093 -0.07296241 -0.010555299 -0.011792318 0.013030849 0.025534658 0.050219268
0.0027966541 0.031183075 0.07412493 0.026670009 0.01860895 0.024999894 -0.021237401 -0.015545612
-0.024663564 0.005416654 0.053909086 -0.014554854 0.016395919 -0.0012817318 0.02138402 -0.012628668
-0.09334908 0.0032199775 -0.054064374 0.024089595 0.016601965 0.028267639 -0.043060232 0.024197359

fc1.bias f4 [50]
00000000: c364 05bc 0141 2cbc 76a4 d23b 9d40 d93c
00000010: 8e00 13bd 5f42 663c de5a a73b 5f7f 56bd
00000020: 2de9 893d 391b e7bb 92d1 173d ee83 1abd
00000030: 566e 713c 84f0 4f3c 48c5 043d 3d1d cd3c
00000040: e422 573c d6b9 933c 0467 9fbc 8696 53bc
00000050: f571 993d ad50 c4bc 24d2 90bc 7f5a 393d
00000060: dbc0 1a3d 9a77 0b3d cab2 22bc 2fdd 64bd
00000070: 273e b9bc 2c0f 133d 887f e83c 3bdb 65bd
00000080: f80c f63b a346 863d 4d0b 823d 3433 f03c
00000090: fe20 8fbb d145 173b 3974 66bc 57a8 a6bc
000000a0: fb38 22bd 5109 443d d07c 013c 6e0d 19bd
000000b0: b5cb c53c dfa1 373c 3d87 253b 1d45 9a3c
000000c0: 80f6 b039 5a23 373d
-0.008141699 -0.010513545 0.0064282967 0.026520068 -0.0358892 0.01405391 0.0051072678 -0.052367564
0.06733928 -0.0070528057 0.037065096 -0.037723474 0.014735779 0.012691621 0.032414705 0.025038356
0.013130877 0.01803295 -0.019458301 -0.012914306 0.07492439 -0.02396425 -0.017678328 0.04525232
0.037781578 0.034049608 -0.009930322 -0.055875 -0.022612644 0.03590314 0.028381124 -0.056117278
0.00750887 0.06556442 0.06349812 0.02932129 -0.0043679466 0.0023082385 -0.014065796 -0.020343943
-0.039605122 0.047860447 0.007903293 -0.037366323 0.024144987 0.011208027 0.002525761 0.018831784
0.00033752993 0.04471145

fc2.weight f4 [10, 50]
00000000: 660b b43d cf8e 133c 128e c9bd 0934 b33d
00000010: 02cf 573c b0d0 123e a53d 03be dcb8 6d3e
00000020: b094 51be 222a 15be 46ad c83d 7acb b2bd
00000030: c912 103e ab9e 073e 3b88 96bd 2d21 3f3e
00000040: b0e6 dbbd 7e14 333e ae89 7dbe d588 16be
00000050: 8411 31be c9a8 c53b 8d06 15be c6b0 f4bd
00000060: d5f8 443e de71 0fbe 9b04 153e be4e 21be
00000070: 032b 0f3e 1bc3 64bd 18a1 1c3e 30d1 1c3e
00000080: d118 b53c 924f 50bd d13b 2abe 89c0 80be
00000090: 053e 9c3c 47ba 313e 7bd1 3bbe 444b a63d
000000a0: 19a6 473b 99ec 4abe 7bba 41be 56ba 6f3e
000000b0: 7370 03be ad9f 98bd 7275 b8bd 8937 fbbc
000000c0: 0d66 2dbd 81d8 9bbd a7c3 1f3e a5c0 5a3d
000000d0: 73c2 adbd 5f51 55be 396b 8b3c c02b 3e3d
000000e0: cd77 d4bd 69f7 24bc a786 453e 9615 b4bd
000000f0: cd98 77bd 4216 b33d 9121 38be 920a 4e3e
00000100: 573e 583e 39cc f5bd 9c5d ff3d eb60 23be
00000110: 4120 47bd 50b2 8ebd e184 533e 7ce5 c13d
00000120: 7327 303e dad0 5ebe a927 0fbe d0e0 04be
00000130: e79c 97bd 78b9 1abd 733f 8bbc e844 a93d
00000140: a0f9 72be 01c4 75bd fde3 87bd ee89 4a3e
00000150: 59d9 c43d 93b0 f23d 3720 513e f5c2 073e
00000160: 8daf 39be 4e13 7abd 1ae5 a43d 9b4e bebd
00000170: 1263 2b3e 26b4 8bbd e93f 293e e4c4 0e3c
00000180: aa0b 28be 85a4 d4bd 362c 23be 3fa8 b1bc
00000190: 2c6a 313e 17ed 633c 1a8b 22be b53e 03be
000001a0: 472e 143e 73cb 8b3d d85e c23d 6f23 9cbd
000001b0: 43be 8fbd 4a07 b53d f20b f63d be4e 91bd
000001c0: cf16 033e d24e e1bc 9584 5d3e 77f5 1ebe
000001d0: 926b f3bd 2388 203e 3ccc 4bbe cad4 e63d
000001e0: baba 40bb cad8 0d3e e97a 52bd 2e6a c1bc
000001f0: 22a4 26be 6bb5 dfbd 8d7a 79bd 621a bf3d
00000200: b2e5 9a3d 1425 03bd d3da afbd 45c1 6c3d
00000210: fb42 7dbd 892e 1abe 4278 99bd c4a3 07be
00000220: 6d1f 1d3e a297 84bc 9766 75bd 22eb 6cbd
00000230: 1118 043e 3215 6abd 3ce0 043e 6bf5 243e
00000240: e66d 203e d631 003c f31b 3b3e 6f7c 2a3d
00000250: 1d6e 6b3d 2da0 08be db92 70bd 0fb0 f63d
00000260: aeb8 c5bb 56c2 14be 4ba5 2cbe 824d 5cbd
00000270: 83c5 be3d 5aa9 2c3e 8262 22be a0e3 083e
00000280: 6f0b c43d 506d 133e 2867 323d fff2 f53d
00000290: af7b 743c 3878 9cbd e5d4 82bd d07c a9bd
000002a0: 8c42 1a3d 355d c63d f2e0 41be ab01 eb3d
000002b0: 5390 253e b081 9ebd d066 8cbb ac94 f63d
000002c0: 4201 60bc 3ae4 0a3e 3967 9a3d 00d1 b5bd
000002d0: c684 9bbd b469 ca3d 1ec8 aa3d 5470 92bd
000002e0: d2d4 043e 9afc 8abc 6793 4dbd 0720 ebbd
000002f0: ed46 d73d 404e 3cbe a0b5 db3d 2357 233e
00000300: 3557 f33b 5758 373e c628 e83d 2d84 27be
00000310: 8688 2f3d d3f3 1fbe a8eb 4cbe 9c52 6e3d
00000320: 1849 0ebe a144 eb3c 5012 cebd e7bf e63d
00000330: 73d6 5b3e 31e0 163e c80d 8ebc dac7 f13b
00000340: 5325 173e af7f 7dbc 5a3f 43be 325e 023b
00000350: c06f 1abe 4347 153d 7701 eabd 36c7 3f3d
00000360: 4608 223e fb62 6f3d 4889 7d3d 853f 1a3e
00000370: 73ec 573e 0ce6 b93c 0dc7 e43d db3a 623e
00000380: ac20 62bd b409 20bd fc73 1f3e 766d b83d
00000390: dd0d 91be e2db 933d 9a4a 12be 898b eb3d
000003a0: 6100 40bd 1660 72bc 76fc f2bd 01c9 3c3d
000003b0: 2463 a7bc c09e b4bd 3924 173e a237 1fbe
000003c0: 8466 63be e51a b6bd fa65 a5bd 3200 39be
000003d0: 732c 69be a649 9e3d 3f6f 1d3e c78b 1f3e
000003e0: a719 0a3e 6e3b 3bbd 6660 42ba e79c 4d3d
000003f0: d95a c2bb 979e 5b3d 9537 abbd 3bd9 3c3e
0.087912366 0.009006216 -0.09841551 0.08750159 0.013171913 0.1433742 -0.12816484 0.2321505
-0.20466876 -0.14566854 0.09798674 -0.08730216 0.14069666 0.13244121 -0.07350203 0.18665
-0.107373595 0.17488286 -0.24759552 -0.14700635 -0.17291838 0.0060320836 -0.1455328 -0.11947779
0.19235547 -0.1400828 0.14552538 -0.15752694 0.13981251 -0.05585013 0.15295827 0.15314174
0.02210656 -0.050857134 -0.1662438 -0.25146893 0.019072542 0.17356215 -0.18341629 0.081198245
0.0030463992 -0.19816817 -0.18918793 0.23410925 -0.12835865 -0.07452331 -0.09006776 -0.03066613
-0.04233365 -0.07609654 0.15601979 0.053406376 -0.08484354 -0.20831822 0.017018901 0.046428442
-0.10374413 -0.010068753 0.19289647 -0.0879318 -0.060448457 0.0874448 -0.17981555 0.2012122
0.21117531 -0.12001843 0.124690264 -0.1595494 -0.048614744 -0.06967604 0.20656158 0.09467599
0.17202549 -0.21759358 -0.13979973 -0.12976384 -0.074029736 -0.037774533 -0.016998028 0.08265096
-0.23728037 -0.060001377 -0.06635282 0.19779179 0.09611768 0.11850085 0.20422445 0.13257964
-0.18133374 -0.061053567 0.0805151 -0.092923366 0.16737011 -0.0682147 0.16528286 0.008713935
-0.164107 -0.10382942 -0.15934834 -0.021686671 0.17325658 0.013911507 -0.15873376 -0.1281689
0.14470778 0.06825914 0.09490746 -0.07623946 -0.070187114 0.08839281 0.12013997 -0.07095097
0.1280167 -0.027503405 0.21632607 -0.15523325 -0.11885752 0.15676932 -0.19902128 0.11271055
-0.0029408173 0.1385223 -0.051386748 -0.0236102 -0.16273549 -0.109232746 -0.06090789 0.09331204
0.07563342 -0.032017782 -0.08586659 0.057801504 -0.061831456 -0.15056814 -0.074936405 -0.13246065
0.15344019 -0.016185585 -0.05991229 -0.057841428 0.12899806 -0.05714912 0.12976164 0.16109245
0.15666923 0.007824382 0.1827238 0.041622575 0.05747806 -0.13342352 -0.058733802 0.12045299
-0.0060339784 -0.14527258 -0.1685993 -0.053784855 0.09315016 0.16861477 -0.1585789 0.13368082
0.09572493 0.14397168 0.04355541 0.120092385 0.014922067 -0.076401174 -0.06388263 -0.08275759
0.03766112 0.096857466 -0.18933466 0.114749275 0.16168337 -0.0773958 -0.004284717 0.12040076
-0.013672175 0.13563624 0.075392194 -0.08877754 -0.07593684 0.098834425 0.083389506 -0.07150331
0.1297181 -0.016966153 -0.050189402 -0.11480718 0.10511575 -0.18389225 0.107280016 0.15951209
0.0074261674 0.17904793 0.11335902 -0.16359015 0.04285481 -0.15620355 -0.2001177 0.05818425
-0.1389507 0.028719248 -0.100620866 0.11267071 0.21468525 0.1473396 -0.017340556 0.0073785605
0.14760332 -0.015472337 -0.19067135 0.001989257 -0.15081692 0.036444914 -0.11426061 0.04682084
0.15823469 0.058444005 0.0618985 0.15063293 0.21086292 0.022692703 0.111707784 0.22092764
-0.05520694 -0.039071754 0.15571588 0.09005253 -0.2833089 0.07219674 -0.1428627 0.115012236
-0.04687536 -0.0147934165 -0.11864559 0.04609013 -0.020433016 -0.08819342 0.14759912 -0.15548566
-0.22207075 -0.088918485 -0.08076091 -0.18066481 -0.22770862 0.07728891 0.15374468 0.15580665
0.13486348 -0.045710973 -0.0007414877 0.05019846 -0.00593124 0.05361804 -0.08360211 0.18442242

fc2.bias f4 [10]
00000000: 82a8 82bd 368b 2fbc 48c4 813d 83fb 793d
00000010: eda6 073c f5ac 0f3e 1ff9 be3d 0114 a2bd
00000020: ae3b 363d 5577 5f3c
-0.063797966 -0.010714343 0.06336266 0.061030876 0.008279544 0.14030822 0.0932486 -0.07913972
0.04449051 0.013639291

momentum_buffer f4 [10, 1, 5, 5]
00000000: 2dc5 64bc 6853 a63a 24d1 3a3c 13df 173c
00000010: 5a65 913b 0a90 6bbc f534 ccba 00c9 62b9
00000020: 6d7b 33bc 8f60 a3bc 3ce1 233b 7448 083b
00000030: 9c58 2a3b f6a8 b1bc 20a9 3fbd f635 d03c
00000040: d1ed e93c e678 723c 949d 9abc 8eaf 0ebd
00000050: 11ce 093d d97b 213d a4e9 3c3c ca5b babc
00000060: 3489 cfbc de5a 0abc 2214 aebb 9ac7 bcbb
00000070: 6a0d 62bb d057 853c 0c97 00bd e489 debc
00000080: 84c0 c3bc 64d4 5ebc 472b 113c f048 48bd
00000090: e8df 5dbd 0a37 14bd 1435 a3bc 807c 80bc
000000a0: c154 18bd c8c5 d9bc e785 3dbc 0c5e 903b
000000b0: 12bc 64bc 90fa 67bc 881f 3a3c 4ca6 b03c
000000c0: d517 143c 884c 13bc 2a83 bb3c 023e b63b
000000d0: 105a aa3a 5063 61ba b092 3f3c 62a9 34bc
000000e0: 668d e5bc 52a3 7ebc 0a65 45bc 1ab0 7d3c
000000f0: bbe7 94bd 9c60 b1bd 5378 a6bd e5e6 74bd
00000100: fd3e 11bd 73e1 9ebd 71db a8bd 6318 bcbd
00000110: 634f 49bd 9e23 f9bc 5423 8ebd b8c0 84bd
00000120: 9928 50bd 4886 b6bb 0010 b9bb 7ccb 543c
00000130: 6287 4b3d bc9e 353d c61c e23c 00e6 b3bc
00000140: 7cf8 ac3c 9a37 383d b845 b83c 88f2 16bb
00000150: 8852 7ebd 3cac 183d 5c9b 153d 644b 573c
00000160: 1e30 16bd a55a 86bd 7eec 193d 521c 173d
00000170: f4ec 523c 5c66 1fbd e2a0 41bd db41 803d
00000180: 826c 1f3d 40fb cc3b 63db adbc 7e40 1cbd
00000190: 9b9f 9cbc 8964 213b 3665 603c 785b 033d
000001a0: 35c0 e43c 2af9 91bb 0e20 ce3b 4522 a43c
000001b0: 2c7d 1a3d fd07 d23c 40c8 6e39 4ae8 a03b
000001c0: 25c2 693c 80a5 ff3c 4673 883c 6dba 91ba
000001d0: e67e bd3b cad5 5c3c 0d05 ce3c ea16 493c
000001e0: 4c84 e93b 4a1b f13b 16cb 5f3c d08b 973c
000001f0: 80b2 0b3c 98bc 663c be54 903c 7dce 633b
00000200: 3974 17bc 4d67 00bc 2980 d93c caf0 a03c
00000210: 2233 613b 6433 2ebc e462 c5ba c47a 793c
00000220: c359 373c 687e dcbb 5efc ffba 1b6f 693b
00000230: e1f9 2c3b 38f0 57bb e04f 39bc 2869 d839
00000240: 6474 f83b 8e10 d2bb 18e4 56bc c3bf 17bc
00000250: a800 b83b 28b3 f63b 3279 1cbd 9462 fcbc
00000260: adda 3dbd b85f 94bd ae5e 89bd 0c44 babb
00000270: 001d 5dbb feb2 65bc 28a7 27bd 813b 20bd
00000280: a478 083c 422f 5c3c c557 ab3c d09a a23c
00000290: a4ed a6bb a65c 1f3b 191e 9a3c 8ce3 e83c
000002a0: 569d de3c 9e07 ae3c 3e8d 9e3c 9c38 0c3d
000002b0: 1ff0 fb3c b86c 953c dcbe ac3c 479d de3b
000002c0: d751 203b 9116 19bb 52b8 7ebb 882a 733b
000002d0: ad61 443c adb6 b43b 196e 023b 8a77 e5ba
000002e0: a042 4dba 14ad f63b 0029 cb3b 6677 953b
000002f0: 6763 d33b 33df c43b f23c f93b 2973 893b
00000300: 8f8a 323b d086 513b 6c71 093c b681 a0bb
00000310: fc01 01bc 0017 08bc f25c 0ebc 19bf 02bb
00000320: b277 09bd 2e69 96bc 184e 90bb df05 e23c
00000330: b9d5 223d 949f 09bd 8583 a6bc e44e b03b
00000340: ba34 d43c 1ef8 db3c f811 e0bc 6491 bcbb
00000350: e40d 5a3c ba3e 5c3c b4ae 933c 5994 4cbc
00000360: b203 883c fa07 e03c 0663 e63c 10d3 cf3c
00000370: 88f1 663b fc87 af3c cdf9 1a3d 89e1 e03c
00000380: 05e1 9e3c 0741 46bc 37df 1dbc b466 d2bb
00000390: a61c ecbb 6881 b43a 3af0 26bc 520f 36bc
000003a0: 4056 9539 da4b a13b 44e9 c7ba 8014 25b9
000003b0: 5018 673b aad9 e33b e846 923b 8480 d3bb
000003c0: 40f7 8d39 f0ee f33b 38a1 0c3a 68c1 2b3a
000003d0: ca41 20bc 7074 f83a ec76 933b 520f 61bb
000003e0: 228a 9dbb b778 b0bb
-0.013963026 0.0012689652 0.011402402 0.009269494 0.004437131 -0.014377603 -0.0015579747 -0.00021627918
-0.01095472 -0.019943504 0.0025006076 0.0020795139 0.0025992757 -0.021687012 -0.04679215 0.025416356
0.028555783 0.014799332 -0.018873967 -0.03483539 0.033643786 0.03942475 0.011530314 -0.022748847
-0.025333978 -0.008444516 -0.0053124586 -0.005761099 -0.0034492859 0.016277224 -0.03139405 -0.02716536
-0.02389551 -0.013600443 0.008860416 -0.048897684 -0.05416861 -0.0361853 -0.01992277 -0.015684366
-0.037190203 -0.026583567 -0.011567569 0.0044057425 -0.013960855 -0.01415886 0.011360057 0.021563672
0.009038885 -0.008990414 0.022889692 0.005561591 0.0012996811 -0.00085978676 0.011692688 -0.011026712
-0.028021526 -0.015541868 -0.012048015 0.01548388 -0.072707616 -0.08661005 -0.08128419 -0.05979051
-0.03546046 -0.07757845 -0.0824498 -0.09184339 -0.049147975 -0.030412491 -0.06940332 -0.06482071
-0.050819967 -0.005570207 -0.0056476593 0.012987968 0.049689658 0.044340834 0.02760161 -0.021960258
0.02111458 0.0449749 0.022494182 -0.0023032743 -0.062090427 0.03727363 0.036525115 0.013140533
-0.036666982 -0.06560258 0.037579052 0.036892243 0.012873877 -0.038915977 -0.04727257 0.06262561
0.03892184 0.0062555373 -0.021222776 -0.038147442 -0.019119075 0.0024626574 0.013696006 0.032069653
0.027923683 -0.0044547515 0.0062904423 0.020035872 0.03771703 0.025638575 0.00022772048 0.0049105035
0.014267479 0.031206846 0.01665653 -0.0011118181 0.0057829497 0.013478706 0.025148893 0.01227353
0.0071263667 0.0073579894 0.013659259 0.018499285 0.008526444 0.01408305 0.017618533 0.0034760528
-0.009244018 -0.007837129 0.02655037 0.019646067 0.0034362753 -0.01063237 -0.0015059379 0.0152270235
0.011190834 -0.006728936 -0.0019530167 0.0035619203 0.0026394057 -0.0032949578 -0.011310548 0.00041277078
0.007582234 -0.006410665 -0.013115905 -0.009262028 0.0056153126 0.0075286813 -0.03820152 -0.030808724
-0.046351124 -0.072448194 -0.06707512 -0.0056843814 -0.003373921 -0.014019726 -0.040930897 -0.039119247
0.008329544 0.0134390015 0.020915875 0.019849211 -0.005094247 0.0024316697 0.01881318 0.028428815
0.027174633 0.021243867 0.019354459 0.034233674 0.030754147 0.018240318 0.021087103 0.0067936513
0.0024462843 -0.0023359398 -0.0038867188 0.0037104208 0.011986178 0.0055149407 0.001990205 -0.0017506939
-0.00078300573 0.0075279567 0.006199956 0.0045613525 0.0064510587 0.0060080527 0.007606142 0.0041946364
0.0027243232 0.0031971224 0.008388858 -0.0048982752 -0.007874008 -0.008306265 -0.008689152 -0.001995033
-0.033561416 -0.0183607 -0.0044038408 0.02759069 0.039754603 -0.03359945 -0.020326385 0.0053804982
0.025904048 0.02685171 -0.027352318 -0.0057546366 0.013308976 0.01344269 0.01802764 -0.012486541
0.016603325 0.027347554 0.02812339 0.025369197 0.0035239179 0.021427147 0.037835885 0.027451294
0.019394407 -0.012100465 -0.009635738 -0.0064209346 -0.0072055636 0.0013771476 -0.01018911 -0.011112051
0.00028483756 0.0049223723 -0.0015252014 -0.00015743263 0.0035262294 0.006953438 0.004464019 -0.0064545292
0.0002707783 0.007444255 0.00053645996 0.0006551952 -0.00978131 0.00189556 0.0045002606 -0.0034341407
-0.0048077265 -0.005385484

momentum_buffer f4 [10]
00000000: 260b ecbb 9633 fcbb e61a b1bc 3031 9a3c
00000010: c2a2 0bbc a2c2 53bb 93cf b73b b9e6 0cbc
00000020: 06b7 313c d4a6 65bb
-0.0072034774 -0.007696579 -0.021619271 0.018822283 -0.008522691 -0.0032312055 0.0056094616 -0.00859993
0.010846859 -0.0035042064

momentum_buffer f4 [20, 10, 5, 5]
00000000: 594e 473c ebdb b93c 2d64 7b3c dec1 b1bc
00000010: a63f c2bc 506a 213a 2ca6 bb3c 0677 e43c
00000020: c5cc bc3b 5644 923b 3559 bc3c 9c1a c13c
00000030: b5be 8d3c 30d0 68bb 4a0c 8d3b 7e55 483d
00000040: ad98 be3c 50ff 6f3c a810 5a3b e465 4d3c
00000050: 6ef4 5d3d 3da0 0f3d 6e58 013d b6a7 b53c
00000060: c073 853c 3261 0e3c 3aae 3e3c 9a6f d63a
00000070: 3858 afbc ecd0 83bc a0c7 41ba d66f 343c
00000080: 4fd3 983c 00ce 453c 4958 963c 94d6 a13c
00000090: b48b 5b3c a8e8 2abb d202 18bc 52a9 72bb
000000a0: 89dd 023d 78a2 483c 80aa ed3b 9133 083c
000000b0: 9eff ba3a 003a d23c c251 463c 016d a63c
000000c0: bc2d 8b3c 8e91 f03b e640 2dbb a119 8c3b
000000d0: b912 133c 8e01 c33b a284 063b 0060 68b9
000000e0: 9afd 9e3b 62c7 5c3c 0100 d43c 9d19 9b3c
000000f0: 22c9 153d 17ff 953c 4ac9 2cbc 8684 38bc
00000100: 6055 e4bb 54f4 193d e54f a83c 8e28 a73c
00000110: 472c 8e3c 8d2a bebb 7a3c 463c 7576 f73c
00000120: d8a1 0e3d c07a 623c b01b 59ba bf6f 0d3c
00000130: 5207 d13c 21a2 e83c 009e 8638 4273 19bd
00000140: 9417 5f3b c309 c03c 67f6 213d b00f c63c
00000150: 4c3c a5bc 40ce 03ba 18dc 793c 4813 123d
00000160: 4690 183d 72d9 863b d154 6f3d 9eab 393d
00000170: 76c6 9e3c 104b ec3a 8124 a43b 3cea 913d
00000180: 4c0e a53d 2bfa 5d3d 6311 fc3c 4a4c d33c
00000190: 331a 923c c13b 773c 94fb bf3b 367d 1bbb
000001a0: 144e 973c f0a0 233c 0f4d ab3c fea6 f43a
000001b0: fe33 32bc 2ae2 3d3c bce5 793c 7b7e e83b
000001c0: 332f d3bb e051 383a bc5c 7f3b 1075 a33b
000001d0: cc27 18bc 51ea 2d3a 1606 243c aa2b 083a
000001e0: fe28 853c 948f 26bc e1dc d83b e03d 43b8
000001f0: 0c8d d4ba 7c80 293c f6e0 423c d17e 073b
00000200: 0231 a3bb 944e 963a 2c0a e93b 28da 303c
00000210: bc5b 263b 5d1a 40bc 7533 2abb 6369 0c3b
00000220: adf8 563c 838d 5e3c 00fb e337 2a13 56bb
00000230: 70eb f339 dab3 a1bb 42eb dcbb 50c4 2ab9
00000240: 9ad9 e3ba f01a 7639 1fc9 78bc e474 53bb
00000250: 1642 e2b9 8005 0ab9 3a4f b93c f4be ef3c
00000260: 27cf 6f3c 9e23 a2bc c0bb 0a39 01d3 0a3c
00000270: 0485 ef3c 3c60 953c f8dc 9bbc 3cb7 58bc
00000280: ff4d 253c c8ff 843b c639 473c 5e3c 9f3c
00000290: 6dfe 823c 5cff 783c 131a f7bb aa8e fc3b
000002a0: 66be 933c 145f 533b 7809 5c3d c813 1c3b
000002b0: 2035 77ba f049 68ba 1b1c 86ba d840 223a
000002c0: 1ffe f2ba e644 3c3a 4daa 293b 86af 1b3b
000002d0: b56e 3a3b 6f36 3dbb 2b9c d6bb 8fb0 39bb
000002e0: f0c1 2f3b 8c5b 1bba 580c 123b d0a6 483b
000002f0: 5b4a 8bb9 b328 8f3b 5afe 8ebb 7abb 033b
00000300: 422b 92ba 021a b83a c6f3 8c3b a84a 22bc
00000310: b4ab dcbb 1a5b c5bb 3ea5 7abb 5471 c6ba
00000320: d762 953c 7b12 c83c ffed 803c 8171 dcbc
00000330: 5e31 93bc 0689 533c 96b1 003d 38fc 033d
00000340: f502 08bc d8ad 413b 668b 9a3c 9500 123d
00000350: d1eb 693c 3436 7bbc a654 dd3b 6818 2b3d
00000360: 0a74 af3c ec7b 863b 069a 6f3c 2673 b63c
00000370: 74e9 373d 7062 f03c c064 0a3d 8c56 d63c
00000380: 2c29 493c 0966 0e3b 68e0 7639 2470 eb3b
00000390: 8fcc 953c 58ce 483c 26a1 113b 3834 263b
000003a0: 22e6 c73b b88b 413c 00e3 5e3a 160c 98ba
000003b0: 784b a93b dfa7 f13b befc db3b 0073 9db7
000003c0: 10da d7ba bb72 f33b 9a62 483c a003 c43a
000003d0: bcbf 51bb 197a 52bb 989e 9f3b 1077 d63a
000003e0: 7069 fb39 e61f c43b 763a 323d 7336 ab3c
000003f0: 3a55 b13b 9ab9 4fbc e48f 983b 68ce 363d
0.012164676 0.022687873 0.015343708 -0.021698888 -0.02371199 0.00061575044 0.022906385 0.027888786
0.005761715 0.0044637127 0.022991756 0.023572259 0.01730285 -0.003552448 0.0043044435 0.048909657
0.02326616 0.014648274 0.0033274088 0.0125365 0.054188184 0.035064925 0.031578474 0.022174697
0.016290545 0.008690165 0.011638219 0.0016360164 -0.02140437 -0.016090833 -0.0007392112 0.011012992
0.018655447 0.01207304 0.018352645 0.01975564 0.013400007 -0.0026078615 -0.009278016 -0.0037027192
0.031949554 0.012245767 0.007252991 0.008313076 0.0014266854 0.025662422 0.0121044535 0.020315649
0.016989581 0.00734157 -0.0026436388 0.004275516 0.008976632 0.005951113 0.0020525833 -0.00022161007
0.004852009 0.013475271 0.025878908 0.018933112 0.03656877 0.018310113 -0.010546038 -0.011262065
-0.0069681853 0.037586525 0.02054591 0.02040508 0.017355097 -0.0058034123 0.01209938 0.030207852
0.034822315 0.013823211 -0.0008282019 0.008632599 0.025516186 0.028397622 6.419048e-05 -0.037463434
0.0034041153 0.023442155 0.03954163 0.024177402 -0.020170353 -0.0005027987 0.015250228 0.03566292
0.037246965 0.004115277 0.058430497 0.045329683 0.019381743 0.0018027741 0.0050092344 0.07124755
0.080593675 0.054193657 0.03077001 0.025793213 0.017834758 0.01508993 0.005858848 -0.0023725755
0.018469848 0.009987101 0.020910768 0.001866549 -0.010876654 0.011589566 0.015252527 0.007095156
-0.0064448356 0.00070312433 0.0038965186 0.00498832 -0.009286832 0.0006634342 0.010011217 0.0005194495
0.016254898 -0.010166068 0.0066181277 -4.654925e-05 -0.0016216352 0.0103455745 0.011894455 0.0020674954
-0.0049802074 0.001146751 0.0071118083 0.0107942 0.0025384268 -0.0117250355 -0.0025970612 0.002142512
0.013120812 0.013583544 2.717739e-05 -0.0032665231 0.00046523986 -0.00493477 -0.006741912 -0.00016285595
-0.0017383576 0.00023470423 -0.01518467 -0.0032265717 -0.00043155317 -0.00013162754 0.022620786 0.029265858
0.014636791 -0.019792374 0.00013230648 0.008473159 0.029238231 0.018234365 -0.019026265 -0.01322728
0.0100893965 0.004058812 0.01215977 0.019437965 0.01599046 0.015197601 -0.00754095 0.0077074366
0.018035125 0.0032252716 0.053719968 0.0023815501 -0.00094302185 -0.0008861115 -0.0010231765 0.0006189472
-0.0018538869 0.00071818975 0.002588886 0.0023755743 0.0028447334 -0.0028871556 -0.0065493784 -0.0028333997
0.0026818477 -0.00059264223 0.002228519 0.0030617006 -0.00026567545 0.0043688654 -0.004363817 0.0020100758
-0.0011151808 0.0014045837 0.004301521 -0.009905495 -0.006734336 -0.006022823 -0.0038245465 -0.0015139976
0.018235607 0.024422875 0.015738485 -0.026909592 -0.017967876 0.012911087 0.03141936 0.032222956
-0.008301486 0.0029553082 0.018865298 0.035645086 0.014277414 -0.015332747 0.0067544756 0.041771322
0.021417636 0.004104128 0.014624124 0.022271704 0.044900373 0.029343814 0.03378749 0.026164316
0.012277883 0.0021728298 0.00023543986 0.007184999 0.018286018 0.012256227 0.0022221296 0.0025360715
0.006100432 0.011813097 0.00085024536 -0.0011600282 0.0051664673 0.007374748 0.006713479 -1.876941e-05
-0.0016468186 0.0074294484 0.01223054 0.0014954694 -0.0032005152 -0.0032116233 0.004871201 0.0016362388
0.00047953008 0.005985248 0.043512784 0.020899987 0.005411771 -0.012678528 0.004655825 0.044630438

momentum_buffer f4 [20]
00000000: 429b 163b 2472 4a3b b4bd ddbc 92f1 68bb
00000010: 8d0a 7c3c 68b6 323c b688 aebc 1c28 92ba
00000020: 658a 50bc 14f6 4c3b f54e 493b 9c59 ac3b
00000030: 6fc0 3a3b 1e5a 0e3b 5093 e1ba efef 883c
00000040: 4e2d 023c b5ee 333b dddc ee3b 766d 733c
0.0022980724 0.0030890787 -0.027067997 -0.0035544378 0.015383375 0.010907747 -0.021305423 -0.001115087
-0.012728308 0.0031274604 0.0030717228 0.0052597057 0.0028496047 0.0021721194 -0.001721004 0.016715972
0.007945372 0.0027455513 0.0072895125 0.0148576405

momentum_buffer f4 [50, 320]
00000000: e057 30bd 07e8 3ebd 8ea3 b3bc e7a9 93bc
00000010: 7604 4cbd c571 08bb 4065 a6bc 0a9b 0dbb
00000020: 2f65 65bd acbd 4dbd d2c2 aabc 63d7 8bbb
00000030: 9b7f b7bc 7ed8 01bd d198 69bd 3ac4 34bd
00000040: 9728 563d 2d4f 1f3d 30b0 f0b9 a1e5 e33a
00000050: a870 623d db08 1c3c dd2d bf3d b748 013d
00000060: e55e 323d 7a6d b63c f5e2 863d 8c95 903c
00000070: ced3 913b b164 303d ab51 5b3d bfdf 3a3c
00000080: ba6c b9bc 7a9b 1fbd 5055 2fbd 7262 053d
00000090: 7687 f8b8 26aa 6abc 2de3 afbc 6ac4 93bc
000000a0: 2e35 20bb 9c9e 0c3c df60 413c 37af a7bc
000000b0: 79fb 503d cb4e 9c3d a47e bc3c 1d2f 83bc
000000c0: 7b3b 123d 82db 813d b310 2fbc 5ccb d8ba
000000d0: 5849 de3d 1b94 563c 6f3f 3b39 b868 8bbc
000000e0: 929d a53d 2a16 33bc a02d 4eb9 672a 5abc
000000f0: ec65 033d bd95 27bb 8c2f 073c 735f 833b
00000100: 7abc d73c 22ac eb3c b651 b93a 9165 cf3c
00000110: 9c71 813d a9ee af3b 4c8a c03d 7c82 cf3c
00000120: 2f37 fe3c adf1 193c 823f 863d 0e9b 1bbc
00000130: 9806 a4bc a1a0 f73d 840b 4f3d 6803 68bc
00000140: 12da cbbc 4e77 0c3d 5015 af3c 863b db3c
00000150: faa3 e1bb fef7 bcbc 709f e53b ea51 a23b
00000160: 41b0 833c 364f 823b dfe6 24bd 1c19 26bd
00000170: 7d1b a4ba bfff 2b3c 3934 1dbd 6c70 8dbd
00000180: 7d25 2d3c b2a4 353c 2e74 423d 618d a23d
00000190: bffd 1ebd a26f 10bc 0870 ee3b 8bcf ecb9
000001a0: c4e3 113b ebd3 5a38 220d 9938 1745 9c38
000001b0: 05b2 b63c 2b18 c93c 1646 a9bc 72ba 2cbd
000001c0: de97 04bd 5a5f 58bd bd03 6cbd fc66 50bd
000001d0: 5bfe 99bd 1e47 28bd f5c2 81bd 0a09 17bd
000001e0: 86f6 dcbc 18de babd 3f2e c4bd ffd8 50bb
000001f0: 4772 4cbd 8dbf abbd 83ff 99bd 76f7 58bd
00000200: 5861 413b d415 eabc 1ee2 39bd da62 9fba
00000210: b9f0 e5bc 35e3 f0bc dd81 71bc 83a5 d0bc
00000220: d829 80bc 341e 62bb 03bd 13bd 7e11 193b
00000230: 6811 883b af86 53bc 923b ebbc 24f2 1db9
00000240: cc3b 9dbc ff6b 9ebc d6a7 1ebc 9e02 0cbb
00000250: 9018 2dbd 5247 98bd 6a75 d4bc 2094 8abc
00000260: e510 9bbc 6c38 17bc 8ff4 d3bb 3a58 58bc
00000270: 3c98 b2bc 0a93 e6bb 9fed a6bc d795 b7bb
00000280: 811b 79bd 3368 a6bd 4f64 adbd c3ee a4bd
00000290: 2894 61ba e85a 83bc 1263 18bd 4dcb 23bd
000002a0: 5890 18bd c459 13bd 9e4f 1fbd 9f36 2ebd
000002b0: 2619 58bc 2f5d 90bb 4733 57bd 2434 8cbd
000002c0: 1a5a 61bd 658a c3bd 7122 d0bd c854 01bd
000002d0: 16d9 adbc 8017 c3bd 7e36 d2bc 9c29 88bc
000002e0: a391 93bd 67e1 2bbd 72bc 4fbd 0231 64bd
000002f0: 3991 91bd dada 3dbc 9d7a 3abd 5fc2 04bd
00000300: db38 f838 ea43 30bb b357 9d3b 66cf d8bb
00000310: ef05 bf3c 7af9 4abc af4c 05bc b02a 82bd
00000320: ddba 973c 4988 95bb c49e 9abd 04ae 7ebd
00000330: 7fa8 09bb 6e60 43bc ad8a bbbd 2b75 d2bc
00000340: b193 f0bc b0aa e73b b90b dabc f145 07bb
00000350: 04f4 9dbd b823 07bd e822 93bd 7b39 d13b
00000360: 7e71 6dbd 4462 8fbd 883e 16bd 2a02 e2bb
00000370: abc7 18bd b741 c6bc 696e a0bc 2bd7 c6bd
00000380: 64fd 6cbd fbed b6bc 3f36 16bd 99d1 d2ba
00000390: 0ce7 47bd f2e5 d0bc 8b82 0dbd 9e22 40ba
000003a0: d5e9 b9b9 a2c9 32bd 9bc4 053c 82d8 55bb
000003b0: 92f0 7fbc 225e 1bbc 5ad0 563b b0c4 b0bb
000003c0: 669c 1dbd 99f5 94bc 3e92 96bd c6c3 78bb
000003d0: 4ec6 2fbd a59c d9bc 5023 5cbd cfbe e9bb
000003e0: 7d7d 71bc 3092 00bd 26f9 d7bc 42a5 30bc
000003f0: 013d 1fbd e1e6 18bd 661f 8dbd d46d bebd
-0.043052554 -0.046607997 -0.021928575 -0.018025352 -0.04980894 -0.0020819765 -0.020311952 -0.0021607303
-0.0560047 -0.050229713 -0.02084485 -0.0042676195 -0.022399714 -0.031700604 -0.057030503 -0.04413245
0.052284803 0.038893867 -0.00045907637 0.001738716 0.05528322 0.009523596 0.093349196 0.031563487
0.04354753 0.022269 0.06586257 0.017649435 0.004450298 0.043064777 0.05354468 0.011405884
-0.022634853 -0.038966633 -0.04280597 0.032564588 -0.00011850793 -0.014322793 -0.02147063 -0.018037993
-0.002444576 0.008582737 0.011802881 -0.020469291 0.051021073 0.07632216 0.023009606 -0.016013676
0.035701256 0.06340696 -0.010685134 -0.0016540098 0.10853833 0.0130968345 0.0001785734 -0.017017707
0.08086695 -0.010930577 -0.00019662688 -0.013315774 0.032079622 -0.0025571429 0.008251082 0.004009181
0.02633499 0.028768603 0.0014138732 0.025316985 0.063204974 0.0053690267 0.09401378 0.025330774
0.031032173 0.009395999 0.06555082 -0.009497417 -0.020022675 0.120911844 0.05054809 -0.014160968
-0.024884257 0.034293465 0.021372467 0.026761781 -0.0068860026 -0.02306747 0.007007532 0.0049536126
0.016075255 0.003976728 -0.04025924 -0.04055129 -0.0012520399 0.010497986 -0.03837988 -0.069062084
0.01056802 0.01108663 0.04747408 0.07937122 -0.03881621 -0.008815678 0.0072765388 -0.0004516806
0.0022261003 5.2172614e-05 7.298055e-05 7.451529e-05 0.022301683 0.024547657 -0.020663302 -0.042169996
-0.032371394 -0.05282531 -0.057620753 -0.050879464 -0.075192176 -0.041083448 -0.06336013 -0.036873855
-0.02697302 -0.09124392 -0.09579133 -0.003186762 -0.04991367 -0.08386145 -0.07519438 -0.052970372
0.0029507484 -0.028574862 -0.045381658 -0.0012160197 -0.028068887 -0.029405216 -0.0147404345 -0.025469547
-0.015644953 -0.0034502866 -0.036068927 0.0023356373 0.0041524656 -0.012910529 -0.028714929 -0.00015062891
-0.019193552 -0.019338606 -0.00968357 -0.0021363865 -0.042259753 -0.07435478 -0.025934894 -0.016916335
-0.018928954 -0.009229761 -0.0064683626 -0.013204629 -0.021801107 -0.0070365714 -0.020376978 -0.005602579
-0.060817245 -0.08125343 -0.08466398 -0.08053353 -0.0008605146 -0.016034558 -0.037203856 -0.039988805
-0.037247032 -0.03597428 -0.03889429 -0.04253256 -0.01318959 -0.0044056396 -0.052539136 -0.068458825
-0.05501757 -0.09547881 -0.10162819 -0.031574994 -0.021221679 -0.09525967 -0.02566075 -0.016621403
-0.072055124 -0.041963007 -0.050716825 -0.0557108 -0.07107777 -0.011587823 -0.04552709 -0.03241193
0.00011836152 -0.0026895949 0.0048017143 -0.0066165207 0.023318259 -0.012388581 -0.008135959 -0.06355798
0.01852172 -0.0045633656 -0.075498134 -0.062177673 -0.0021004973 -0.011924846 -0.0915731 -0.025690636
-0.0293673 0.007069908 -0.026616918 -0.0020641054 -0.07712558 -0.03299305 -0.07184392 0.006385026
-0.057969563 -0.070011646 -0.03668073 -0.0068972306 -0.037299793 -0.024201257 -0.019583898 -0.09709009
-0.05785884 -0.022330275 -0.036672827 -0.0016084193 -0.048804328 -0.025500271 -0.034548324 -0.0007329377
-0.00035460168 -0.043649323 0.00816455 -0.003263027 -0.015621321 -0.009482892 0.0032777996 -0.0053945407
-0.03847923 -0.018183516 -0.07352112 -0.0037958487 -0.042913727 -0.026563952 -0.053744614 -0.007133342
-0.014739391 -0.031389415 -0.02636392 -0.010781588 -0.038876537 -0.03732956 -0.068907544 -0.09298292

momentum_buffer f4 [50]
00000000: e52f 83bb 6aa2 883b c053 46bc ce46 003c
00000010: b7eb bbbb b602 87ba 8664 16bc afbd 13bc
00000020: a0bc 26b9 94a2 763c de53 b7ba 7c75 b439
00000030: 9894 533c e421 583c 836c 8ebb 6e7e e0bc
00000040: 6881 66bb 3d16 debb 6f1d 943b caf3 39bb
00000050: 6620 243c 141d 7ebb 0c59 69bb f2a4 ecba
00000060: 24c5 8b3a f6a9 413b e0ce d13b 8ba6 043c
00000070: d8bb 6339 da22 10b8 83ca 0b3c a3e2 013c
00000080: c951 02bc 7d43 0d3c 6bf3 c2bb da8a eb3a
00000090: e536 b4bb 06b7 4d3c a548 88bc 4d0d 9bbc
000000a0: a7ff 8ebb 6c6b fdbb c5f2 553b d9fb e73b
000000b0: 6529 fe3b 25d1 a3bc 9895 de3b b28f c9bb
000000c0: 78cb c2bb 14a4 8bbb
-0.004003512 0.004169752 -0.0121049285 0.007829381 -0.0057348865 -0.001030049 -0.00917924 -0.009017392
-0.00015901262 0.01505341 -0.0013986786 0.00034419808 0.0129138455 0.013191674 -0.0043464317 -0.027404036
-0.0035172347 -0.0067775534 0.0045201103 -0.002837407 0.01001749 -0.0038774656 -0.0035606055 -0.0018054529
0.0010663611 0.0029550768 0.0064028352 0.008096348 0.00021718384 -3.4364733e-05 0.008532169 0.00792757
-0.007954069 0.0086220475 -0.005949428 0.0017970458 -0.005499708 0.012555843 -0.016636202 -0.01892724
-0.004363972 -0.007733753 0.0032645923 0.007079583 0.0077563995 -0.019997189 0.0067927353 -0.006151163
-0.0059446655 -0.004261503
